benchmark/HAN/checkpoint/rep0.pt (torch, 555468 bytes, 21 tensors)

fallback.proj.0.weight f4 [64, 1870]
00000000: ee40 00bd aefb 1f3c 9a33 dfbc bbe6 1bbc
00000010: ea8e d73c 6838 25bb 94c9 043d 39e9 233d
00000020: fc5b 753d 0954 1c3b e3e1 83bb 202c 19bc
00000030: 9b40 d4ba 8cee 38bd 8992 1f3c aea3 ef38
00000040: 58e2 c7bc 3a14 523d e019 eebb 700d c33b
00000050: fb00 363c 2596 8bbc cd4a 103c 5220 6ebd
00000060: cc15 4dbd 9f84 54bd 76c6 4c3c d205 1c3d
00000070: 263a 023c 1980 a03c 8c3a 803c 2b3d b13b
00000080: 2cdb a2bb 6672 0cbd 2bb4 37bd 5292 a23c
00000090: 8165 823d e14b 2a3d 732b edba a7d2 063d
000000a0: fcc9 f43b cba1 ebbc 43d7 49bc 17a4 0dbb
000000b0: 5262 a8bc fbae 0139 040a 3c3c 7c55 36bd
000000c0: 41dd c23c f848 05bc 492e 07bd b8c7 323c
000000d0: 02fc 693d 7431 f6bc 754d 22bd e51a 70bd
000000e0: 2bd7 2d3c 1ef1 b6bc 5458 4ebc d73c b53c
000000f0: 686f 2fbb 9e1d 953c 4b8c 583c 3a33 0c3c
00000100: 349d 6abc 73b9 33bd d5be 4d3c 5e84 be3c
00000110: 2e1d debc dabc 22bd 81f5 7339 89b1 debc
00000120: 7b68 c4bc 87ad 213d 1880 c3bc 7e65 10bd
00000130: c741 72bc 90b8 98bc 1f4b 8d3c 2c18 e9bc
00000140: e8be a0bb cdb5 31bc 00ae f1ba 8f7e c9bc
00000150: 4c31 dbbc 30e7 84bc 7928 dbbc 8a6a f1bc
00000160: e68d 88bc be8e 2a3d 92fc 863d 1c27 1fbd
00000170: 14eb 47bb a865 d73c ee31 7f3d 43d8 863b
00000180: a866 383c 0603 00bd 2be5 ce3c 16a7 6f3c
00000190: 38f3 42bd d6b5 9e3c c4fc a9bb e439 953c
000001a0: 7e95 02bd b7d6 db3c 33ed ff3c 238e e6bc
000001b0: e0e6 febc 70d4 d53c ba85 9cbc 8d69 13bc
000001c0: b798 823d 77ef 823c 51b1 f73c 591b 01bb
000001d0: 7bb2 863b 7720 05bc 5100 5ebd 97aa 27bd
000001e0: 3c87 aabc 6715 183c 1929 0ebd 3b94 0ebd
000001f0: 3f5d d339 23c9 ce3c d719 593d 0184 0ebc
00000200: c429 453b cae9 c6bc d15c e0bc 8db2 b2bc
00000210: 53bf 1abd d11f b43c 8b7d 923b d916 90bc
00000220: 175f 963c ddd4 703c 0443 67bd e3f1 3ebc
00000230: 5d14 2a3c 3922 27bb 1176 213c 2e0c abbc
00000240: d6ff bdbc 88c1 cbbc 36ac e7bc 81dc f73c
00000250: f94e 73bc a966 5a3d a723 b6bc 6235 40bd
00000260: 4d1d 8b3d c488 543d 2a4c 17bd 31bb cebc
00000270: 5a3e 153b 0df3 af3c ed91 6d3b 590e 20bd
00000280: 6ec9 93bc 56c0 253c 8d95 3f3d e4eb fcba
00000290: 8353 793c 8034 24bc c120 4a3d e6ae c4bc
000002a0: f07b adbc afdd 313d 8463 3f3c 41f8 133b
000002b0: 5a7f c43c c908 393d 1909 543d 64e7 fe3b
000002c0: 3f4a e93c a18a 973b 898e 9cbc 54b2 29bc
000002d0: 576a 543d fd72 3c3c 9f1a 1fbc 7da6 90bd
000002e0: db70 823d f07f 3ebd 7af7 7cbc 06c0 b4bc
000002f0: bbde 0b3d 3071 3d3d 6865 4cbc e20d 323c
00000300: ff7c 90bc 528a 8c3b 301d 58bd 30ae b93c
00000310: 771c 343d 90f3 983d 4972 9bbb 245a 863c
00000320: 3092 ca3b aa9d 6c3d a6ee d9bb bb2d aabc
00000330: 8bfb 323c 2941 2e3c 47f5 c63b ee15 f2bc
00000340: d6e0 aabc 2e03 2e3d 3bf9 90bc aa75 d8bc
00000350: 1ef7 273c a5c3 08bd 4735 773d a9e5 12bd
00000360: 8df5 473c 2220 bc3b 4521 73bc b6e8 b13c
00000370: 277f 863c f6ee 403c b29b cfbc 589b 42bd
00000380: da34 18bd 52ca 84bd de10 21bd 9b38 303d
00000390: 8f79 8d3c 0074 40bd 1459 b4bc daca d0bb
000003a0: 80b0 8a3c 665f 07bd bc94 443b 5e94 45bd
000003b0: 7bb3 023d 80f7 04bd 5cf4 e03b f747 b6bc
000003c0: 4ba9 83bc 282c a73b 6b82 12bd ddc7 10bd
000003d0: 71a2 553d 4e3a 89bd 780f 56bb f10a d83c
000003e0: d264 94bb ead1 473d 44f1 b73c ed49 d3ba
000003f0: b9c8 b0bc 69d5 c5bc ae94 1fbd 3ff9 193c
-0.03131192 0.009764595 -0.027246285 -0.00951546 0.026313264 -0.0025210623 0.032418802 0.04001734
0.059902176 0.00238538 -0.0040247305 -0.009348899 -0.001619357 -0.04514937 0.009739527 0.00011426896
-0.024399921 0.05128882 -0.007266268 0.0059525296 0.011108632 -0.017039368 0.008806896 -0.05813629
-0.050069615 -0.05188429 0.012498489 0.03809149 0.007948434 0.019592332 0.015652917 0.005408903
-0.004969975 -0.034288786 -0.044849556 0.019845162 0.063670166 0.04157627 -0.0018094614 0.032915737
0.0074703675 -0.028763672 -0.012319389 -0.0021612698 -0.020554695 0.00012367584 0.011476997 -0.044515118
0.023787143 -0.008135073 -0.033003125 0.0109118745 0.0571251 -0.030052878 -0.03962465 -0.0586194
0.010610382 -0.02233177 -0.012594301 0.022123737 -0.0026769284 0.0182026 0.013217042 0.008557135
-0.014319707 -0.04387803 0.012557705 0.023256477 -0.027113523 -0.039730884 0.00023265743 -0.027184265
-0.023975601 0.03947213 -0.02386479 -0.03525304 -0.01478619 -0.018642694 0.017247735 -0.028453909
-0.0049055703 -0.010846567 -0.0018438697 -0.02459648 -0.026756905 -0.01622352 -0.026752697 -0.029469747
-0.016669225 0.041640036 0.06591143 -0.038855657 -0.0030505108 0.02629359 0.062303476 0.004115136
0.011254944 -0.031252883 0.02525576 0.014627239 -0.047595233 0.019373816 -0.0051876027 0.018216081
-0.031880848 0.026835782 0.031241035 -0.028143948 -0.03111595 0.026102275 -0.019106735 -0.008997333
0.06376784 0.015983326 0.030235918 -0.0019700138 0.004110632 -0.008125416 -0.05419952 -0.04093417
-0.020816438 0.0092824465 -0.034707163 -0.034809332 0.0004031453 0.025242394 0.05300316 -0.008698464
0.0030084709 -0.024281401 -0.027388008 -0.021813655 -0.037780117 0.021987827 0.0044705323 -0.01758902
0.01835589 0.014699188 -0.056460395 -0.01165435 0.010380832 -0.0025502576 0.009854809 -0.020879831
-0.023193281 -0.024872556 -0.028280359 0.030256512 -0.0148503715 0.05332056 -0.022233797 -0.04692591
0.06792698 0.051888242 -0.03693787 -0.025235744 0.002277276 0.0214782 0.0036250309 -0.039076183
-0.018040385 0.010116657 0.046773482 -0.0019296375 0.015217665 -0.010022283 0.049347643 -0.02400918
-0.021177262 0.043424305 0.011681441 0.002257839 0.023986507 0.045174394 0.05176649 0.0077790488
0.028477786 0.00462468 -0.019110935 -0.010357458 0.051859226 0.011502025 -0.009710937 -0.07063005
0.06369182 -0.04650873 -0.015439862 -0.02206422 0.03414796 0.046250522 -0.012475349 0.010867568
-0.017637728 0.00428895 -0.05276221 0.022666067 0.04397246 0.07468331 -0.0047438485 0.016400404
0.0061819777 0.057767548 -0.0066507636 -0.02077376 0.01092423 0.010635653 0.00607172 -0.029551473
-0.020859163 0.0424835 -0.017696967 -0.026423294 0.010251788 -0.033389706 0.060353544 -0.035863552
0.01220454 0.005741135 -0.014839475 0.02171741 0.016418053 0.011775723 -0.025342796 -0.04751143
-0.03715978 -0.06483902 -0.039322726 0.043022733 0.017269878 -0.046985626 -0.022015132 -0.006371838
0.016929865 -0.033049963 0.002999588 -0.048237197 0.031909447 -0.032462597 0.0068650674 -0.022251112
-0.016071936 0.0051016994 -0.035768908 -0.035346854 0.05215687 -0.06700574 -0.0032663029 0.026372405
-0.0045286203 0.048784174 0.022453912 -0.0016120054 -0.021580087 -0.024149613 -0.03896015 0.009397804

fallback.proj.0.bias f4 [64]
00000000: 36a2 13bb a7a3 89bc efed b4bb c76a 053c
00000010: 16cb 9ebb 2b4a 2c3b fd03 23bd 2b48 773c
00000020: fa24 b23b 04bf 103c 9f43 8d3c a161 8f3b
00000030: d6c8 373c e16d 8d3b 6c39 dfbc c395 21bb
00000040: dfc9 01bd b448 013c ed78 0bbc e2c4 a03c
00000050: e7c8 bb3c 8389 1dba 366d 00bc 2bea 8c3c
00000060: b365 133c 2048 2d3a 93ff d43b 07f4 a93c
00000070: da13 a63c b4a2 2a3c c389 923c c6be 41bc
00000080: eb92 35bc edb9 063d 22af d2bc c975 603c
00000090: 899c 44bc 9b06 92bc de47 fd3a a4c2 e43c
000000a0: 4b63 023d cab5 e03c 0b1b 593b 2d13 b9bb
000000b0: 7e1f 943c 541d 76bc bc3b 76bc c9b2 49ba
000000c0: 548c 20bd dbd5 053c ec75 123c c616 c23c
000000d0: 7415 d23c b0b3 043b de5f 663b 4366 c53c
000000e0: 8463 993c dafa acbb 7466 95bb f0ae 033d
000000f0: 7522 1fbb 1ee2 c5bc 45ca 593b 9658 02bc
-0.0022527105 -0.016801668 -0.005521528 0.0081431335 -0.004845987 0.0026289325 -0.039798725 0.01509289
0.005436537 0.008834604 0.017244158 0.004375652 0.011217317 0.004316077 -0.02724906 -0.0024655915
-0.03168666 0.007890869 -0.008512718 0.019625131 0.022922946 -0.00060095655 -0.007838538 0.017201504
0.008996415 0.0006610174 0.0065001934 0.020746244 0.020273138 0.010414768 0.017887956 -0.011825269
-0.011082391 0.032892156 -0.025718275 0.013699957 -0.0120002115 -0.017825415 0.0019323786 0.027924843
0.031832974 0.027430434 0.003312769 -0.005648038 0.018081423 -0.015021641 -0.01502889 -0.00076941826
-0.039196327 0.008168663 0.008939248 0.0236925 0.025644995 0.0020248704 0.0035152356 0.024096614
0.01872421 -0.0052789273 -0.0045593325 0.032149255 -0.0024282013 -0.024155673 0.0033232134 -0.007955691

fallback.mp_gats.0.gat1.attn_l f4 [1, 8, 8]
00000000: 658a 73be abe6 b2bd 1f77 8b3d f1ad 7d3e
00000010: 3061 38be 0648 f63d d7db ae3d 1679 d5bd
00000020: 5706 c03e 9f0a f8be 2e88 e03e da65 08bd
00000030: 2c5e be3d 934c 8fbd 445e e0bb 98e2 c1be
00000040: cf87 83be 7499 223e b301 59be 37d1 6bbe
00000050: 76b2 2dbe 8cf2 72bd 6a6e 81bd 10e0 87be
00000060: b240 c03c a292 00bf 8bc2 023e 934c d7be
00000070: 1cc0 0dbe e674 95bd 5083 993e b77f 28be
00000080: f352 0f3e 9307 67be f8d2 bfbe e87a 463e
00000090: a49e 32bc 7376 b63e 7928 ff3d 79f3 9a3c
000000a0: 29ba 29be c222 d5be a733 34bc e1fe 0cbe
000000b0: f0c2 70be a1ff cebb f1be 7c3e 27f3 e93d
000000c0: fe7a 0abe ca70 cb3e cd0e 1f3e 3e54 0abe
000000d0: 3399 e03c 60c7 33be 1cf3 a1bc 844d 2f3e
000000e0: 742c 1fbd 78cf 8bbe f1a6 673e b6b8 973e
000000f0: 56ec 4ebd 824e 2bbc eb23 933d 0d5f bb3d
-0.23783262 -0.08735403 0.0680983 0.24773385 -0.18005824 0.12025456 0.08538025 -0.10423486
0.37504837 -0.48445603 0.43853897 -0.03330026 0.092953056 -0.06997027 -0.006847175 -0.3786819
-0.2568955 0.1587885 -0.21192054 -0.23029028 -0.16962609 -0.059313342 -0.06319888 -0.26538134
0.02346835 -0.50223744 0.12769525 -0.4205061 -0.13842815 -0.07297687 0.29982996 -0.1645497
0.13996486 -0.22561483 -0.37465644 0.19382823 -0.010902081 0.35637245 0.124588914 0.018914925
-0.1657492 -0.4162808 -0.010998643 -0.13769104 -0.23511863 -0.0063170944 0.24682213 0.11423331
-0.1352348 0.3973449 0.1553299 -0.13508698 0.027416801 -0.17556524 -0.019769244 0.17119414
-0.038860753 -0.27306724 0.22622277 0.2963311 -0.050518356 -0.010455729 0.07184585 0.09148989

fallback.mp_gats.0.gat1.attn_r f4 [1, 8, 8]
00000000: 2eb9 18bc 02c9 843e c46e 1a3e bad3 f93d
00000010: b707 ea3d 9d00 0c3e c79d 843e 11bb e33e
00000020: 6f2f be3e 1589 55bd dccd 393d 162e 813d
00000030: d511 c43b 6074 683e 39d7 183e 4be5 003e
00000040: fb32 203d ed7b 03be 1d60 61be 8d7e b13c
00000050: 28fc 26be 3a52 df3e 94d1 ad3d fd46 ba3e
00000060: f363 e13e eff6 2f3c d373 e33e 7987 8ebe
00000070: 480b 6cbe 17ea 4ebe fe40 a93b 2045 023e
00000080: db3f 5b3e ed29 283d bb37 58be a45d bd3e
00000090: 5c87 25bd 8f01 de3d 2e58 633d 6252 973e
000000a0: eef9 a03d 6370 de3e 7f0d 5d3d f8f2 38be
000000b0: fbb8 c73d 6726 793d 1105 bb3d d0fb 803e
000000c0: 6b86 353c 52eb fc3d 882f 8b3e 4831 30bd
000000d0: fde0 b23e 986c 35bd 952b d6bd e0b6 59be
000000e0: 5bce 87bd cd10 31bd d4c8 793d 6c7f 07bf
000000f0: 71df 7cbd 6dc2 193e ea55 b53c 40fc 683e
-0.009321494 0.25934607 0.15081316 0.12198587 0.11427253 0.13672109 0.25901625 0.44478658
0.37145564 -0.052132685 0.04536234 0.06307618 0.005983571 0.22700644 0.14925851 0.12587468
0.03911112 -0.12840243 -0.2200932 0.02166679 -0.16307127 0.4361742 0.084872395 0.36382285
0.44021568 0.010740026 0.44424304 -0.27837732 -0.23051178 -0.20206486 0.0051652184 0.12721682
0.21411078 0.04105561 -0.2111501 0.36985505 -0.040412292 0.10840141 0.055504017 0.2955504
0.0786017 0.4344512 0.05396795 -0.18061435 0.09752079 0.06082764 0.09131826 0.25192118
0.011079411 0.12349571 0.271847 -0.04301575 0.34937277 -0.044293016 -0.10457531 -0.21261168
-0.06631156 -0.043228913 0.06098254 -0.52928805 -0.061736528 0.15015574 0.022135694 0.22752476

fallback.mp_gats.0.gat1.bias f4 [64]
00000000: 791e 9dbb a6df c3ba 5a26 ad3c 94e3 eb37
00000010: 68cf 153c a762 4bbc 7c6d 11bb 64ba 10bc
00000020: 13d1 6c3b 2e09 313b fd8a 65bb ba57 3cbb
00000030: 60d0 02bb 1322 823c 7c5d 22bc 4d25 363d
00000040: a955 953b 4039 863b 8190 b33c 2c5d f53b
00000050: 311f 103d b921 d03c 2425 a83c ddd8 c23c
00000060: d9b5 62bc a69c 75bc e94e f23c 100d 27bc
00000070: 5cbd e43c 6a37 923c e2f2 1c3d f6eb db3c
00000080: 8430 29bc afba 16bb 2bca a43c 4e17 783c
00000090: 145a e03b 9200 4d3c 422c 42bc 21b5 dc3c
000000a0: 0f97 d53c d199 1fbc a29e febb 62de bcbc
000000b0: 7c53 e33c 2bcc febc 0828 9ebc 490f b83c
000000c0: 0608 a3bc 61f0 203c c60e c5bc aa5c 60bc
000000d0: 317f 1c3c bc64 90bb 5e3f 73bc 415c 0a3d
000000e0: 61bd 1ebc b771 093c 5c8c 913c 1322 603b
000000f0: 25b3 0c3c c51f ad3b 25e9 0cbc 59e0 163d
-0.0047948924 -0.0014943972 0.021136452 2.8120157e-05 0.009143688 -0.012413657 -0.0022190502 -0.0088335015
0.003613536 0.0027013528 -0.003502547 -0.0028738813 -0.0019960627 0.015885388 -0.009909984 0.044469167
0.0045573306 0.00409618 0.02191949 0.0074879136 0.035185996 0.025406705 0.020525523 0.02378505
-0.013837301 -0.014990961 0.029578643 -0.010195985 0.027922325 0.01784869 0.03831757 0.026845913
-0.010326508 -0.0022999456 0.020115932 0.015142275 0.0068466756 0.012512343 -0.011851372 0.026941838
0.026073007 -0.0097412625 -0.0077703753 -0.02305526 0.02774977 -0.031103214 -0.019306198 0.022468226
-0.019901287 0.009822936 -0.024054896 -0.013693968 0.009551809 -0.0044065397 -0.014846651 0.033779386
-0.009688706 0.008388928 0.017767124 0.0034199997 0.008587633 0.0052833282 -0.008600508 0.03683505

fallback.mp_gats.0.gat1.fc.weight f4 [64, 64]
00000000: f22f 423d a6a4 28be 2a98 203d e594 e93d
00000010: 0d2d 773e 8ccf 8d3c 5ba5 dd3e 86e8 74be
00000020: 4d85 21be a2c4 2dbe 707a 51be 1b7b 6f3e
00000030: 4edb 97bd 4109 89be 2e95 7ebe 923b cdbd
00000040: 7c8a 2f3c 6111 b03c 527f 7bbe 38fe b23e
00000050: 26ae 3b3e 20c5 3bbe 1464 01be be16 873c
00000060: 6f32 d43c 20ec d23e 8ce5 04be 1f98 74be
00000070: ab0e 8abe b330 033e 660b 983c a904 113e
00000080: 491f 8cbc c0ae 303d 4a46 0d3d 705c d33d
00000090: 0bd2 28be f052 b1bd e4a9 293d 3b33 7b3e
000000a0: 76a7 983d 86f5 47bd c551 1cbe 3519 8fbe
000000b0: 6575 c53d 4c55 1e3c ebe6 cdbd 9d3f 86be
000000c0: 8214 9b3b 28c9 dc3d 5459 7d3d 1e45 15be
000000d0: 9395 6e3e 3e0e df3d a1a2 5dbe d9f5 d7bd
000000e0: 405a 253d 047d 5cbe 16a4 87be 3d8c f23c
000000f0: 4b5c f73e 5e6f 83bc b366 53be 516d 153d
00000100: 3bf8 393e 7370 663e 2716 523e 6bed 09be
00000110: c9b3 17be 34b2 77be 0d90 39be 3e22 153e
00000120: 5554 88bd cd35 93be 0cb3 73bd cbae 3d3d
00000130: 04c3 d43d abe8 253d feb9 2c3d 9c6a a93e
00000140: 7d0e 3dbd 629d a63c 0adb e83c c553 863e
00000150: 1bdb b0bd b9b1 a33e 8565 8c3e 759a b33d
00000160: 4dc0 48be a930 45bd 922e 8cbe 7498 0abc
00000170: bfa5 973d dcd3 66be 1377 55be 3ec3 1dbe
00000180: 22de e43d 367a 8b3e 8c20 8fbe 8bd0 0e3c
00000190: 4cf9 b7bd 7bb4 34bd 0d59 f1bd c02a 033f
000001a0: 3638 15be f640 63bc 0cfe 81be f36f 22be
000001b0: 7b8e e6bd 5733 f0bd 98bb 8dbe b952 a4be
000001c0: a847 97be dff9 5cbd d1e7 1bbe b54a 5abe
000001d0: 033a 383e 96f7 023e 8e98 8dbe a6be c9bd
000001e0: c821 5e3d 2fa8 48be 027d 81be 81a2 3d3d
000001f0: b9c6 8ebe e3f2 68bb f598 bebe 5e2c 3bbe
00000200: c0f8 353e 4bb7 f0bd 3ad3 28be 67cd 103e
00000210: 12df 493e ae3b 6ebe d582 983d fd9d 593e
00000220: 3775 8abc a49a 76be 8e50 c3be a0b2 af3e
00000230: 7619 2bbe ef36 0abd 9797 40bd c3fa 233d
00000240: c66c d73d 595d 583e ade5 83be 4512 953e
00000250: 55e4 23be b8fd 6fbe b6a5 5ebd 19a1 0a3f
00000260: 0ef9 52bd 3167 1fbd 9212 21bd 87a6 11be
00000270: b4e2 823d 073f e73d afb2 a1be f2e0 9dbc
00000280: 9be8 55be be03 0ebe 8969 143c afdb 193e
00000290: 9b45 24bc 8c63 3d3e fec5 63be 1b6d 00bd
000002a0: 1dcc 803e e038 dcbb 2ebf abbc bca0 793e
000002b0: 47c7 7b3e 8a9e 9ebe a6b4 4fbd ee7c 12be
000002c0: 092b c53c 95b3 a4be df6a 793d c246 143e
000002d0: 1c28 f73d 1540 49bd 9bbb 0c3e 8037 ee3d
000002e0: d86b 60be fca0 9dbe 66e9 2c3d a11e d23d
000002f0: fb81 7ebc b7b0 293e 4a53 5b3d 5a0c 94be
00000300: 4a7c 93be ab8d 873e 0f39 bfbe a1d7 cebd
00000310: 25d2 823e 29bd d23b 0bf2 283e fe7c 0fbe
00000320: 198c 463d 1d9d bc3d 4990 023d aa5b 27be
00000330: 2980 8ebd eb91 803e a0f2 75bd a099 563d
00000340: 965f 463e 5d1e 9a3e a76f 01bc d894 d3be
00000350: 9ee8 8c3d ec32 ea3d ad29 58be f836 2bbd
00000360: 067f cfbd 924e 08be 7c58 393d cef8 5fbe
00000370: 4735 adbd 7fcc 503d 3257 233e 5e8a adbe
00000380: 64e6 343d 0d12 c4bc e8ba 853e 0339 573e
00000390: 24ea 303e 59f4 843e e365 973c f6a5 5abe
000003a0: b61f cb3d 2eb4 35bd 7211 363d b72e e03d
000003b0: cd7b 99bd 4c84 013e 9e7d 73be 5672 40bd
000003c0: edab 723e 097f a73e fb3c b5bd e576 813d
000003d0: f218 78bd cc76 9dbd 0468 b9bc 1da2 1cbd
000003e0: 0245 313e b926 823d 39f3 3a3e 5f1e 593e
000003f0: bca9 213e 0d26 fbbd c60d 0c3e 8643 09bd
0.047409005 -0.16469058 0.039207615 0.114053525 0.2413828 0.01731088 0.4329022 -0.23916826
-0.15773506 -0.1696954 -0.20456862 0.23386805 -0.07414876 -0.26764873 -0.24861595 -0.10021128
0.01071417 0.021492662 -0.24560288 0.3495958 0.18328151 -0.18336916 -0.12635833 0.016490337
0.025902955 0.41195774 -0.1297819 -0.23886155 -0.26964316 0.12811546 0.018560123 0.14161934
-0.017104762 0.043135405 0.03449086 0.103203654 -0.16486375 -0.08658397 0.041421786 0.24531262
0.07453816 -0.048818134 -0.15265568 -0.2794892 0.09641532 0.009663891 -0.1005381 -0.26220408
0.0047326693 0.10780555 0.061852768 -0.14577147 0.23299246 0.10891388 -0.21644069 -0.105449386
0.040369272 -0.21532065 -0.26492375 0.029607886 0.483126 -0.016044315 -0.20644645 0.036481205
0.18161099 0.22503833 0.20516263 -0.13469474 -0.14814676 -0.24189073 -0.18121357 0.14563844
-0.0665671 -0.28751984 -0.059496924 0.046309274 0.10388759 0.040505093 0.042169563 0.3308915
-0.046156395 0.020338718 0.028424758 0.26235786 -0.08635541 0.3197153 0.27421203 0.08769695
-0.19604607 -0.04814211 -0.2737928 -0.008459199 0.074046604 -0.22541755 -0.20846204 -0.1540651
0.11175181 0.27241677 -0.2795452 0.008716713 -0.089830965 -0.044117432 -0.11784563 0.51237106
-0.14572224 -0.013870468 -0.25389135 -0.15863018 -0.11257645 -0.11728542 -0.27682185 -0.32094362
-0.29546857 -0.053949233 -0.1522515 -0.21317561 0.1799088 0.12789759 -0.27655452 -0.098508164
0.054231435 -0.19595407 -0.25290686 0.046297554 -0.27885988 -0.0035545162 -0.37226072 -0.18278643
0.17770672 -0.1175371 -0.16486827 0.14140855 0.19714001 -0.23264953 0.07446829 0.21251674
-0.016901596 -0.24082428 -0.38147396 0.34315968 -0.16708931 -0.033743795 -0.047019567 0.040034067
0.10518794 0.2112936 -0.25761166 0.291155 -0.1600507 -0.2343663 -0.054357253 0.54152066
-0.05150705 -0.03891677 -0.03932435 -0.14223681 0.063908964 0.112913184 -0.31581637 -0.019272301
-0.20889513 -0.13868615 0.009058365 0.15025209 -0.010026361 0.18495005 -0.22243497 -0.03135405
0.25155726 -0.006720647 -0.020965185 0.24377722 0.24587737 -0.3098033 -0.05070939 -0.1430547
0.024068372 -0.3216826 0.060892936 0.14480117 0.12068197 -0.04913338 0.13743441 0.116316795
-0.21916139 -0.30786884 0.042214774 0.10259748 -0.015533919 0.16571318 0.053546228 -0.28915673
-0.28805763 0.26475272 -0.3734822 -0.10099722 0.25550953 0.006431241 0.16498582 -0.14012524
0.04847345 0.092096545 0.031875882 -0.16343561 -0.06958038 0.25111327 -0.06004584 0.052392602
0.193724 0.3010129 -0.007900155 -0.41324496 0.06880306 0.11435494 -0.21109648 -0.04180047
-0.1013165 -0.13311222 0.0452504 -0.21872255 -0.084574275 0.050976273 0.15951231 -0.33894628
0.04416503 -0.023934389 0.2611916 0.21017842 0.17276818 0.25967672 0.0184812 -0.21352372
0.09918158 -0.044361286 0.04445023 0.1094641 -0.07494316 0.12648124 -0.23778388 -0.04698404
0.23698397 0.32714108 -0.08849522 0.063215055 -0.060570665 -0.07688674 -0.022632606 -0.03824054
0.1731148 0.06355042 0.18256845 0.21202992 0.15787405 -0.12263117 0.13677129 -0.03351166

fallback.mp_gats.0.gat2.attn_l f4 [1, 1, 64]
00000000: 6991 2dbe c6d0 acbc 31fb 28bd 36a1 6e3e
00000010: 0355 5abe 338a 373d b18e 4a3d 7f0c cf3d
00000020: 61a6 963a db30 c1bd 7708 06bb 4d16 a0be
00000030: 0914 abbe abe3 683d fb44 9fbe cd38 a0be
00000040: 7bfc 193c c46d 01bd 9dba ec3d a2fa abbd
00000050: 8e2b 92bd 15c6 183d f4ab 193e 402e a03d
00000060: 8f78 babe 7a7a bf3d a2ab 5f3d 08bd 683e
00000070: 21dc c13c 5c68 423e 89a2 ea3c 2597 813e
00000080: 7a04 11bd be35 25bc c224 83be bb1e cc3c
00000090: 1454 90be ecbb 8b3e f58b 89be d91f ff3d
000000a0: 8ceb 8f3e c6fc 93bd 44d8 5abd 8b98 393d
000000b0: b32b b43d c0c0 eebd d9ec 6e3d f9e7 b93d
000000c0: cfad 67be 27be 913c 526c 53be 4df5 193e
000000d0: c7a4 f43d dd00 24bd cc1a 483e 6a3b a1be
000000e0: c23b a8bd 3a6d 043e 4e47 95be afb1 423d
000000f0: ff35 68bc df09 853e 1a5d 10bd e5b2 58be
-0.16950001 -0.021095645 -0.04125518 0.23303685 -0.21321492 0.04480953 0.049452487 0.10109805
0.0011493677 -0.094331466 -0.0020451823 -0.31267014 -0.33413723 0.056857746 -0.31107315 -0.31293336
0.009398575 -0.03159882 0.11559031 -0.08397414 -0.07137214 0.03729828 0.15007001 0.078213215
-0.36420104 0.093495324 0.05460704 0.2272836 0.023664536 0.18985122 0.028641956 0.25310627
-0.03540466 -0.010083614 -0.2561398 0.024916997 -0.28189147 0.2729181 -0.2686459 0.12457246
0.28109396 -0.07225947 -0.053428903 0.045311492 0.087973975 -0.11657858 0.058331344 0.090774484
-0.22624896 0.017790867 -0.2064679 0.15034981 0.11945491 -0.040039886 0.19541472 -0.31490642
-0.08214523 0.12932292 -0.29155964 0.047532734 -0.01417303 0.25984094 -0.03524504 -0.21161993

fallback.mp_gats.0.gat2.attn_r f4 [1, 1, 64]
00000000: 5837 863e a7f4 a63a ecb9 a13e a105 0b3d
00000010: 9dc7 083d e87c dd3d ffb8 a3bc 4b9a bbbd
00000020: 65b7 b8bd 257a 8cbe 72a9 463e c4c4 313e
00000030: e126 7a3d 2164 5c3e 887a 203d 609a 09be
00000040: 01e0 573e ef0b 75bd 4c75 ddba a4eb 513d
00000050: d8c8 72be eecc 83bc 9586 823d 5e3b 083e
00000060: 43b9 08bc 8b3e 963e bd3f 613e 9b68 92be
00000070: d1e1 e93d 2b3f 823e f7b0 5b3d aa16 7e3c
00000080: 50f3 51be 92f5 a2bc c306 adbc 9042 59bd
00000090: 2fe0 ebbd b29f f23d 2bb6 5abe 435d dcbc
000000a0: 2d1f 9f3d a25e ffbd 6b82 c73d cddf a13c
000000b0: cc86 da3d 9a9d 593e 5cd3 baba 8574 49be
000000c0: d571 04bc 72a4 b5bd e2a0 8abe 1089 f53d
000000d0: e289 053d 86c4 8abd e368 0c3d 57cc 21be
000000e0: 7c84 853e 5b95 b53d e982 383e 5222 fabd
000000f0: 5668 863d e585 3dbe f294 853c 6d95 afbe
0.262141 0.0012737707 0.3158716 0.033940915 0.03339349 0.108148396 -0.019985674 -0.091602884
-0.09019355 -0.2743694 0.19400576 0.17360216 0.061072234 0.21522571 0.039179355 -0.13437796
0.21081544 -0.059825834 -0.0016895919 0.051250115 -0.23709428 -0.016088929 0.06373326 0.13303897
-0.008344951 0.29344591 0.2199697 -0.28595433 0.11420024 0.25438818 0.053635564 0.015508333
-0.20502973 -0.019892488 -0.021121388 -0.053041995 -0.11517369 0.11846866 -0.21358554 -0.02689994
0.07769618 -0.12469222 0.09741672 0.019760037 0.10670242 0.21251526 -0.0014253664 -0.19673355
-0.00808378 -0.08869256 -0.2707587 0.11989033 0.0326022 -0.06775765 0.034279715 -0.15800606
0.2607764 0.08866378 0.18018688 -0.12213577 0.06562869 -0.18508108 0.016306374 -0.3429369

fallback.mp_gats.0.gat2.bias f4 [64]
00000000: be8a 553a 6288 27bc 8457 3c3c 5afa 11bc
00000010: 0d64 8dbc 29cc 263c 757f ad3b 0600 613c
00000020: d594 0abc d4c8 d239 c316 b7bc f3df 833c
00000030: e006 643c fde0 3e3b 144c d73c 0a6f 063d
00000040: ee85 63bc 089a eabc 1b80 ba3c ad9f 073d
00000050: 9aca d63c f2c5 b7bc 7ae3 ee3b 245a 083d
00000060: 5276 f2bc 1bee ce3c f7b5 eebb bbd8 353c
00000070: 993e e2bb d521 b83c bef6 8f3c 4f05 17bc
00000080: c705 a53c 48b8 c23c 44f6 893c 9f30 7c3c
00000090: b219 99bc 795b bfbc fd5b b53c 56bd d83c
000000a0: 1e32 edbc fb4f f93c af41 ecbc ca2b 9dbb
000000b0: e297 f33c 339b f7bc 1dae 023d 8158 c2bc
000000c0: b59b cb3b 3430 213c c370 963c c11d aa3c
000000d0: eba6 aa3c 0eb0 d33c 721a 243d 5720 aebc
000000e0: 3826 e4bc c876 93bb a270 63bb 27dd d93c
000000f0: 18d6 193d 468d d53b 1c15 7cbb f972 d7bc
0.00081459794 -0.010225387 0.011495475 -0.008909786 -0.017259622 0.0101805115 0.005294735 0.013732916
-0.008458336 0.0004020395 -0.02234972 0.016097998 0.013917655 0.0029125803 0.026281394 0.03282074
-0.013886912 -0.028637901 0.022766164 0.033111263 0.026219655 -0.022433255 0.007290301 0.03328909
-0.029597435 0.025260022 -0.0072848755 0.011099036 -0.006904435 0.02247707 0.01757371 -0.009217574
0.020144356 0.023769513 0.016841061 0.015392452 -0.01868901 -0.023359047 0.02213859 0.02645747
-0.028954562 0.030433645 -0.028839914 -0.00479648 0.02973551 -0.030225372 0.03190433 -0.023723843
0.00621363 0.009838153 0.018364316 0.02076614 0.020831546 0.025840785 0.040064283 -0.021255655
-0.027850255 -0.004500244 -0.0034704586 0.026594711 0.03755769 0.0065170852 -0.003846473 -0.02629994

fallback.mp_gats.0.gat2.fc.weight f4 [64, 64]
00000000: ded0 3e3e f3c1 dcbc ba5c 29be 2c60 083d
00000010: 2d2f 3a3c a666 d43e a75a 203d 0a45 253d
00000020: 832e 63ba 9f22 15be af8b b6bc 5f64 623d
00000030: 8050 8abd b22e 023e bb49 993d 2b8f 283e
00000040: 274a d3bd d412 553e 3053 9fbe 9d84 0ebe
00000050: 7e59 82bd 9260 8d3e 9033 173e 66f0 50be
00000060: 1f0d 1abc 2361 063d 86eb 0d3d d982 273e
00000070: a366 e13d f54f 543e 74f7 2bbe 6c9d 833d
00000080: 0948 483d a5ab 653e fe80 7f3e 4bee 67bd
00000090: 97c3 b13d 2c06 30bd 89b3 3fbe 9807 0e3e
000000a0: c7fd a43e 5548 3bbe b25f 29bd aafc 4cbe
000000b0: 6f76 84be 86f3 373e cc97 073d 87c1 00bf
000000c0: 8036 8bbe 1fa7 4ebe 9d15 793e 8e5a 03be
000000d0: 061c 4ebd 6646 96be dc5f 523e b57a 6d3e
000000e0: ebc6 de3d ebdb 0d3e bea7 a2bc 4bba 30bd
000000f0: 2cef c73c fb40 363e 71b5 1c3c f162 163e
00000100: ecaf 023e 5c78 2f3e 7a3f 2e3e c6b4 183e
00000110: c5eb 46be 597d 923e 0c82 31be 8d86 c4bd
00000120: 0e90 983c 6e3c fdbd ea24 983e f3a5 b5bd
00000130: afd8 32bc 937e 7ebe 7e81 923d 7d83 43be
00000140: 4979 83bd 5a54 723c 2f2b 5c3e 0a7f 2cbe
00000150: e6fd 59be d0bf 563c a615 da3d bf21 bd3d
00000160: 6aed 643d 9cf4 513d 7b89 b9be ab25 3d3e
00000170: 47bf a23d 2d2d 8d3d 5405 b3bd 333e 713e
00000180: 20a6 a8be 5144 ae3d 3b10 56be 71db 053e
00000190: ee24 833e 4def 173f de9f 893d 36d5 9abd
000001a0: fc8b 1bbe 2c78 083e b05f 283d e8e8 123e
000001b0: abfb dfbd f3dd 013e 6fb1 6c3d 85aa 88be
000001c0: ea39 893e b5ff 0ebe 8f90 f1bd ee12 27bc
000001d0: 9daa 9abe ca36 3f3e 7498 353e 486b 59be
000001e0: cf67 6fbe d1bb c83e e904 1a3e 4aa8 193d
000001f0: 77c4 0bbe 5c85 50be aca1 e6bd b740 4bbe
00000200: 5a5e 763e 5932 45be 6ac0 efbd 3fb9 dc3d
00000210: 546c 07be 888b eebc 6a05 0fbe 76ca 92be
00000220: 9f7c 54be 6ca9 1e3e 9ec5 d0be 0e88 03bd
00000230: 511b cb3c f901 403f 5b53 9b3e fca7 833e
00000240: f0cd 383e b6e8 51be 01ad 3aba b0e1 4fbd
00000250: 3294 313e 7332 1a3e d384 5e3e 04db bb3d
00000260: 70bb 42be 2c15 0e3e ff4d f73d d159 093c
00000270: fc5d 49be 2694 223e 3db2 bd3b ec36 303e
00000280: 1836 43bd 6c46 adbe 48e1 81be 20f2 143e
00000290: 8eec 3cbe e718 2dbe 0064 563e 4e76 9dbc
000002a0: 2872 9b3c 99d7 b0be 0d76 dabd f135 ad3d
000002b0: 7e8a 3cbd f141 28be 47a7 553c 8496 c23d
000002c0: 9e9a 423e 520b 48bd 4a18 533e b3c7 073e
000002d0: 87a7 bcbd e14d d03d 035d 10be 29b9 acbd
000002e0: 4bdf 92be 403f 1ebe 051f a33e 47ff 623e
000002f0: 9417 0ebd 8c13 17be 57f0 0bbd 37d5 1fbc
00000300: 0bf1 69be 298c ac3d b077 4ebe 3e74 f5bc
00000310: c59f 433d b40e 1cbe 9561 8cbc 3b6c 743d
00000320: 0eb6 ab3c 7bd1 223d a8a0 1a3e 0b1f af3d
00000330: a53d 6e3e 9ac3 c13b eaaf 30be ab3c cdbd
00000340: 24c1 62be 339c bf3e b08e 90bd 3973 9e3d
00000350: a46f cabd 2260 283d 19ed a4bd 7539 0ebe
00000360: 7348 ad3e 1136 c9bb f36e d8bc 9c2c 9abd
00000370: 8d68 f0bd 048c 6dbc b362 eebd 481b 09be
00000380: ce25 693c cd26 9cbd dab7 4b3d d0da fa3c
00000390: 9b96 b13e 06b5 e6bd 1bd4 8f3d dcf9 2b3e
000003a0: 35f8 243e 67a6 c63d 7c32 7dbc 8152 f3bd
000003b0: 440a 033e ca04 4abe 4afe 0c3e 6540 ac3d
000003c0: 6699 fdbd 6fd3 89bd 973f 063d 961f d33e
000003d0: 824c 073d ef3b 733e c929 e2bb d83f 2dbc
000003e0: a11f 95bc 8260 0ebd 2bef d23d 475c ab3e
000003f0: de14 333e 6f94 80be 3e6d cf3e 5db4 53bd
0.18634364 -0.026947951 -0.16539279 0.03329484 0.011363787 0.41484565 0.039148953 0.040349044
-0.00086662936 -0.14563988 -0.022283403 0.055271503 -0.067536354 0.12713125 0.07484766 0.16460864
-0.10316878 0.20807964 -0.31118155 -0.13917775 -0.063647255 0.2761274 0.14765763 -0.20404205
-0.009402542 0.03280748 0.03464844 0.16358508 0.110059045 0.20733626 -0.16793615 0.0642651
0.048896823 0.22428758 0.2495155 -0.05662374 0.08679884 -0.042974636 -0.18720831 0.13870084
0.32224867 -0.18289311 -0.041351028 -0.20018259 -0.25871608 0.1796399 0.03310375 -0.502953
-0.27190018 -0.20180939 0.24324651 -0.12827513 -0.050319694 -0.29350585 0.2054438 0.2319134
0.10877784 0.13853423 -0.019855376 -0.043146413 0.024406038 0.17798226 0.009564743 0.1468618
0.12762421 0.17135757 0.17016402 0.1491271 -0.19425876 0.28611258 -0.17334765 -0.09595976
0.018623378 -0.12365042 0.29715663 -0.08869543 -0.010915919 -0.24852972 0.07153605 -0.19093128
-0.06419618 0.014790619 0.21500848 -0.16845337 -0.21288261 0.013107255 0.1064866 0.09234952
0.05589048 0.05125867 -0.36237702 0.184714 0.079466395 0.06893382 -0.08741251 0.23558883
-0.32939243 0.08509124 -0.20904629 0.13071992 0.25614113 0.5934952 0.06719945 -0.07560198
-0.15190119 0.13327092 0.04110688 0.14346659 -0.10936674 0.12682323 0.0577864 -0.26692596
0.26801997 -0.13964732 -0.117951505 -0.010197384 -0.30208293 0.18673244 0.17733938 -0.21232331
-0.23379444 0.39205793 0.15040936 0.03751401 -0.13649164 -0.20363373 -0.11261305 -0.19848906
0.2405943 -0.19257487 -0.11706622 0.107775204 -0.13224918 -0.029119268 -0.13966909 -0.2867009
-0.20750664 0.15494317 -0.4077577 -0.032112174 0.024793299 0.7500301 0.30337033 0.257141
0.18047309 -0.20498928 -0.00071211165 -0.05075234 0.17341688 0.15058307 0.21730356 0.09172633
-0.19016814 0.13875264 0.120754234 0.00838323 -0.19664758 0.15876827 0.00578907 0.17208451
-0.04765901 -0.3384279 -0.25367188 0.14545488 -0.18449613 -0.1690403 0.20936584 -0.019221451
0.018975332 -0.34539488 -0.10667048 0.08457554 -0.046030514 -0.16431405 0.01304037 0.09501365
0.19004294 -0.04883892 0.20614734 0.13259773 -0.09211641 0.10171104 -0.14097981 -0.08433754
-0.28685984 -0.15453815 0.31859604 0.22167693 -0.034690455 -0.1475355 -0.034164753 -0.009755424
-0.22845857 0.08425171 -0.20162845 -0.029962655 0.04775979 -0.15239984 -0.017136374 0.05967353
0.020960834 0.039750557 0.15100348 0.08550843 0.23265703 0.00591321 -0.17254606 -0.10021337
-0.2214399 0.37423858 -0.070584655 0.07736821 -0.09884575 0.041107304 -0.08053035 -0.13889106
0.33844337 -0.0061404784 -0.026420092 -0.0752804 -0.117386915 -0.014498714 -0.11639919 -0.13389313
0.014230205 -0.07624588 0.04973588 0.030621916 0.34685215 -0.11264996 0.07022878 0.16794533
0.16110308 0.096997075 -0.015453931 -0.11880971 0.12796885 -0.1972839 0.13768879 0.0841072
-0.12382774 -0.06729781 0.032775488 0.41235036 0.033031948 0.23753332 -0.006901954 -0.010574304
-0.018203558 -0.034760006 0.10299524 0.3346884 0.17488429 -0.25113246 0.40513033 -0.05168568

fallback.mp_gats.1.gat1.attn_l f4 [1, 8, 8]
00000000: 9635 913e b7e5 f0be 2e92 aabd cb5b 98bc
00000010: 560e 1fbe a816 bbbd c7a2 7cbe 1ab4 d73e
00000020: 756f d83e 209c ab3d 0846 4f3d 66bb 1fbe
00000030: 54da 9dbe 5266 0ebc fdb9 1fbf ee35 6abe
00000040: 7412 7cbd 99df 503e f5a4 85be 747c 16bf
00000050: 7eec a9be b83e 09bd 8878 0ebd e63b 043e
00000060: f113 b6bc 0474 1cbd 4b34 213e 0e6c 9cbd
00000070: b05f c8bd e36b 023e 5948 db3e 46e6 8dbe
00000080: 7fd1 61bc e5ed c4bb 386b adbe 6752 4dbe
00000090: 14eb b63e 62ae dbbe e733 c9be f79d 84be
000000a0: 29ad 073c f1e5 433e d28b 133e 6e70 03be
000000b0: b44f eebe ec54 e93d db5c 3e3e b033 38bf
000000c0: fc0d a8bd 03bc 863e d374 63be 10e9 19be
000000d0: 7df7 8fbe 46dd 88bd 2521 f1bd 5ce4 a33d
000000e0: 8484 82be 872d 463e 010d b23c 4227 a53d
000000f0: 3101 37be 8358 0dbd 7060 c83d c60e bebd
0.28361195 -0.4705026 -0.08328663 -0.018598458 -0.15532812 -0.09135181 -0.2467147 0.42129594
0.42272535 0.08379388 0.050603896 -0.1559883 -0.30830634 -0.008691387 -0.6239317 -0.22872135
-0.061541036 0.20397796 -0.26102415 -0.5878365 -0.33188242 -0.03350708 -0.034782916 0.12913474
-0.022226306 -0.03819658 0.15742604 -0.07637797 -0.09783876 0.12736468 0.42828634 -0.27714747
-0.013782858 -0.0060098046 -0.33870864 -0.20050965 0.35726225 -0.4290648 -0.3929741 -0.25901768
0.008281031 0.19130684 0.14408806 -0.12835857 -0.46545184 0.11393151 0.18590109 -0.7195387
-0.08205792 0.26315317 -0.22212534 -0.15030313 -0.28118506 -0.066828296 -0.117739 0.080025405
-0.25491726 0.19353305 0.021734716 0.080641285 -0.17871548 -0.03450824 0.09784019 -0.092801616

fallback.mp_gats.1.gat1.attn_r f4 [1, 8, 8]
00000000: bfe7 613e 9be1 bfbd 4563 0fbd 080d 06be
00000010: 7138 0cbe 6d67 d0bc a2ab 1ebe 0651 e53d
00000020: 023b 3e3d 0eb9 433e 2952 1abd a5b9 29be
00000030: d195 8a3d 44af e43c 9ce7 6b3d 7d85 ad3d
00000040: 57a3 c53d 762f 5c3b ec1c 28be f5bb 143f
00000050: 1d28 f2bd 700f 563b a0e5 083b 9be7 34bd
00000060: 8e57 63bd cf44 013e 2441 d73c c837 b7be
00000070: d73f bf3d 7a13 963e 3411 e2bc b2cd df3d
00000080: 18b9 46be 0000 b6be 7d91 0dbb b3dc 273d
00000090: ece3 03be 06b3 3c3d 1de5 babe c60f aabd
000000a0: 05da 36bd 9868 1cbe 0c93 763e de6c 863d
000000b0: 61fc d3be 9bb6 1d3d 53ee 9b3e 356d 163e
000000c0: 0691 aa3c 3ba4 7b3d 39e3 7fbe afe3 be3c
000000d0: 1a7d 92bd b3b7 c1bc 88f5 2fbe a2f2 debe
000000e0: 37d6 a9bc 7a10 6c3c 0059 31bc 40d9 dc3e
000000f0: 74f7 083e bf89 1a3e 78d0 1d3e b817 88be
0.2206106 -0.09369203 -0.03500678 -0.13090909 -0.13693406 -0.025439942 -0.1549516 0.111970946
0.046442993 0.19113562 -0.03767601 -0.16574724 0.067668565 0.027915604 0.057593927 0.084727265
0.09650295 0.0033597625 -0.16417283 0.580993 -0.11824057 0.003266301 0.002088882 -0.04416619
-0.05550342 0.12623905 0.026276179 -0.35784745 0.09338348 0.29311734 -0.027596094 0.10927905
-0.19406545 -0.35546875 -0.002160161 0.04098196 -0.12879914 0.046069168 -0.36502925 -0.0830379
-0.044641513 -0.15274274 0.24079531 0.065637335 -0.41403487 0.038504224 0.30455264 0.14690097
0.020821106 0.06143592 -0.24989022 0.023301927 -0.071527675 -0.023647165 -0.17183506 -0.4354449
-0.020732028 0.014408225 -0.010824442 0.431345 0.13375646 0.15091608 0.15411556 -0.26580596

fallback.mp_gats.1.gat1.bias f4 [64]
00000000: d950 f6bc 7495 e73c 833f 84bb 1135 c1bb
00000010: add8 cc3a 4d51 6d3c eef4 1e3d ed46 503c
00000020: bc04 9a3c 3af4 b4bc 4789 f13c 36d9 813c
00000030: ce13 b93c e092 2a3c e74d f63c 4edf 65bc
00000040: 0ef3 de3c ed1b 453c 6a96 823b ede8 1cbc
00000050: 8fe2 ad3c 3e07 a4bc 9187 bf3c 2bfa 953c
00000060: 9ac9 4e3d e02c 19bd 8c3e 9c3b b65d c6bc
00000070: 13ca 2fbc 9642 df3c 5bb3 d5bb 25ac 8abc
00000080: d68e 133d c3ca b1bc 5a7b 5e3b 4fd9 39bc
00000090: 8916 793b 23c7 513c c5ed 9c3c 3997 3dbb
000000a0: c061 82bc b291 16bd fc9c 083c 9749 423d
000000b0: 8c7a 3f3c d8b2 e23c b750 8dbc feb9 1ebc
000000c0: a4ed 3a3a ab47 adbb 1913 353c 1c30 ddba
000000d0: a17a 93bc 1204 0b3c 128a a8bc 20f2 0c3d
000000e0: 2b65 833c ff30 173d 238e 993c 1bf9 ca3c
000000f0: d34a 8fbc 1562 2abb 29cc b63c 3aaf 6abc
-0.030067848 0.028269507 -0.0040358915 -0.0058962186 0.0015628539 0.014484716 0.038807802 0.0127122225
0.018801086 -0.022089113 0.029484404 0.015850645 0.022592451 0.010410994 0.030066444 -0.014030291
0.027215507 0.012030584 0.003985216 -0.009577018 0.021226196 -0.020022985 0.023380073 0.018307766
0.05048523 -0.03739631 0.0047681984 -0.024214607 -0.010729331 0.02725343 -0.006521625 -0.016927788
0.03602489 -0.02170313 0.0033948035 -0.011343314 0.0038007817 0.012803826 0.019156346 -0.0028929247
-0.015915751 -0.03676004 0.008338209 0.047433462 0.011686932 0.02767317 -0.017250402 -0.009687899
0.0007130748 -0.0052880845 0.0110519165 -0.00168753 -0.01800281 0.008484857 -0.02057365 0.034410596
0.016039452 0.03691196 0.018744534 0.024776986 -0.017491734 -0.0025998403 0.022314148 -0.014324004

fallback.mp_gats.1.gat1.fc.weight f4 [64, 64]
00000000: 1fe7 b73e f99d 153c cbe6 ca3b 02ee 04be
00000010: da61 c1be 2eab 3dbe c774 d03d 8cac b4bd
00000020: 31cd 1bbe ea5a 8ebc 93dd ebbd 1087 983e
00000030: ae3d abbd 48f9 8fbd 6dff 7cbe 4792 24be
00000040: 6978 573c 297a 8abd 771c 2abd a689 2b3d
00000050: 7c93 a5be edaf afbd 1873 d9bb 0afe ce3d
00000060: 98bd 8f3e d832 40be 4ce6 083e 2ddc 68be
00000070: 87c5 fdbd f715 9b3c e291 3e3e 7041 e3bb
00000080: db29 e33d 8109 273e f5f5 933d f1bd 87bd
00000090: f2cf 843e ab12 c33c 636b acbe 8061 3cbe
000000a0: 3cfb d8bd 3f34 e6be ac83 3c3d 3217 053d
000000b0: 6d21 da3d fb90 013d 999b 563e 9b03 703e
000000c0: 23d1 2b3e 1533 f6bd 0abd 1b3e f849 07bd
000000d0: b076 83be ed23 0fbd 9b2e 423d fad7 323d
000000e0: d331 dcbc fa66 2ebe 2234 2cbe 086b 06be
000000f0: fb13 bebe a087 27be 1c83 7cbe 3907 cbbd
00000100: 85aa 49bd a4fc cdbc 145c a63d e723 c3bd
00000110: 66cb 7c3e edf6 8fbe 5fea 7ebe e76b 953d
00000120: 70f5 36be b967 e1bd 5502 89be 3722 7b3e
00000130: ab54 fb3d 2891 97bd a23f 70be 7af8 4d3e
00000140: 7ebb 293c 268f 64bd b36f 063e ebcf d53d
00000150: 5307 823d f45a dbbd 040d 8f3d 1e6d 19be
00000160: 7139 503e 9066 0fbe 374d b43d d3ff d0be
00000170: 26ea 0a3e df12 1dbc 2a71 f6bd a57a 7e3e
00000180: bb69 b0be 0022 3d3e e8d9 21bc 88e2 67be
00000190: c1d4 88bd 588c 18be 7fa9 a53b 6013 3a3d
000001a0: a5e3 f43d 90ab 3ebc 91b7 af3d d7ed 3abe
000001b0: fa80 1a3d a87b 97be b6b1 95bd f3db 39bd
000001c0: abd3 9bbb ee7c 37bd e3dd 5cbe 1394 ba3d
000001d0: dc55 1ebe 74ca 16be fded dbbe 0932 0e3e
000001e0: 1166 00be dc1b 48bd 8cfe a33d f5c0 2a3d
000001f0: 43d9 503e 67c4 5abe 5467 f3bd 19f6 053e
00000200: e1ac fbbd b540 08be 91a2 043e bb49 113e
00000210: 4ee1 783c ccba a3be 42e5 733e 685b 94be
00000220: 425c b23d 9bae c43c 7a4a 8f3e 2eec f7bd
00000230: 0a7d 863e 3d19 b43e 1805 fe3d 9deb 453d
00000240: 4d4f e2bd 40ab 773e b86f dd3d e34c 753e
00000250: e91b f53d 7d7b 0d3d de43 c43d 2ad5 c63e
00000260: d063 b0be d3f5 ddbd db1b 463e 4407 863b
00000270: f438 373d 7fe5 143e 2de1 3cbe 6c54 7b3d
00000280: dd17 2b3e 4177 8dbd a45d 883d b13c 503e
00000290: 02a4 843e f85e 563e 38f0 14be f559 02be
000002a0: db7c 123d 37ce a1bc 2762 303e 7bac 053d
000002b0: e1f8 02be 8dc6 8b3c d498 1fbd e95b 2e3d
000002c0: b906 d23d 8a79 51bd 8e3b 753e 7882 b5bc
000002d0: d953 b73c 9efc 10bc df77 533e 542e 863e
000002e0: 4575 2fbe 5af0 b73e 5984 763d 97f2 c3bc
000002f0: 6e10 04be adda 343e 7c0d 2ebe bb88 71be
00000300: 1378 8a3d 28f5 2d3e 6979 1d3e c682 1ebd
00000310: 1572 57be 4197 31be a9ed 7dbd 92fd 2fbd
00000320: c7a8 a6be fc3a ccbd 4c37 2b3d 0244 363e
00000330: 555c 833d e7ba 323d 398b 00bd dc07 5bbe
00000340: a2a2 c13d 96e8 20bf 222c 3c3e 0fa0 b83c
00000350: 5136 3bbe a29d 3c3e 6322 eebc 3774 dfbd
00000360: 7ab4 2c3e e922 983e a057 623e aadf 9fbc
00000370: db1d e93e d45a 13be c643 22be 109f 44be
00000380: b21d 99bc 8aa0 ee3e 2d38 3cbd c990 d13e
00000390: 7fff f8bb 260e 80bd e699 d7bb 1325 0a3e
000003a0: dad6 213e ff69 1b3e 91ce 453d cdd8 a5bd
000003b0: 403d 6ebd e4a4 07be cc1c 29be 238e c7be
000003c0: 711f 283e d96c cbbd 9f42 5fbe 4608 a83e
000003d0: 799c 013f 23b8 c9ba faf3 c2bd 9354 6ebd
000003e0: ee79 ba3c 38b7 4c3e 3457 8a3d 3ec0 bebe
000003f0: fc24 f73d 2ae2 74bd 7f41 e33d 40c9 563e
0.3591852 0.009131902 0.0061920634 -0.12981418 -0.37769967 -0.18522331 0.101785235 -0.08821973
-0.15214993 -0.017377336 -0.11516871 0.29790545 -0.08361374 -0.070299685 -0.24706812 -0.16071425
0.013151267 -0.067615815 -0.041531052 0.04187932 -0.32339084 -0.08578477 -0.0066360347 0.10107048
0.28074336 -0.18769395 0.13369101 -0.2274024 -0.12391191 0.018931372 0.18610337 -0.006935291
0.11091968 0.16312219 0.07224647 -0.06628025 0.259399 0.023812613 -0.3367568 -0.18396568
-0.10594794 -0.44961736 0.04602401 0.032492824 0.10650907 0.031632405 0.20957793 0.23438875
0.16778998 -0.12021462 0.15208831 -0.033029526 -0.2567649 -0.03494637 0.047407728 0.043663003
-0.026879227 -0.1703147 -0.16816762 -0.13126767 -0.3712462 -0.1636033 -0.2465939 -0.09913487
-0.049234886 -0.025144883 0.08123031 -0.09528332 0.24686965 -0.28118077 -0.24894093 0.07295971
-0.17867064 -0.11006112 -0.26759592 0.2452477 0.122720085 -0.07400733 -0.23461774 0.20114318
0.010359643 -0.05580058 0.13128547 0.10440048 0.06349053 -0.10710707 0.069849044 -0.14983031
0.20334412 -0.14003968 0.0880379 -0.40820178 0.13565883 -0.009587019 -0.12033303 0.24851473
-0.34455666 0.18470001 -0.009878613 -0.22645009 -0.066812046 -0.14897287 0.005055606 0.045428634
0.11957482 -0.011637583 0.085799344 -0.18254791 0.037720658 -0.2958653 -0.07309286 -0.045375776
-0.0047554574 -0.044796877 -0.21569018 0.09110274 -0.1546244 -0.14725667 -0.42955008 0.13886274
-0.12538935 -0.048854694 0.08007535 0.041687924 0.20395379 -0.21363984 -0.11884943 0.1308216
-0.122888334 -0.13305934 0.12952639 0.14188282 0.015190436 -0.31978452 0.23817924 -0.28975987
0.08709003 0.02400904 0.2798651 -0.121055946 0.26267272 0.35175505 0.12403315 0.0483204
-0.11050282 0.2418642 0.10812324 0.23955111 0.11968214 0.034541596 0.09583257 0.38834506
-0.3445115 -0.10837903 0.19346564 0.0040902216 0.04473205 0.14540671 -0.18445273 0.061359808
0.16708322 -0.069075115 0.066584855 0.20335652 0.25906378 0.20934665 -0.14544761 -0.12729628
0.035763603 -0.019751651 0.17224942 0.032635193 -0.12790252 0.01706245 -0.038964108 0.04256812
0.102551885 -0.0511413 0.239485 -0.022156939 0.022378849 -0.008849291 0.20651196 0.2620722
-0.17134579 0.3592556 0.06018481 -0.023919387 -0.12896892 0.17661543 -0.16997331 -0.23587315
0.067611836 0.16988051 0.15378346 -0.038698934 -0.21039613 -0.17342855 -0.06199423 -0.042966433
-0.32550642 -0.09972188 0.041800782 0.1779938 0.06414095 0.043635275 -0.031382773 -0.21389717
0.09454848 -0.628549 0.1837621 0.02253726 -0.18282439 0.18419507 -0.029069131 -0.10910838
0.16865721 0.29714134 0.22103739 -0.019515831 0.4553059 -0.14390117 -0.15846166 -0.19201303
-0.018690918 0.46606857 -0.04595201 0.40930775 -0.007598817 -0.062526986 -0.0065796254 0.13490705
0.15804616 0.15177153 0.0482927 -0.08097992 -0.05816388 -0.13246495 -0.16514891 -0.3897563
0.16418244 -0.099328704 -0.21802758 0.32818812 0.50629383 -0.001538996 -0.09519191 -0.058186125
0.022763219 0.19991767 0.06754914 -0.37256044 0.12067601 -0.059786 0.11096477 0.20975208

fallback.mp_gats.1.gat2.attn_l f4 [1, 1, 64]
00000000: 79ad 2bbc cdee bfbd e186 b6bd 38da b6bd
00000010: 4e54 903d d79c c63d 1f00 b93e a7e1 a3bb
00000020: 721c 673b 50ab 973a b32b 323d a97a f9bd
00000030: 01c3 053d 923d a83e 2aef 2dbd d108 9abd
00000040: 354f 883d f206 02bc 52d2 13be b26d e53d
00000050: eeaf 9abe bf4d 6e3c d742 8abc 0700 2c3e
00000060: 9a86 c73d 2f61 26bd 59bf 83bb eeb7 47bc
00000070: 4bec ef3a bc5f 663d 9479 d7ba 8ff0 263a
00000080: 51d3 a0bb f495 97bb 8e5f 4bbc 2050 573a
00000090: ad9e 74bd 2305 4d3c b48d a239 a911 593c
000000a0: b801 45bc 4d55 57be 6df0 42bc 889d 823a
000000b0: 86d6 9e3e 90fd 1c3e b978 0fbc f384 023e
000000c0: ac12 1bbc c425 6e3e 7ca2 39bd a2c9 e83b
000000d0: 7a42 51be 5b88 1f3c 6881 98bc 60cd c1bd
000000e0: 9881 ab3d 2377 1cbc 3a1b 963b 7a57 11bc
000000f0: 7905 ddbc 4c02 473c 040e 01bc d905 40be
-0.010478371 -0.093717195 -0.08912445 -0.08928341 0.0704733 0.096978836 0.36132905 -0.005001265
0.0035264757 0.0011571441 0.043498706 -0.12181599 0.032656673 0.32859474 -0.042464413 -0.07521213
0.066557325 -0.007936226 -0.144357 0.11202563 -0.3021235 0.014544903 -0.016877575 0.16796885
0.0974247 -0.040620025 -0.004020613 -0.012189848 0.0018304674 0.056243643 -0.0016439431 0.00063682435
-0.0049080034 -0.00462603 -0.012412919 0.00082135387 -0.059721638 0.012513432 0.00031004625 0.013248839
-0.012024336 -0.21028633 -0.011898142 0.0009965161 0.31023043 0.15331101 -0.00875681 0.12746029
-0.009464901 0.23256594 -0.045320973 0.0071041146 -0.20435515 0.0097370995 -0.018616393 -0.09463
0.083743274 -0.009549889 0.0045808824 -0.008870954 -0.026980149 0.012146544 -0.007876877 -0.1875223

fallback.mp_gats.1.gat2.attn_r f4 [1, 1, 64]
00000000: dc94 223d 8dd4 21bb 957f 243d 78cb 31ba
00000010: 92af 803a 9170 29bc aaaa 69be e0a2 eebb
00000020: f742 723e ad81 3f3c a60b 0b3e c060 ffbe
00000030: f99e 6bbe d681 523c 2af8 11b8 a43a ed3d
00000040: 4bf8 25bc 4190 fbbd a79f 81bc f0a6 2dbd
00000050: 6b7c 193e 0f28 193b d0e1 053e 837c 4bbc
00000060: e974 353c cf02 453c a950 833d 14e8 da3d
00000070: e70a f0bd 6eb8 4fbc 8164 2c3d cad7 19be
00000080: adac 1a3c 575a 533c 4ee3 82bb 8a7f f5bd
00000090: 596c a03d b6a5 853e d149 23ba 253e a53d
000000a0: 0ce1 de3b 4687 2cbb 38c0 f0bb 72e8 95be
000000b0: 375b c339 616f 253e ce18 89bd 1540 a3bd
000000c0: d190 79ba 341d 65bd 1630 9e3d c041 18be
000000d0: 483b 31b9 9520 513c 0a19 ab3d 5eed 2a3b
000000e0: 9a1c d0bc adc2 bebc 0128 cc3d 9120 743e
000000f0: 5487 893e 5034 08bb c9a5 033e ffdf 193c
0.039692745 -0.002469334 0.040160734 -0.00067823334 0.0009817949 -0.010341779 -0.2281901 -0.0072826
0.23658358 0.011688632 0.13578662 -0.49878502 -0.23009862 0.012848338 -3.4801815e-05 0.115834504
-0.010129998 -0.122833736 -0.015823198 -0.042395532 0.14988868 0.0023369824 0.13074422 -0.012419823
0.011075237 0.012024595 0.06411869 0.10688797 -0.117208295 -0.012678249 0.042088035 -0.15023723
0.009440583 0.012899957 -0.003994382 -0.11987217 0.07833166 0.2610299 -0.0006228956 0.08068494
0.00680173 -0.0026325746 -0.007347133 -0.29278904 0.0003726126 0.16155769 -0.06694184 -0.07971207
-0.00095201755 -0.055936053 0.077240154 -0.14868832 -0.0001690212 0.012764116 0.08354385 0.0026081423
-0.025404263 -0.023286188 0.09968568 0.23840548 0.2686106 -0.0020783134 0.12856211 0.009391784

fallback.mp_gats.1.gat2.bias f4 [64]
00000000: 0379 283c 8587 04bd ae85 debc 185e 9abc
00000010: 0a0a 003d 2ae8 73b8 a764 ac3c 6e01 a63c
00000020: 3af6 c8bc 3bca d4bc 49cd 973b e4fd ffbc
00000030: 547d 10bb 7df5 c83c a504 65bb cb37 5d3c
00000040: 5111 a83b c396 053d b894 473c bd63 0abc
00000050: d176 c93c 988c 9ebc fea6 1a3d 73c9 f9bc
00000060: c15e 133d 14ae 603b 315c a83c 8ad9 1a3d
00000070: 1c75 2ebc 198d 863c e35c 8abc 115a de3c
00000080: 7596 983c 82fc b9bb b016 173c 28e6 a73b
00000090: 07ae 0b3c 8987 c5bc 0ca8 a0bc a26b 81bc
000000a0: 24fc c03c 63cb 4fbc 335e 863c 1a89 9ebc
000000b0: 7d4c 46bd e948 153c 3c46 23bd 4bf2 6b3b
000000c0: ae82 39bc bba5 acbc fec0 c1bc 7d13 02bc
000000d0: 51a9 753c a1c3 4b3c cc89 adbc 8fba 553c
000000e0: a779 f13c 0877 72bc 079d 97bc a7c3 71bc
000000f0: 9526 4dbc 4405 e6bc c6b6 0f3c baeb d43c
0.010282758 -0.032355804 -0.027163353 -0.018843696 0.031259574 -5.8151934e-05 0.021044089 0.020264354
-0.024531472 -0.025975337 0.004632626 -0.031248994 -0.0022047358 0.02453112 -0.0034945395 0.013502072
0.0051290174 0.03261448 0.012181453 -0.008446631 0.024592789 -0.01935415 0.037756912 -0.030491566
0.035979036 0.0034283446 0.020551773 0.037805118 -0.010648038 0.016424702 -0.016889995 0.027142556
0.018626431 -0.005675853 0.009221718 0.0051238723 0.008525378 -0.02411248 -0.019611381 -0.015798394
0.02355773 -0.0126827685 0.01640234 -0.019352484 -0.04841279 0.009111621 -0.039861903 0.0036002572
-0.01132266 -0.02107512 -0.023651596 -0.007939217 0.014993981 0.012436778 -0.02118387 0.013044967
0.029476954 -0.014798887 -0.018507494 -0.01475612 -0.012521406 -0.028078683 0.008771604 0.02599131
