benchmark/HAN/checkpoint/rep1.pt (torch, 555468 bytes, 21 tensors)

fallback.proj.0.weight f4 [64, 1870]
0	0x3d5be0b4	0.05368109
1	0x3bb5c61e	0.005547299
2	0x3d66e55a	0.05637107
3	0x3cdb5be1	0.02677721
4	0x3cfba62e	0.03071889
5	0x3c9a114f	0.018807082
6	0x3c8884d2	0.016664896
7	0x3ca80581	0.020510437
8	0xbc951134	-0.01819668
9	0x3caab72c	0.020839296
10	0x3cef96f8	0.029246792
11	0x3b03e179	0.0020123406
12	0x3bc175cd	0.0059039355
13	0x3d896468	0.06708604
14	0xbbc6957e	-0.0060603013
15	0x3cc38aeb	0.023869952
16	0x3cc6fcc4	0.02429045
17	0x3d1a3a05	0.037652988
18	0xbbefc078	-0.0073166452
19	0xbb39b555	-0.0028336842
20	0x3c4d538e	0.012532128
21	0x3c6fd8d9	0.014639103
22	0x3bb2b2db	0.00545345
23	0x3c7a46c4	0.015275661
24	0x3d1bac2f	0.038006004
25	0x3d0f2276	0.034944974
26	0x3d603a84	0.054743305
27	0x3caf1b2e	0.021375265
28	0xbd3cb361	-0.046069507
29	0x3c78e6eb	0.015191774
30	0xbc81919e	-0.015816506
31	0x3d162eae	0.03666561
32	0x3d6677ec	0.05626671
33	0xbd2113d8	-0.039325565
34	0xbc15a732	-0.009134101
35	0x3c9cb9c4	0.019131549
36	0x3cefe884	0.029285677
37	0x3c819dfe	0.015822407
38	0x3d4dbbc4	0.050227895
39	0xbd0a454f	-0.033757504
40	0xbcd6439e	-0.02615529
41	0xbcd7baa9	-0.026334124
42	0x3d14eb71	0.036357347
43	0x3d70c89f	0.058785077
44	0x3d6fc782	0.058539875
45	0x3cb33d59	0.021879839
46	0x3d22fc69	0.0397915
47	0x3d7c75e6	0.061635874
48	0x3cf1fa1d	0.029538209
49	0xbb830ed4	-0.0039995704
50	0x3c569fdc	0.013099637
51	0x3d02729f	0.031847592
52	0x3c0e376f	0.008680209
53	0x3d75f79e	0.0600506
54	0xbd80823d	-0.06274841
55	0xbcbb501b	-0.022865346
56	0x3ce10240	0.027466893
57	0xbd09c895	-0.033638556
58	0x3d0ca41a	0.034336187
59	0x3b40787f	0.0029368696
60	0x3c0dd4d1	0.008656696
61	0x3d49195d	0.049096454
62	0x3ce4df47	0.027938498
63	0xbc94b17c	-0.018151037
64	0x3cf64353	0.0300614
65	0x3ce6fea8	0.028197601
66	0x3cfead49	0.031088488
67	0xbc8daa2b	-0.017293056
68	0xbc8c28e6	-0.017109346
69	0xbd68efff	-0.056869503
70	0x3d324b97	0.04352912
71	0x3d10180f	0.035179194
72	0x3d45f0b8	0.04832527
73	0x3d483c9b	0.048885923
74	0x3d805708	0.062666
75	0x3d813077	0.06308072
76	0x3c16f9be	0.009214817
77	0x3d0f8e43	0.03504778
78	0x3d789ab3	0.060694408
79	0x3d3b2935	0.045693595
80	0x3cce8550	0.025210053
81	0xbcce31a1	-0.02517015
82	0xbbbb395b	-0.0057136244
83	0x3d7f78d7	0.0623711
84	0xbd3c45b2	-0.045964904
85	0x3cc4f323	0.024041718
86	0x3cbbbb74	0.022916533
87	0x3d697ecf	0.0570057
88	0x3cba3134	0.02272854
89	0xbca3f046	-0.020012032
90	0xbb596c15	-0.0033175994
91	0x3d51f869	0.051262293
92	0xbcbfc515	-0.023409406
93	0x3d49da5b	0.049280506
94	0xbd461a22	-0.048364766
95	0xbc58b49f	-0.013226657
96	0x3c89e15b	0.01683109
97	0x3d4d878c	0.050178096
98	0x3d1bcd5e	0.03803765
99	0x3d161bee	0.03664773
100	0xbc257355	-0.010098298
101	0xbd28b038	-0.04118368
102	0xbccde5d0	-0.025133997
103	0x3cf502e6	0.029908609
104	0xbd094f03	-0.033522617
105	0x3d1a23a3	0.037631642
106	0x3c17877e	0.009248612
107	0x3a41f76b	0.0007399234
108	0xbd15d9ac	-0.03658454
109	0x3c9f0be4	0.01941485
110	0xbc4d4fd3	-0.012531239
111	0x3d8294ba	0.063760236
112	0x3d037202	0.03209115
113	0x3cd9142c	0.026498877
114	0x3cbd5ca6	0.023115467
115	0x3d3059fd	0.04305457
116	0x3be891e2	0.0070974687
117	0x3c2297fb	0.00992393
118	0xbba25103	-0.004953505
119	0xbc8d31b5	-0.017235616
120	0xbb8e8457	-0.004349272
121	0x3c234437	0.009964994
122	0x3d67f1f4	0.05662723
123	0x3d744809	0.05963901
124	0x3d49c8dc	0.04926382
125	0x3bbdd48e	0.0057931608
126	0xbc52da29	-0.012869396
127	0x3ca4ecb1	0.020132395
128	0x3b960d5a	0.0045792283
129	0x3d593b61	0.053035144
130	0x3c02b466	0.007977581
131	0xbc3bf352	-0.011471586
132	0xbc98fc74	-0.018675067
133	0x3cc9ec0b	0.024648687
134	0x3c5f6e46	0.013637131
135	0x3cd99446	0.02655996
136	0x3cceb561	0.025232973
137	0x3d6b735d	0.057483066
138	0x3d48c8c2	0.049019583
139	0x3d0f78f8	0.035027474
140	0x3d18b5b8	0.037282676
141	0x3c4c71e6	0.012478327
142	0x3d7fc688	0.062445194
143	0x3d6363bd	0.05551504
144	0x3d0cf904	0.034417167
145	0x3d551fec	0.052032396
146	0x3c8c1e00	0.017104149
147	0xbca3f12c	-0.02001246
148	0x3cb8c3f6	0.022554379
149	0xbc2e31f8	-0.010632031
150	0xbd0bf246	-0.034166597
151	0xbb0a54c4	-0.0021107653
152	0x3ce154d0	0.027506262
153	0x3ccc8025	0.024963448
154	0xbd4459b2	-0.047937103
155	0xbd4092ce	-0.047015004
156	0x3c9a8d37	0.018866165
157	0x3d4f9b20	0.050685048
158	0x3d40579c	0.04695855
159	0x3d06f4a5	0.032948155
160	0x3d022726	0.031775616
161	0xbae29d1f	-0.0017289257
162	0x3cbd29c8	0.023091212
163	0xbcd61513	-0.026133096
164	0x3caf307d	0.021385426
165	0x3d28aa46	0.04117801
166	0x3cfa7a05	0.030575762
167	0xbc417e51	-0.011809901
168	0x3d1c9026	0.03822341
169	0x3c9c5aae	0.019086208
170	0x3cb8223c	0.022477262
171	0x3d171884	0.036888614
172	0x3d335dcb	0.04379062
173	0xbd1907c2	-0.037360914
174	0x3d4f479c	0.0506054
175	0xbc826a26	-0.015919756
176	0x3d788215	0.06067093
177	0x3d439a9f	0.04775488
178	0x3d2c963a	0.042135455
179	0xbce7aaad	-0.028279627
180	0xbca25478	-0.019815668
181	0x3c036c1e	0.008021383
182	0x3ca82b24	0.020528384
183	0x3d4e9f77	0.050445046
184	0x3c1a7bbb	0.009428914
185	0xbd336738	-0.04379961
186	0x3d093489	0.033497367
187	0x3cd3caa2	0.025853459
188	0x3cc931db	0.024559906
189	0xbc4aae4a	-0.012370655
190	0xbce26a33	-0.02763853
191	0xbd67e065	-0.056610484
192	0x3cdff303	0.027337557
193	0xbc75f996	-0.015013119
194	0x3d56ca9c	0.052439317
195	0x3cbdc88a	0.023166914
196	0xbd1c04b4	-0.038090423
197	0x3d251c0b	0.040309947
198	0x3d0456b7	0.03230926
199	0x3d4f30c3	0.050583612
200	0x3b48d063	0.0030641786
201	0x3d0961d5	0.033540566
202	0xbd3b2af4	-0.04569526
203	0x3b731048	0.0037088562
204	0x3d1b4ff6	0.037918054
205	0x3c2a2e24	0.010386977
206	0xb9f381c3	-0.00046445252
207	0xbd1fcfa7	-0.039016392
208	0x3b11c3fc	0.002224206
209	0x3d38e9e3	0.045144927
210	0x3d38661e	0.04501926
211	0x3d9b35f9	0.07578654
212	0x3d139b65	0.036036868
213	0x3d04493d	0.032296408
214	0x3d284267	0.04107895
215	0x3d123085	0.035690803
216	0x3d14423c	0.03619598
217	0x3d0e0a00	0.034677505
218	0x3d00756c	0.031361982
219	0x3d356df8	0.044294327
220	0x3d2c1a0a	0.04201702
221	0x3d3e0eb9	0.04640076
222	0xbb9c9db3	-0.0047795414
223	0xbc3dd1c6	-0.011585658
224	0x3d6c5bd8	0.057704777
225	0x3d633d59	0.055478428
226	0x3cc7b82b	0.02437981
227	0x3bf26053	0.0073967366
228	0x3ce942a2	0.028474156
229	0xbc6fda0c	-0.014639389
230	0x3c7bcabe	0.015368162
231	0x3b721fd9	0.0036945252
232	0x3cdd9ef7	0.02705334
233	0x3d788a63	0.06067885
234	0xba475e14	-0.00076052663
235	0x3cd4abd6	0.025960844
236	0x3d349057	0.044082966
237	0x3c8de961	0.017323198
238	0x3c1b9bd6	0.009497603
239	0x3d1a9dcf	0.037748154
240	0xbd15467a	-0.036444165
241	0x3d13a8aa	0.036049522
242	0x3d55efcd	0.052230645
243	0x3bb35ed2	0.00547395
244	0x3ccffaba	0.02538811
245	0x3d8a2e10	0.06747067
246	0x3d42dd4d	0.04757433
247	0xbd01bb70	-0.031672895
248	0x3d4a7b15	0.049433786
249	0x3c163664	0.009168241
250	0x3d5816c2	0.05275608
251	0x3d6de914	0.05808361
252	0x3d8fb27a	0.070164636
253	0xbcce1e97	-0.02516107
254	0x3d0c4c67	0.03425255
255	0x3c978d0e	0.018499877

fallback.proj.0.bias f4 [64]
0	0x3c1c3e22	0.009536298
1	0x3d28c3c1	0.04120231
2	0xbc9c401b	-0.019073537
3	0xbcb34a1d	-0.021885926
4	0x3cb9477a	0.02261709
5	0x3c0eadc6	0.008708423
6	0x3cbd00e3	0.023071712
7	0x3c8884ce	0.016664889
8	0x3d0577ae	0.03258484
9	0x3c213dac	0.009841364
10	0x3cec12e5	0.028817603
11	0x3d1f4227	0.038881447
12	0x3b647c2f	0.0034864058
13	0xbb9ab46e	-0.004721216
14	0xbc2064b0	-0.009789631
15	0x3b3dec77	0.0028980055
16	0x3caf0586	0.021364938
17	0x3c6e6f2b	0.014552872
18	0x3c1c69ae	0.00954668
19	0xbbf0bc3b	-0.0073466576
20	0x3b8c85e4	0.004288422
21	0xbbffc843	-0.0078058555
22	0x3ccf965e	0.025340255
23	0x3b9aaf44	0.0047206003
24	0x3c05c8a1	0.008165509
25	0x3ca87bd4	0.020566858
26	0x3c76bb7a	0.015059346
27	0xbd094694	-0.033514574
28	0xb9baded0	-0.00035642693
29	0xbc052f78	-0.008128993
30	0x3c8277e3	0.015926307
31	0xbd5d15e8	-0.05397597
32	0x3bbec528	0.0058218427
33	0xbb7f7cb1	-0.0038984234
34	0x3cf93ae5	0.03042359
35	0x3cf05c71	0.029340954
36	0xbcb3a5e3	-0.021929687
37	0xbbd47a42	-0.006484301
38	0xbccfb913	-0.025356805
39	0x3c7cf221	0.015438587
40	0x3cc03ab3	0.02346549
41	0x3cb8e7bb	0.022571435
42	0x3c98f95c	0.018673591
43	0xbd28c27b	-0.041201096
44	0x3c4924b3	0.012276816
45	0x3b4d422e	0.0031319964
46	0x3c65f5b1	0.014035628
47	0xbc061113	-0.008182782
48	0x3b225326	0.0024768799
49	0x3c9415df	0.018076835
50	0x3d0cc6b8	0.0343692
51	0xbc6e82cd	-0.0145575525
52	0x3cbc3c55	0.022977987
53	0x3ca6a6df	0.020343242
54	0xbce6242c	-0.02809342
55	0x3d37acc2	0.04484249
56	0x3d0e188a	0.03469137
57	0xbc4134c6	-0.011792367
58	0x3b4eaba0	0.0031535402
59	0x3be38233	0.006943011
60	0xbc92e7e5	-0.017932842
61	0x3a9ec1fd	0.0012112256
62	0xba88ce3a	-0.0010437437
63	0x3c8ab765	0.016933152

fallback.mp_gats.0.gat1.attn_l f4 [1, 8, 8]
0	0x3e21cfa4	0.15801865
1	0x3f2a596c	0.66542697
2	0x3eab859d	0.33500376
3	0xbe1a8851	-0.15091063
4	0x3e07e708	0.13271725
5	0x3df47ae0	0.11937499
6	0x3e9dad18	0.30796123
7	0x3ec4b790	0.38421297
8	0x3da14dd4	0.07876173
9	0xbe73b079	-0.23797788
10	0x3d3de438	0.046360224
11	0x3dc16c67	0.09444504
12	0x3e5a3e20	0.21312761
13	0x3ea6d44c	0.32583845
14	0xbe6aff64	-0.22948986
15	0x3e97c5fc	0.29643238
16	0xbe812d21	-0.25229743
17	0xbd17c945	-0.03705718
18	0xbe8d44aa	-0.2759145
19	0x3eaf4825	0.3423473
20	0x3cf215a3	0.029551333
21	0xbd67ba4a	-0.056574143
22	0xbea369aa	-0.31916553
23	0xbd8114c3	-0.06302788
24	0xbdb0241a	-0.08600636
25	0x3e9dc700	0.30815887
26	0xbd9323ec	-0.07184586
27	0x3e613358	0.21992242
28	0x3df8cc04	0.12148288
29	0xbd9d099a	-0.07667847
30	0xbe88e0f4	-0.26734126
31	0x3ca65c4a	0.020307679
32	0xbebb78e0	-0.36615658
33	0xbe95e708	-0.29277825
34	0x3e58e061	0.21179344
35	0xbe12c05d	-0.14331193
36	0x3e133d80	0.14378929
37	0x3ebaa844	0.364565
38	0x3dca1af3	0.098684214
39	0x3da473a8	0.08029872
40	0xbeab8d97	-0.33506462
41	0xbed39a1b	-0.4132851
42	0xbe7e0e25	-0.24810083
43	0xbe84731e	-0.25869077
44	0xbe689137	-0.22711645
45	0x3e0edf77	0.13952433
46	0xbec26a89	-0.37971905
47	0x3ee77aa8	0.45210767
48	0xbe138a53	-0.14408235
49	0xbe865344	-0.26235402
50	0x3efc6abc	0.49300182
51	0x3ec5904e	0.38586658
52	0xbec93d7d	-0.39304724
53	0xbd9a3d78	-0.075312555
54	0xbeb7cb9b	-0.35897526
55	0xbe40bed8	-0.18822801
56	0x3e02839c	0.12745517
57	0xbec8cecc	-0.39220273
58	0x3e40eeb1	0.18841054
59	0xbed36362	-0.4128676
60	0x3dad45c8	0.08460575
61	0x3ebba6f0	0.366508
62	0xbeaf90a8	-0.3429005
63	0x3c18d39f	0.009327798

fallback.mp_gats.0.gat1.attn_r f4 [1, 8, 8]
0	0x3e5a5824	0.21322685
1	0xbd7fa773	-0.06241555
2	0x3befaebf	0.0073145325
3	0xbc23be89	-0.009994158
4	0x3ed80ec8	0.42198777
5	0xbe56cdf3	-0.20977001
6	0xbcd700cb	-0.026245495
7	0x3ddd2548	0.107981265
8	0xbe3b2ea0	-0.18279505
9	0x3e0411a2	0.12897351
10	0xbd8921ee	-0.06695925
11	0x3dbb589a	0.09147759
12	0x3ddfd206	0.10928731
13	0xbe27a031	-0.16369702
14	0xbe425da6	-0.18981037
15	0x3d38d53d	0.045125235
16	0xbd92c81d	-0.07167075
17	0x3bf90ccf	0.007600404
18	0xbe1b3d71	-0.15160157
19	0x3cd058f5	0.025433043
20	0x3db9aab4	0.09065762
21	0xbe8db79e	-0.2767915
22	0x3d385747	0.04500511
23	0xbde559b5	-0.11198751
24	0xbe21b1a9	-0.15790428
25	0xbd085032	-0.033279605
26	0x3e20956c	0.15682
27	0xbe1d77ad	-0.15377684
28	0xbe229aaf	-0.1587932
29	0xbd768c48	-0.060192376
30	0xbe9c4a60	-0.30525494
31	0x3d7b7a51	0.061395947
32	0x3d1f3747	0.038871076
33	0x3e146a3d	0.14493652
34	0x3e4d97ec	0.20077485
35	0xbe06bdcc	-0.1315834
36	0x3dda7d9a	0.10668488
37	0x3c0ba029	0.008522072
38	0x3de1acdc	0.110192984
39	0x3e84ae79	0.25914362
40	0x3d59e5c0	0.053197622
41	0x3c8b663c	0.017016523
42	0x3e96862f	0.2939925
43	0x3d57c771	0.052680437
44	0xbde79f9f	-0.11309742
45	0x3c7577ae	0.014982147
46	0xbd713173	-0.05888505
47	0x3ee7c8d6	0.45270413
48	0x3d27e231	0.040987197
49	0xbeb3de8b	-0.35130724
50	0xbd814b76	-0.06313221
51	0x3ca1f0d8	0.019768164
52	0x3e88aa0e	0.2669224
53	0xbd163daf	-0.03667992
54	0xbd8e9f1e	-0.06963943
55	0x3cae407b	0.021270981
56	0x3e400669	0.18752445
57	0x3eb06c5a	0.34457666
58	0xbe91b2a3	-0.28456602
59	0xbdaa8a5c	-0.08327171
60	0x3d6a6e5d	0.057234157
61	0x3cf728a8	0.030170754
62	0x3ca8ec9d	0.020620639
63	0x3d912c66	0.070885465

fallback.mp_gats.0.gat1.bias f4 [64]
0	0x3be21ef8	0.0069006644
1	0xbb3b49ee	-0.0028578
2	0xbca9225a	-0.020646263
3	0x3beb43f2	0.0071797306
4	0xbbabe544	-0.0052458365
5	0xb8dc73b1	-0.00010511967
6	0x3cea2d02	0.028585915
7	0xbcc3cb89	-0.023900764
8	0xbab07317	-0.0013462034
9	0xbb7cc425	-0.003856906
10	0x3cee7d01	0.02911234
11	0x3cffdc1d	0.031232888
12	0xbb9445e6	-0.004524934
13	0x3c92eb42	0.017934445
14	0x3c356a1e	0.011072664
15	0x3cc6403a	0.024200547
16	0x3bfb1361	0.0076622223
17	0x3bd49169	0.006487061
18	0xbd1a99dd	-0.03774439
19	0x3c966bc6	0.018361937
20	0x3cf32bc6	0.029683959
21	0x3b380f6e	0.0028085369
22	0xbccc21c2	-0.02491844
23	0x3ce905de	0.02844518
24	0xbd3337a7	-0.043754246
25	0xbc736f7d	-0.014858124
26	0x3c3d88b3	0.011568236
27	0xbbd56789	-0.0065125865
28	0xbcbb8fe4	-0.02289576
29	0xbc67e488	-0.014153607
30	0x3b4407be	0.0029911841
31	0xbc2dd15d	-0.010608998
32	0x3c43daf0	0.011954054
33	0x3d228f75	0.039687593
34	0x3ceee8dc	0.02916377
35	0x3c957067	0.018242074
36	0xbcf4b385	-0.029870758
37	0x3c4aa887	0.012369282
38	0xbc262dce	-0.010142757
39	0xbc154f5a	-0.009113157
40	0xbcd53c77	-0.026029808
41	0xba86f440	-0.0010296181
42	0xbc358304	-0.0110786
43	0x3c9d00b3	0.019165372
44	0x3c9cc1cd	0.01913538
45	0x3bf86894	0.007580826
46	0xbca77c2e	-0.020444956
47	0xbbbedfb0	-0.0058250055
48	0x3c1c5bd9	0.009543383
49	0xba752e57	-0.00093529135
50	0x3b9b185d	0.004733129
51	0x3b9cfc57	0.0047908234
52	0x3c84a8b9	0.016193734
53	0x3c8b7b7e	0.01702666
54	0xbc55e35d	-0.013054696
55	0x3c7a6a4c	0.015284132
56	0xb95f404c	-0.0002129089
57	0xbc2c183f	-0.010503828
58	0x3d2a95ef	0.041646894
59	0x3c00a668	0.007852174
60	0x3c3b3e82	0.011428477
61	0x3c11088f	0.008852138
62	0x3b92c602	0.004479171
63	0x3c6fb752	0.014631109

fallback.mp_gats.0.gat1.fc.weight f4 [64, 64]
0	0xbd8f75f2	-0.07004918
1	0xbebc617d	-0.36793128
2	0x3e8812c0	0.26576805
3	0xbd6f046a	-0.05835382
4	0x3ec2e199	0.38062742
5	0x3eecf15c	0.46277893
6	0x3da44034	0.08020058
7	0xbcf3ab18	-0.02974467
8	0x3d8bba93	0.068226956
9	0x3ebbf734	0.3671204
10	0x3e07a794	0.1324752
11	0x3e116432	0.14198378
12	0xbda1cf2c	-0.07900843
13	0x3d99b7c7	0.07505756
14	0x3e9b977b	0.30389008
15	0xbe113114	-0.14178878
16	0x3de81c0c	0.113334745
17	0x3e327c12	0.17430142
18	0xbe168a50	-0.147012
19	0x3b17653c	0.0023101112
20	0x3cf3ee87	0.029776825
21	0xbdba4b47	-0.09096389
22	0x3e22c22a	0.1589438
23	0xbe16fedd	-0.1474566
24	0xbccbdcf9	-0.024885641
25	0xbcf15a49	-0.029461997
26	0xbcb41af8	-0.021985516
27	0xbbb4961c	-0.0055110585
28	0x3dbd1eca	0.09234388
29	0xbe99aa81	-0.30012897
30	0x3c9cad2b	0.019125542
31	0x3b02138e	0.0019848081
32	0x3dae1f83	0.08502104
33	0x3e884177	0.26612446
34	0xbe9aec8b	-0.30258593
35	0x3dce83db	0.10083743
36	0xbd50b304	-0.050951973
37	0x3daf231f	0.08551621
38	0xbe847f1b	-0.25878224
39	0xbe8d7992	-0.27631813
40	0xbd48fd29	-0.049069557
41	0xbcb13229	-0.021630364
42	0xbe85bac9	-0.26119068
43	0x3ce61d33	0.028090095
44	0xbd2c4414	-0.04205711
45	0x3dde6692	0.108594075
46	0xbbe94ffb	-0.00712013
47	0xbe802d49	-0.2503455
48	0x3dde7f43	0.10864117
49	0xbe2bea8e	-0.16788694
50	0xbd49337f	-0.049121376
51	0xbe0a0519	-0.13478507
52	0x3e3cbcd7	0.18431412
53	0xbda5aa4b	-0.080891214
54	0x3cf8466f	0.030307023
55	0xbea3e63c	-0.32011592
56	0x3d86f883	0.065903686
57	0xbd95154c	-0.07279453
58	0x3c6fbb13	0.014632004
59	0x3ce298ee	0.027660813
60	0xbe7ab91a	-0.24484673
61	0xbddbf2fb	-0.10739704
62	0xbe6751a7	-0.22589742
63	0xbd9e06ea	-0.077161625
64	0xbe417dae	-0.18895599
65	0xbd611fb8	-0.05496189
66	0x3d4c0612	0.049810477
67	0xbe2f73b1	-0.17133977
68	0xbd4a6644	-0.049413934
69	0xbc2f0aed	-0.010683757
70	0x3eadccc1	0.33945277
71	0xbc4f3989	-0.012647995
72	0xbddfaccc	-0.1092163
73	0xbd232011	-0.039825503
74	0x3da39337	0.079870634
75	0x3e6bf442	0.23042396
76	0xbe571955	-0.21005757
77	0xbb1c61d3	-0.0023862019
78	0x3dd30bd5	0.10304991
79	0xbe6ef52c	-0.23335713
80	0x3e9ddef8	0.30834174
81	0x3ca499f7	0.020092947
82	0xbb16a9c1	-0.0022989365
83	0xbe6bce0c	-0.2302782
84	0x3e5a7b47	0.21336089
85	0xbeae2586	-0.34013003
86	0x3c146d6a	0.0090592895
87	0xbdb3ac49	-0.08773095
88	0xbeb07e01	-0.34471133
89	0x3e982079	0.29712275
90	0x3daee8b2	0.08540477
91	0x3d046689	0.032324348
92	0xbe0000fc	-0.12500376
93	0x3dae26dd	0.08503506
94	0xbc8de767	-0.017322255
95	0xbd597d57	-0.05309805
96	0x3ea0e467	0.31424257
97	0xbdd3bb7b	-0.103384934
98	0xbe0799f9	-0.1324233
99	0x3deb58d5	0.11491553
100	0xbd85aa55	-0.06526629
101	0xbc96c901	-0.018406393
102	0x3cde6aff	0.02715063
103	0xbe4bde8d	-0.19909115
104	0x3de163a2	0.110053316
105	0xbdd882bb	-0.1057181
106	0x3d2ca7e5	0.042152304
107	0x3e6e26c4	0.23256975
108	0x3deac9ec	0.11464295
109	0xbdf6bc46	-0.12047629
110	0x3e5222e6	0.20521125
111	0xbd0b9310	-0.034075797
112	0x3e7ccf08	0.24688351
113	0x3c8455f5	0.016154269
114	0xbea23fc2	-0.31689268
115	0x3e1aff18	0.15136373
116	0xbdeff0a9	-0.11715824
117	0xbdb141ee	-0.08655153
118	0xbe18484e	-0.14871332
119	0xbe79b170	-0.24384093
120	0x3e0443db	0.1291651
121	0x3e90e33e	0.28298372
122	0x3dd972bd	0.10617588
123	0x3e619737	0.2203034
124	0xbcdaf5c6	-0.026728522
125	0x3d0c2e29	0.03422371
126	0xbdbe2be9	-0.09285719
127	0x3dcca418	0.09992236
128	0x3e697c45	0.22801311
129	0x3e315fab	0.1732165
130	0xbe7b7655	-0.24556859
131	0xbdaee836	-0.085403845
132	0xbe762783	-0.2403851
133	0x3ed4b299	0.4154251
134	0x3ef1e27e	0.47243112
135	0x3d6f0869	0.05835763
136	0xbe5118f1	-0.2041967
137	0xbc333637	-0.010938219
138	0x3e93593e	0.28779024
139	0xbd088e0f	-0.033338603
140	0xbdfb6dd2	-0.12276806
141	0x3e11485e	0.14187762
142	0x3d8f0ce5	0.06984881
143	0x3e7e609f	0.24841546
144	0xbe4b737a	-0.1986827
145	0xbe51d570	-0.20491576
146	0x3dfc6807	0.12324529
147	0xbd8bbb2d	-0.0682281
148	0xbe0964d0	-0.13417363
149	0xbd9260cf	-0.07147371
150	0x3e6323a7	0.22181569
151	0xbe09a068	-0.13440096
152	0x3de2705e	0.110565886
153	0x3e2557a6	0.16146716
154	0x3e141820	0.14462328
155	0x3e479563	0.1949058
156	0x3e7ffe8f	0.2499945
157	0xbe00770f	-0.12545417
158	0xbebb3f9b	-0.36571965
159	0x3ec634cf	0.38712165
160	0x3e1b5a16	0.15171084
161	0x3e6e7863	0.23288111
162	0x3d4ec7d5	0.050483543
163	0xbe743561	-0.23848487
164	0x3d8e9807	0.06962591
165	0xbe1c3175	-0.15253241
166	0x3c382440	0.011239111
167	0xbdbd2b5c	-0.09236786
168	0x3d36d36c	0.04463522
169	0xbeaaf7f0	-0.33392286
170	0xbe00ac6b	-0.12565772
171	0x3e9426dc	0.28935897
172	0xbe1d9182	-0.15387538
173	0xbe1ee437	-0.15516745
174	0x3d86bd66	0.06579094
175	0x3d26e949	0.04074982
176	0xbe33be1b	-0.17552988
177	0xbd0e1609	-0.034688983
178	0x3d8725ca	0.065990046
179	0xbec35fd8	-0.3815906
180	0x3d36a49e	0.044590585
181	0xbd91c34d	-0.07117329
182	0x3e17c737	0.14822088
183	0x3de98ff9	0.11404414
184	0xbeb6b113	-0.35681972
185	0x3e940893	0.28912792
186	0xbe740011	-0.2382815
187	0x3e5e9776	0.21737465
188	0xbe86e676	-0.26347703
189	0xbc7aae8b	-0.015300403
190	0xbe3f7d19	-0.18700065
191	0xbda4b9f9	-0.08043284
192	0xbe03f7d9	-0.12887515
193	0xbd09364c	-0.033499047
194	0x3d9378a3	0.07200744
195	0xbdeb375d	-0.11485169
196	0xbe6350d5	-0.22198804
197	0xbdab0d94	-0.08352199
198	0xbe03fd16	-0.12889513
199	0x3eac96f5	0.3370892
200	0x3cce9794	0.025218762
201	0x3d2bdeb0	0.04196042
202	0xbdd0ed97	-0.10201567
203	0xbea3794e	-0.31928486
204	0xbde6a485	-0.11261848
205	0xbe078518	-0.13234365
206	0x3e32bbc5	0.17454441
207	0xbd9a65c3	-0.07538941
208	0xbd174ce6	-0.03693857
209	0x3e4a8cbc	0.19780248
210	0x3eb5d8c5	0.35516945
211	0xbee58a14	-0.44831908
212	0x3e326ae6	0.17423591
213	0x3de48ebe	0.111600384
214	0x3bca0cbc	0.006166069
215	0xbc1d9a9f	-0.009619384
216	0xbeda357c	-0.4261893
217	0xbd92ce4b	-0.071682535
218	0x3e0eb716	0.13937029
219	0x3da18d94	0.07888332
220	0x3df9dc5a	0.12200232
221	0x3e14eecb	0.14544217
222	0xbd872d19	-0.066003986
223	0xbde54f0e	-0.11196719
224	0xbe5c956d	-0.21541376
225	0xbe424cf1	-0.18974663
226	0x3e7f531d	0.24934049
227	0xbe028ae4	-0.12748295
228	0x3c46aaff	0.01212573
229	0x3e9b9d29	0.3039334
230	0x3d9f2c39	0.07772107
231	0x3deface8	0.11702901
232	0x3d9b07a3	0.07569816
233	0xbd986a2a	-0.07442124
234	0xbea72970	-0.32648802
235	0xbdaf1bff	-0.08550262
236	0xbe97861e	-0.2959451
237	0x3e2bb89b	0.1676964
238	0xbe65a094	-0.22424537
239	0xbe06c251	-0.13160063
240	0x3db6297f	0.088946335
241	0xbdbe44d8	-0.09290475
242	0xbde62ba2	-0.11238791
243	0xbe267bb0	-0.1625812
244	0x3d56aa46	0.05240848
245	0xbeb5d1b4	-0.35511553
246	0x3dc95643	0.09830906
247	0xbb95361d	-0.00455357
248	0x3b5c53eb	0.0033619355
249	0x3d98b3d1	0.07456172
250	0xbd4c5ded	-0.049894262
251	0xbc46e895	-0.012140413
252	0xbc111937	-0.008856109
253	0xbe5d63b9	-0.21620072
254	0xbd7f80ef	-0.06237882
255	0xbe0e0fce	-0.13873217

fallback.mp_gats.0.gat2.attn_l f4 [1, 1, 64]
0	0x3cb307e4	0.021854348
1	0x3e23b286	0.1598607
2	0x3e137cf2	0.14403132
3	0xbbd99b87	-0.0066408548
4	0x3d314a03	0.043283474
5	0x3c9bb526	0.019007277
6	0xbe6fb905	-0.23410423
7	0x3debd17f	0.115145676
8	0xbe20d883	-0.15707593
9	0xbda3cc8a	-0.07997997
10	0xbdf3008f	-0.11865341
11	0xbe005832	-0.12533644
12	0xbca81ba7	-0.020520998
13	0x3c960b23	0.018315857
14	0x3e69e21b	0.22840159
15	0x3e18c367	0.1491829
16	0x3d1696ac	0.036764786
17	0x3e1a6af6	0.15079865
18	0x3c3bbf0a	0.0114591215
19	0x3de600a5	0.11230592
20	0xbee00b3d	-0.43758574
21	0x3e84b2b0	0.25917578
22	0xbe6a650d	-0.2289011
23	0xbe2be49e	-0.1678643
24	0x3c9aac97	0.018881125
25	0xbc3f905b	-0.011692132
26	0xbd40ee52	-0.04710228
27	0xbd504ad8	-0.050852627
28	0xbc7fce70	-0.015613183
29	0x3bb79fcc	0.005603766
30	0xbd3c6c5b	-0.046001773
31	0x3e8f5786	0.27996463
32	0x3e91b568	0.28458714
33	0x3e551f04	0.20812613
34	0x3e418b4d	0.18900795
35	0x3de50e58	0.111843765
36	0xbc50d7e1	-0.012746782
37	0xbddf3341	-0.10898448
38	0x3e408488	0.18800557
39	0xbe2d58d3	-0.16928415
40	0xbd9eada3	-0.07747962
41	0xbe7ee305	-0.24891289
42	0x3da988f4	0.08278075
43	0x3d0c1c4a	0.034206666
44	0x3df5dfca	0.12005575
45	0x3e189bad	0.14903136
46	0x3d55e875	0.05222364
47	0x3e272c99	0.16325606
48	0xbdf21242	-0.11819889
49	0xbdf82b33	-0.121176146
50	0x3de88e5f	0.1135528
51	0xbe15da86	-0.14634141
52	0xbe5cef8b	-0.21575753
53	0xbdff63b9	-0.124701925
54	0x3dd5ca54	0.10438982
55	0xbeb7225e	-0.35768408
56	0x3e7ad7a8	0.24496329
57	0xbd35ea6e	-0.044413023
58	0xbe965eec	-0.29369295
59	0xbd55fc43	-0.05224253
60	0x3d26aefa	0.040694214
61	0x3f180f62	0.5939847
62	0xbdd1cfed	-0.10244737
63	0xbe98eb88	-0.29867196

fallback.mp_gats.0.gat2.attn_r f4 [1, 1, 64]
0	0xbd1be340	-0.03805852
1	0xbd61c98c	-0.05512385
2	0xbdc8202a	-0.0977176
3	0xbe9b9186	-0.30384463
4	0xbeba2324	-0.36354935
5	0xbd1386a9	-0.036017094
6	0x3da82016	0.08209245
7	0xbe7b7474	-0.24556142
8	0x3e2c2f91	0.1681502
9	0xbd0c1b67	-0.03420582
10	0x3df2020a	0.11816795
11	0x3c909cee	0.017652955
12	0x3d31285f	0.04325139
13	0xbcbf725c	-0.02336996
14	0xbc749bb2	-0.014929699
15	0x3dfeaa57	0.124348335
16	0x3e15f47b	0.14644043
17	0x3d42bf5d	0.04754578
18	0xbe4d426b	-0.20044868
19	0x3e37da9c	0.17954487
20	0x3d3199f0	0.043359697
21	0x3c9a4daa	0.018835861
22	0xbe8a426d	-0.27003804
23	0x3c4c2520	0.012460023
24	0x3dc93666	0.09824829
25	0x3bbe4cbb	0.005807487
26	0x3e0f79a7	0.1401125
27	0xbe550f14	-0.20806533
28	0xbd6fc420	-0.05853665
29	0xbcb62b77	-0.022237523
30	0xbcc3e9f8	-0.023915276
31	0x3cf81e23	0.030287808
32	0x3d377696	0.044790827
33	0xbe14bbf8	-0.1452483
34	0x3d765242	0.06013704
35	0xbe494d2e	-0.19658348
36	0xbe3a4a59	-0.18192424
37	0x3ebd9cb5	0.3703362
38	0x3c94ef6c	0.018180571
39	0x3ad77514	0.001643809
40	0x3dffa499	0.124825664
41	0xbd909d19	-0.07061214
42	0x3db6e864	0.08931044
43	0x3df8a402	0.12140657
44	0xbbada5c7	-0.005299303
45	0xbd65071e	-0.05591499
46	0x3d29e7c2	0.041480787
47	0xbdb5a2ad	-0.088689186
48	0x3abbdaca	0.0014332172
49	0x3e3817f3	0.17977886
50	0xbd94256c	-0.072337
51	0x3bcdff26	0.0062865196
52	0x3c678889	0.014131674
53	0xbccd55af	-0.025065271
54	0x3bc7bae2	0.006095276
55	0xbc438bba	-0.011935169
56	0xbdd2a324	-0.10285023
57	0xbd6cdf62	-0.057830222
58	0x3e0301be	0.12793633
59	0x3d06f4db	0.032948356
60	0x3e332fa4	0.17498642
61	0xbe496524	-0.19667488
62	0x3e0008a9	0.12503304
63	0x3d7b25f3	0.061315488

fallback.mp_gats.0.gat2.bias f4 [64]
0	0xbcde57e2	-0.027141515
1	0x3b60049c	0.0034182435
2	0x3c513833	0.012769747
3	0xbc904dfa	-0.017615307
4	0xbcd6c212	-0.026215587
5	0x3a281953	0.0006412465
6	0x3cd3e076	0.025863867
7	0x3cb44b5f	0.022008596
8	0x3d004bf2	0.031322427
9	0x3c860aaa	0.016362507
10	0xbcc4a83a	-0.024005998
11	0xbd0833f6	-0.03325268
12	0x3d10957a	0.035298802
13	0x3b37fc76	0.0028074062
14	0xbd00ffea	-0.03149406
15	0xbca03921	-0.019558491
16	0x3c1e5213	0.009663123
17	0x3c84cca6	0.016210865
18	0xbcb42b45	-0.021993289
19	0x3d0db7ed	0.034599233
20	0x3d44e52c	0.048070118
21	0xbbebfc53	-0.0072017103
22	0xbc114588	-0.008866675
23	0x3ce5320e	0.02797797
24	0xbc3641b5	-0.011124064
25	0xbc8df2e1	-0.017327728
26	0xbc37fce1	-0.011229725
27	0xbaa83d6f	-0.0012835691
28	0x3c049e16	0.008094331
29	0x3c8cdd39	0.017195331
30	0xbc9ad3bc	-0.018899791
31	0xbd5add9b	-0.053433996
32	0x3c4a0a89	0.012331613
33	0xbc06bc3d	-0.00822359
34	0x3cd52fdc	0.026023798
35	0x3cbd5e00	0.023116112
36	0x38c1432e	9.21547e-05
37	0x3c424e48	0.011859484
38	0x3c1ab7e8	0.009443261
39	0x3bdc84d3	0.006729701
40	0xbcfe4811	-0.031040223
41	0xbc0031ca	-0.007824371
42	0x3b8d1914	0.004305968
43	0x3b0fe0d7	0.0021954083
44	0x3ca4037a	0.020021189
45	0x3b68d137	0.0035525092
46	0xbba6c543	-0.0050894334
47	0xbc946d2c	-0.018118463
48	0x3aa18057	0.0012321573
49	0x39e8b802	0.00044387585
50	0x3d14fe5a	0.03637538
51	0xbc439aeb	-0.011938791
52	0x3a337a90	0.00068465713
53	0xbd172edf	-0.036909934
54	0xbc446227	-0.011986292
55	0xbc5afd93	-0.013366121
56	0xbcc49c90	-0.024000436
57	0x3c83bc61	0.016081037
58	0x3cc3ae21	0.023886742
59	0x3c8d60e1	0.01725811
60	0x3c509792	0.01273145
61	0xbc04e490	-0.008111134
62	0x3abdae19	0.0014471441
63	0xbca5207f	-0.020157097

fallback.mp_gats.0.gat2.fc.weight f4 [64, 64]
0	0x3c9a4c67	0.01883526
1	0x3e42067b	0.18947785
2	0xbe5ab320	-0.21357393
3	0xbe0c3807	-0.13693248
4	0x3e8a0440	0.26956367
5	0xbbe5aebd	-0.007009356
6	0xbf20d5e8	-0.62826395
7	0x3ed19ff1	0.40942338
8	0xbbb673df	-0.005568012
9	0x3bf02b0f	0.0073293517
10	0xbe6978b5	-0.22799952
11	0xbe567676	-0.20943627
12	0x3ddd15f5	0.107952036
13	0xbec696c9	-0.38786915
14	0xbc9cc50b	-0.019136926
15	0x3e74b142	0.23895743
16	0xbdff45ff	-0.124645226
17	0xbda9f737	-0.082991056
18	0x3eb0fe08	0.3456881
19	0x3ce38191	0.027771743
20	0xbe70936d	-0.23493738
21	0xbe97db87	-0.29659674
22	0xbe2a6c02	-0.16642764
23	0x3e644729	0.2229277
24	0xbd113dcb	-0.03545932
25	0x3e2208f6	0.15823731
26	0x3d7cc48e	0.061710887
27	0xbc4027c1	-0.011728228
28	0x3c68309c	0.014171746
29	0xbe467367	-0.1937996
30	0xbe82d800	-0.2555542
31	0x3d7ebe27	0.062193062
32	0x3eb9a3b5	0.3625771
33	0xbd92b0b8	-0.07162613
34	0x3b967f9a	0.004592848
35	0x3e190289	0.14942373
36	0x3dd259d8	0.102710426
37	0x3d8342be	0.064092144
38	0xbe896647	-0.26835844
39	0x3d95418d	0.072878934
40	0xbdcf1cdf	-0.101129286
41	0xbe286192	-0.1644347
42	0x3dfbcbc4	0.122947246
43	0x3e4d5fcf	0.2005608
44	0xbd89be37	-0.06725734
45	0x3cbbb5bb	0.022913804
46	0x3e4c52af	0.19953416
47	0x3db2f5bd	0.08738277
48	0x3d5d18d1	0.053978745
49	0xbd058a22	-0.032602437
50	0xbcba3be7	-0.022733642
51	0x3e47452b	0.19459979
52	0x3ce28d76	0.027655344
53	0xbb6b4aab	-0.003590266
54	0x3dd79a86	0.1052752
55	0x3e06f0be	0.13177773
56	0x3e8ddbf6	0.2770688
57	0x3ea182ac	0.31545007
58	0x3d97f3fb	0.074195825
59	0x3dc28526	0.09498052
60	0xbe8dab9b	-0.27669987
61	0xbd53dad7	-0.051722374
62	0xbdc4d157	-0.09610241
63	0x3e9599b5	0.29218832
64	0xbe89651a	-0.26834947
65	0xbd8d1b34	-0.06889954
66	0x3db738d8	0.08946389
67	0x3e2ac9ce	0.16678545
68	0xbe62a0df	-0.2213168
69	0x3cd936a0	0.026515305
70	0xbd130d74	-0.0359015
71	0x3dc5ef20	0.0966475
72	0x3e904393	0.28176555
73	0x3df86a34	0.12129632
74	0x3e8b4e0d	0.27207986
75	0x3d8b94e9	0.06815512
76	0x3e363eb2	0.17797354
77	0xbe05e100	-0.13074112
78	0xbd281ed3	-0.04104502
79	0xbe1ba818	-0.15200841
80	0xbc56273d	-0.013070879
81	0xbe4fb0f9	-0.20282353
82	0xbe3e1ca8	-0.18565619
83	0x3e6c922c	0.23102635
84	0x3e575580	0.2102871
85	0xbe3618de	-0.17782924
86	0xbdbc0a63	-0.091816686
87	0x3e208c34	0.15678483
88	0x3e27d13f	0.16388415
89	0xbd88961b	-0.06669255
90	0x3e2f067f	0.17092322
91	0xbc65cf1e	-0.014026431
92	0x3da4a5e9	0.08039457
93	0xbbc0c83e	-0.0058832457
94	0x3dec3222	0.115329996
95	0xbd9fce6b	-0.07803043
96	0x3e5d1d53	0.21593218
97	0x3dbf66d5	0.093457855
98	0xbd050f9a	-0.032485582
99	0x3c7d1deb	0.0154490275
100	0xbd41bfc0	-0.047302008
101	0xbe571d48	-0.21007264
102	0xbedb77ad	-0.42864743
103	0xbd917fc7	-0.0710445
104	0xbe303948	-0.17209351
105	0xbdf6b06f	-0.12045371
106	0xbe77464b	-0.24147908
107	0x3d6bad1d	0.05753814
108	0x3de8cc0e	0.11367045
109	0x3e2eda27	0.17075406
110	0x3f0c8707	0.54893535
111	0x3ecc4641	0.3989735
112	0x3c58a458	0.013222776
113	0x3d1c1a90	0.03811127
114	0xbddccfd9	-0.10781831
115	0x3e7b1dae	0.2452304
116	0xbd40d177	-0.04707476
117	0x3de42ca8	0.1114133
118	0x3dbea218	0.09308261
119	0x3de54a4e	0.11195813
120	0x3cfe8f36	0.031074148
121	0x3e2fcf4a	0.17168918
122	0x3e075559	0.13216151
123	0xbdf35bea	-0.118827656
124	0x3dab4bfb	0.083641015
125	0xbed70029	-0.4199231
126	0x3e832b07	0.25618765
127	0xbdbd4434	-0.09241524
128	0xbd6c135f	-0.05763566
129	0x3dbccdce	0.09218942
130	0x3d705e0b	0.058683436
131	0x3e9ca23c	0.30592525
132	0xbd6a3f71	-0.05718941
133	0x3d3f6bb1	0.046733562
134	0xbd893f97	-0.06701582
135	0x3c8e96ed	0.017405951
136	0xbe81d8c1	-0.25360683
137	0xbd74773c	-0.059684023
138	0xbdc561fc	-0.0963783
139	0xbc03b793	-0.008039373
140	0x3c47ba83	0.012190464
141	0xbdc3c3d3	-0.09558835
142	0xbe54ff22	-0.2080045
143	0xbda9efcb	-0.0829769
144	0x3dde8deb	0.108669125
145	0x3e1b1128	0.15143263
146	0xbd82efd3	-0.06393399
147	0xbef5975a	-0.47967035
148	0xbd86b6f7	-0.065778665
149	0x3ccc591f	0.02494484
150	0xbdf9d09c	-0.12197992
151	0x3e1087ed	0.14114352
152	0x3dbd9fce	0.09258996
153	0xbde2f0d4	-0.110810906
154	0x3e61f7fd	0.22067256
155	0x3e5044e2	0.20338777
156	0x3e09819a	0.13428345
157	0x3d2b0662	0.041754134
158	0x3e4e5ee0	0.2015338
159	0xbe69022c	-0.22754735
160	0xbd08f61c	-0.033437833
161	0xbe8cf5a3	-0.27531156
162	0x3db980ca	0.09057768
163	0xbd17a95e	-0.037026756
164	0x3c961a91	0.018323215
165	0x3d2694d3	0.040669274
166	0x3d110431	0.035404388
167	0x3e82194c	0.25409925
168	0xbe6cd4bf	-0.23128031
169	0x3d3e18aa	0.04641024
170	0x3e1fcb5c	0.15604919
171	0x3b21d038	0.0024690758
172	0x3e44fe8b	0.19237725
173	0xbe92c803	-0.28668222
174	0xbdf535aa	-0.11973126
175	0xbe58c479	-0.21168698
176	0xbd6a2977	-0.05716845
177	0xbd86c473	-0.065804385
178	0xbe07d71c	-0.13265651
179	0xbbebb60b	-0.007193332
180	0xbe001a13	-0.12509947
181	0xbe3a1e29	-0.18175568
182	0xbd6e934f	-0.058245953
183	0x3d80fc9b	0.06298181
184	0xbdfaf126	-0.12253027
185	0xbddabf25	-0.10680989
186	0x3e0c3cad	0.13695021
187	0x3e49ebf2	0.19718912
188	0x3de7667a	0.11298843
189	0xbe789429	-0.24275269
190	0xbceca1da	-0.02888577
191	0xbec77121	-0.38953498
192	0xbe77746a	-0.24165502
193	0x3cd322b9	0.025773393
194	0x3e0d9061	0.13824607
195	0xbe5917f1	-0.21200539
196	0xbd69c1f2	-0.057069726
197	0xbe9c2abd	-0.30501357
198	0x3df39784	0.11894134
199	0x3da0ea5a	0.07857199
200	0xbdaf3d64	-0.08556631
201	0x3e5eb1a0	0.21747446
202	0xbe006fdf	-0.12542675
203	0xbdf439c6	-0.11925082
204	0xbe03cca3	-0.12871031
205	0x3e02f5ab	0.12789027
206	0xbe845d46	-0.25852412
207	0x3e733d09	0.23753752
208	0xbe78bd65	-0.24290998
209	0xbd7b4779	-0.06134746
210	0x3d72962d	0.05922525
211	0xbdfd8a54	-0.123798996
212	0xbd8daf16	-0.069181606
213	0xbe3d76d3	-0.18502359
214	0xbe3ed2f8	-0.18635166
215	0xbdb5d2f7	-0.08878129
216	0x3c967b92	0.01836947
217	0x3e9d1a34	0.30684054
218	0xbebc67be	-0.367979
219	0x3eafbc9d	0.34323588
220	0xbe10e721	-0.14150669
221	0x3dc8f838	0.09812969
222	0x3d185b1f	0.037196275
223	0xbe2ed64b	-0.17073934
224	0x3d100417	0.03516015
225	0x3d658388	0.05603364
226	0x3e8913a1	0.26772788
227	0x3e4e706d	0.20160075
228	0xbdf62fd5	-0.12020842
229	0x3da9c5ea	0.08289702
230	0x3e4ade2b	0.19811313
231	0x3e4fd137	0.20294653
232	0x3bd89c42	0.0066104243
233	0xbc44eace	-0.012018872
234	0xbd244a02	-0.04010964
235	0x3e2c27af	0.16812013
236	0xbd040404	-0.032230392
237	0xbdd4c03b	-0.103882276
238	0xbd9b0aa8	-0.07570392
239	0xbe4b4ded	-0.19853945
240	0x3e28f0b1	0.16498066
241	0xbb4f550d	-0.0031636388
242	0x3d04c761	0.032416705
243	0xbdcc9be1	-0.09990669
244	0xbdd84024	-0.10559109
245	0xbe727296	-0.23676524
246	0xbcf81b48	-0.030286446
247	0x3cbedcbd	0.023298616
248	0xbdde647f	-0.10859012
249	0xbe9042f7	-0.2817609
250	0x3ddbab06	0.107259795
251	0xbd4d2a41	-0.050089125
252	0x3e26cd6f	0.16289304
253	0x3d89e1d7	0.06732529
254	0x3dceff87	0.10107332
255	0x3d0c41cf	0.034242447

fallback.mp_gats.1.gat1.attn_l f4 [1, 8, 8]
0	0x3e90cdfa	0.28282148
1	0xbc8ae174	-0.016953208
2	0xbe0f7660	-0.1401
3	0xbd6680f2	-0.056275316
4	0xbed6eb8b	-0.4197658
5	0xbe30a18d	-0.17249127
6	0xbd9a2977	-0.0752744
7	0x3ead747c	0.33877933
8	0x3f3849ad	0.7198742
9	0xbe7ef382	-0.24897578
10	0x3d30e6f8	0.04318902
11	0x3e3097b7	0.17245375
12	0xbd1d809f	-0.03845274
13	0xbb27695d	-0.002554498
14	0x3e9608e3	0.29303655
15	0xbde43881	-0.1114359
16	0xbdf01fb1	-0.11724795
17	0x3cb1acf6	0.02168892
18	0x3bd1b4c5	0.0063997232
19	0xbdad9254	-0.084751755
20	0x3d462e99	0.048384283
21	0x3da95352	0.08267845
22	0x3ca6c50e	0.020357635
23	0x3c4eaee9	0.012614944
24	0xbe72e7c6	-0.23721227
25	0x3daab884	0.08335975
26	0xbca225a8	-0.019793347
27	0x3f0b0cd9	0.5431648
28	0xbb9eeb12	-0.0048498
29	0xbd0e262e	-0.03470438
30	0x3e14185d	0.14462419
31	0xbeb55417	-0.35415718
32	0x3e70bda9	0.2350985
33	0xbd488c01	-0.048961643
34	0xbe69cfa5	-0.22833116
35	0xbe62843c	-0.22120756
36	0x3e7cc078	0.24682796
37	0xbe1bd4ee	-0.15217945
38	0x3e9ece25	0.3101665
39	0x3db946a1	0.090466745
40	0xbe406ad4	-0.18790752
41	0x3e411efa	0.18859473
42	0xbdeafe62	-0.11474301
43	0xbedb33db	-0.42813
44	0x3de686a3	0.11256149
45	0x3db07f2a	0.086180046
46	0x3afaa6db	0.0019123213
47	0xbed7b5fe	-0.42131037
48	0x3e231722	0.15926793
49	0xbd2fe590	-0.042943537
50	0xbd5c3818	-0.053764433
51	0x3de54b3f	0.11195993
52	0x3e326702	0.17422107
53	0x3ec19c31	0.37814477
54	0xbeb0287f	-0.34405896
55	0x3e45e850	0.19326901
56	0x3d83d116	0.06436364
57	0xbe7dd3fa	-0.24787894
58	0x3e367814	0.17819244
59	0xbe547e9c	-0.20751423
60	0xbe24ed26	-0.1610609
61	0x3e8c02b5	0.27345815
62	0xbd018fff	-0.031631466
63	0x3e5eac30	0.21745372

fallback.mp_gats.1.gat1.attn_r f4 [1, 8, 8]
0	0x3dd791bb	0.10525843
1	0xbd2bad96	-0.04191359
2	0x3dee1660	0.116253614
3	0xbc6bc571	-0.014390335
4	0xbc026009	-0.007957467
5	0xbed4446b	-0.4145845
6	0x3ccae33f	0.024766563
7	0x3d817eee	0.06323038
8	0x3c8eb5f5	0.017420748
9	0xbe48a6f8	-0.19594944
10	0xbe37ba27	-0.17942105
11	0x3e4be0a1	0.19909908
12	0x3e8102fd	0.25197592
13	0xbe1fc81f	-0.15603684
14	0x3d1a3ced	0.03765576
15	0xbd52df69	-0.05148259
16	0x3d83f1f7	0.064426355
17	0x3e02ff56	0.12792715
18	0xbc0015c5	-0.00781769
19	0x3c1b9d40	0.009497941
20	0xbdafeae8	-0.08589727
21	0x3bf6d9e5	0.0075332993
22	0xbef055df	-0.46940514
23	0x3e6acb9e	0.22929236
24	0xbd7373c1	-0.059436563
25	0x3b4087e4	0.0029377872
26	0x3cd8c26a	0.026459891
27	0xbe17a0f8	-0.14807498
28	0xbd2e4b72	-0.04255242
29	0x3eadfb16	0.33980626
30	0x3bfd78a7	0.00773533
31	0xbdbba761	-0.09162784
32	0x3e4bf090	0.19915986
33	0x3d335794	0.043784693
34	0xbd407463	-0.046985995
35	0xbc0df2a8	-0.008663811
36	0xbb650a30	-0.00349487
37	0x3e0a4316	0.13502154
38	0xbdcbc8a6	-0.0995038
39	0xbd70a4e4	-0.058751002
40	0xbd866cae	-0.06563698
41	0x3e1f60a7	0.15564214
42	0xbe50348e	-0.20332548
43	0x3e3910e4	0.1807285
44	0x3e800db8	0.25010467
45	0x3c007206	0.007839685
46	0xbeb31b10	-0.34981585
47	0xbd4ab1ab	-0.049485844
48	0xbdfc4dbc	-0.12319514
49	0xbd01dbed	-0.03170388
50	0x3e2a59b7	0.16635786
51	0x3c010953	0.007875758
52	0x3d8bb24d	0.068211176
53	0x3ca10c90	0.01965931
54	0xbd8ced4d	-0.06881199
55	0xbda619e1	-0.08110405
56	0xbcc89638	-0.024485692
57	0xbe7b9865	-0.24569853
58	0x3e8f326a	0.2796815
59	0x3cbaf78a	0.022823114
60	0x3cd26b6a	0.025685985
61	0xbe2d00f2	-0.16894892
62	0x3dd82f9f	0.10555958
63	0x3ea57210	0.32313585

fallback.mp_gats.1.gat1.bias f4 [64]
0	0x3cf6858f	0.030092983
1	0x3c7e524e	0.015522553
2	0xbcd8f22f	-0.02648267
3	0x3be10c7f	0.0068679447
4	0x3d069e77	0.032865968
5	0xbc86049d	-0.016359622
6	0xbb9326f6	-0.0044907285
7	0x3beb005f	0.007171675
8	0x3c9b8bec	0.018987618
9	0x3c7803f8	0.015137665
10	0xbce0327b	-0.027367821
11	0xbcdf530f	-0.027261285
12	0x3cf5991f	0.02998024
13	0x3d0b4160	0.033997893
14	0xbc9f108d	-0.019417072
15	0xbbe4b806	-0.006979945
16	0x3d2dccd9	0.042431686
17	0xbcb13957	-0.021633787
18	0xbd10aa09	-0.03531841
19	0xbd540204	-0.051759735
20	0x3c52d511	0.012868182
21	0xbc851720	-0.016246378
22	0x3d3ec506	0.046574615
23	0x3d0986cb	0.033575814
24	0x3c47bc0d	0.012190831
25	0xbca459e7	-0.0200624
26	0x3d11840d	0.035526324
27	0xbcf66730	-0.0300785
28	0xbd182aa7	-0.03715005
29	0xbcac316b	-0.021019658
30	0x3bf12e1c	0.007360233
31	0x3ca153b3	0.019693231
32	0x3c378675	0.011201491
33	0x3d270395	0.0407749
34	0xbba48af2	-0.0050214464
35	0x3c7e407e	0.015518306
36	0xbca71ba1	-0.020398917
37	0xbd0d899d	-0.034555066
38	0xbcb8cec6	-0.022559535
39	0xbb3fe8d4	-0.0029283063
40	0x3aa8201e	0.0012826954
41	0x3cce01e0	0.025147378
42	0xbccdb904	-0.025112636
43	0xbcb9931c	-0.022653155
44	0x3d00fa9c	0.031489
45	0x3cb17b70	0.021665305
46	0xbb923276	-0.004461582
47	0xbcb90e41	-0.022589805
48	0x3b7edab0	0.0038887672
49	0xbc22f13d	-0.009945211
50	0xbca3de8e	-0.020003583
51	0xbc8ba419	-0.017046021
52	0xbc251c91	-0.010077612
53	0x3c6d659c	0.014489558
54	0xbb19aea1	-0.0023450034
55	0x3bb4da41	0.005519182
56	0x3d418bf7	0.04725262
57	0xbcdf60af	-0.027267782
58	0x3cf33fb0	0.029693455
59	0xbbefddb7	-0.0073201316
60	0x3b61e2b7	0.0034467408
61	0xbb6314fb	-0.0034649957
62	0xbc16778b	-0.009183775
63	0x3d3fed1b	0.04685698

fallback.mp_gats.1.gat1.fc.weight f4 [64, 64]
0	0x3e042e51	0.12908293
1	0x3e457bf5	0.19285567
2	0x3ce4745d	0.027887518
3	0x3e0fe541	0.14052297
4	0xbe40edb6	-0.1884068
5	0xbe1fc88f	-0.15603851
6	0x3cf2db03	0.029645449
7	0x3c3ae4e0	0.011407107
8	0xbd019526	-0.03163638
9	0xbe36407a	-0.17798033
10	0xbe0e6404	-0.1390534
11	0xbd8a7e17	-0.06762331
12	0xbe34197f	-0.17587851
13	0x3ea01ae7	0.31270525
14	0xbdf90ed8	-0.12161034
15	0x3b1f8938	0.0024343263
16	0xbd6f4114	-0.058411673
17	0x3d2f9d7d	0.042874802
18	0xbe47683e	-0.19473359
19	0x3e91cfab	0.2847875
20	0xbe328247	-0.1743251
21	0x3c174484	0.009232644
22	0xbd74e5f9	-0.05978963
23	0xbe0350d9	-0.1282381
24	0xbd80831d	-0.06275008
25	0x3dc94319	0.09827251
26	0x3d2c3381	0.042041305
27	0x3e20e09b	0.1571068
28	0xbe8ae4ac	-0.27127588
29	0x3dd83612	0.10557188
30	0xbe7fa038	-0.24963462
31	0x3c19ca6d	0.009386641
32	0x3dcf82e0	0.10132384
33	0xbe5531d8	-0.20819795
34	0xbaadaefb	-0.0013251001
35	0xbdb362d9	-0.08759088
36	0x3e62a058	0.22131479
37	0xbe175513	-0.14778547
38	0x3c20adba	0.009807045
39	0x3e40289d	0.18765493
40	0x3d60c811	0.0548783
41	0xbdb29a65	-0.08720855
42	0x3dd64d98	0.104640186
43	0xbdfb987e	-0.12284945
44	0xbd5e7e55	-0.0543197
45	0x3c18f791	0.009336368
46	0x3e9b8492	0.3037458
47	0x3d0b0993	0.033944678
48	0x3d15d9c6	0.036584638
49	0x3df531dd	0.11972401
50	0xbc1cf278	-0.009579293
51	0xbe249696	-0.16073069
52	0x3e3583e8	0.177261
53	0xbe4ce9cb	-0.2001106
54	0xbd0c018a	-0.034181155
55	0x3e144065	0.1447769
56	0x3ce565d4	0.028002657
57	0xbeb3d0c1	-0.35120204
58	0xbd2251db	-0.039628845
59	0x3e8fa84b	0.28058085
60	0xbec6c5f1	-0.38822892
61	0x3d7ee000	0.06222534
62	0xbddbde38	-0.10735744
63	0x3e92501a	0.28576738
64	0xbe2627ab	-0.1622607
65	0x3db5c6c2	0.08875801
66	0xbe017a25	-0.1264425
67	0x3e2ec754	0.17068225
68	0xbd9ce515	-0.076608814
69	0x3db91307	0.09036832
70	0x3d45dc14	0.048305586
71	0xbea1dbc5	-0.31612983
72	0xbea62535	-0.32450262
73	0x3d257fa9	0.04040495
74	0x3da452fb	0.0802364
75	0xbdc5ebe5	-0.09664134
76	0x3e462115	0.19348557
77	0x3e1d6db9	0.15373887
78	0xbdd09b48	-0.101858675
79	0x3cdbf6dc	0.02685111
80	0x3de74812	0.11293043
81	0x3c296947	0.0103400415
82	0xbdbfb68b	-0.09360989
83	0xbe1793db	-0.14802496
84	0xbde76ad3	-0.11299672
85	0x3dee8fc2	0.116485134
86	0x3e5cbd57	0.21556602
87	0xbcb44176	-0.02200387
88	0x3d6be781	0.057593826
89	0x3e70e9a9	0.23526634
90	0xbe1478b5	-0.14499171
91	0xbe04e8b9	-0.12979402
92	0xbdf4cd27	-0.11953192
93	0x3da1a39f	0.07892536
94	0x3d1b3a27	0.037897255
95	0x3dd4f75e	0.10398744
96	0xbdab08d9	-0.08351297
97	0xbe38db74	-0.18052465
98	0xbdc8a2dd	-0.09796689
99	0x3e155c2b	0.1458594
100	0x3e8672cc	0.26259458
101	0x3d4b3d63	0.04961909
102	0xbbab3ed8	-0.0052259974
103	0x3e168b25	0.14701517
104	0xbddae667	-0.10688477
105	0xbd9f6427	-0.077827744
106	0xbdfa5c97	-0.12224691
107	0x3e07b924	0.1325422
108	0x3e19c956	0.1501821
109	0xbd618127	-0.05505481
110	0xbd90231f	-0.07037949
111	0x3de5f629	0.11228592
112	0xbd61e18b	-0.055146735
113	0xbd13643d	-0.035984267
114	0xbdeeffe3	-0.116699
115	0x3e5ec2b7	0.21753965
116	0xbdc6fea8	-0.097165406
117	0xbbd5cccc	-0.006524658
118	0x3e8bc31b	0.2729729
119	0x3e25ab38	0.16178596
120	0x3daa5b3a	0.08318181
121	0x3e14466b	0.14479987
122	0xbcbd51b5	-0.02311025
123	0xbe7bf2c1	-0.24604322
124	0xbd91cd44	-0.071192294
125	0x3c9d6dc7	0.019217385
126	0x3dbb1ed1	0.09136737
127	0x3e0f5f02	0.14001086
128	0xbe29f8d1	-0.16598822
129	0x3e5eb278	0.21747768
130	0x3dc9b83e	0.098495945
131	0x3d4c9295	0.04994448
132	0xbe08f0b6	-0.13373074
133	0x3a7fca16	0.0009757591
134	0xbea2a134	-0.31763613
135	0x3ac9dda8	0.0015401142
136	0x3e24a091	0.16076876
137	0xbe877169	-0.26453713
138	0x3e3d2513	0.18471174
139	0x3c01952f	0.007909103
140	0x3d9b178b	0.0757285
141	0xbe6e1a85	-0.23252304
142	0xbcefac0c	-0.029256843
143	0xbe8f01bf	-0.2793102
144	0x3db232c6	0.087010905
145	0xbe330ed7	-0.1748613
146	0x3dea5bf1	0.11443318
147	0xbbf7df4d	-0.0075644613
148	0xbd8a7990	-0.067614675
149	0x3e2eaa91	0.17057253
150	0x3e7e7b47	0.24851714
151	0xbbb06ed6	-0.0053843064
152	0x3d83a410	0.06427777
153	0xbebad347	-0.36489317
154	0x3e8ba57d	0.27274695
155	0xbd3f5b8d	-0.04671817
156	0xbb1e2aee	-0.0024134475
157	0xbe89179b	-0.26775822
158	0x3ebf5a72	0.37373692
159	0x3e1d433d	0.1535768
160	0x3d20b8c9	0.039238725
161	0xbe0fb1aa	-0.14032617
162	0xbeb853dd	-0.36001483
163	0x3d0cc988	0.034371883
164	0xbce179d4	-0.027523912
165	0x3b2badff	0.002619624
166	0x3d80a868	0.06282121
167	0x3e26fb6a	0.16306844
168	0xbd89e33e	-0.06732796
169	0x3d277a34	0.040888026
170	0xbd035df5	-0.032072026
171	0xbd23ca52	-0.03998787
172	0xbe8102bd	-0.25197402
173	0x3d00e71c	0.031470403
174	0x3e39a176	0.18127999
175	0xbd1eeb2a	-0.03879849
176	0xbdec6e7d	-0.115445115
177	0xbdbbaba1	-0.09163595
178	0xbd792656	-0.060827576
179	0x3e98e5a6	0.29862708
180	0x3e76442d	0.24049444
181	0xbd6741ea	-0.056459345
182	0xbe24abfb	-0.1608123
183	0x3e912c7c	0.2835425
184	0xbca9ab1d	-0.020711476
185	0xbe134cd7	-0.14384781
186	0xbde25719	-0.11051769
187	0xbe3ccbcb	-0.18437116
188	0x3d12215a	0.035676338
189	0xbd1e8f07	-0.03871062
190	0x3e16b1b0	0.1471622
191	0xbde4cc7e	-0.11171816
192	0x3e7a7713	0.24459486
193	0x3e6278e9	0.22116436
194	0x3d1b01c2	0.037843473
195	0xbdcdfdf7	-0.100582056
196	0x3e17bc4a	0.1481792
197	0xbcf96e37	-0.030448062
198	0x3d47d8f3	0.048790883
199	0xbcf37d33	-0.029722786
200	0xbe8e5b53	-0.2780405
201	0xbd17d109	-0.037064586
202	0xbdb6f51e	-0.08933471
203	0xbdce17b5	-0.100631155
204	0x3ecc394f	0.39887473
205	0xbe6e5fd7	-0.23278747
206	0x3c1f7838	0.009733252
207	0xbe2cc6fd	-0.16872783
208	0x3dccc7e1	0.099990614
209	0xbdacb314	-0.08432594
210	0x3dd253e7	0.10269909
211	0xbdc76cff	-0.09737586
212	0xbe46fc92	-0.19432285
213	0xbda07748	-0.07835251
214	0xbcf36bbe	-0.029714461
215	0xbd32ff8d	-0.043700743
216	0x3d40dace	0.04708367
217	0xbdb07e81	-0.08617879
218	0xbe704d0c	-0.23466891
219	0x3de781ad	0.113040306
220	0xbe5e59bd	-0.2171392
221	0x3dcd0055	0.10009829
222	0x3da740f5	0.081666864
223	0xbe51c614	-0.20485717
224	0x3dcbbbf4	0.099479586
225	0xbe3118c1	-0.17294599
226	0xbe336417	-0.1751865
227	0x3e1a1d2a	0.15050188
228	0x3dbb01e3	0.09131219
229	0xbc962379	-0.018327462
230	0x3d8775fd	0.06614301
231	0xbe04a9e9	-0.1295544
232	0x3e24a6e3	0.16079287
233	0xbdcb99eb	-0.09941467
234	0xbe243bbb	-0.1603841
235	0x3d4f71a5	0.05064549
236	0x3e1396a3	0.14412932
237	0x3e98efe0	0.2987051
238	0x3e308d4b	0.17241399
239	0x3e5bc32c	0.21461171
240	0xbcaed68d	-0.02134254
241	0xbd4a6fe8	-0.04942313
242	0xbe2e0c26	-0.16996822
243	0x3db1ee1f	0.08687996
244	0xbc5b51e9	-0.013386228
245	0xbd531ab9	-0.051539157
246	0x3d5ed906	0.05440619
247	0x3ea2ffeb	0.31835875
248	0xbe788828	-0.2427069
249	0x3e1b2595	0.15151055
250	0x3deeb4f7	0.1165561
251	0x3d90f07d	0.070771195
252	0x3db91763	0.09037664
253	0xbda477e2	-0.08030678
254	0xbec0f956	-0.37690228
255	0xbc672b10	-0.014109388

fallback.mp_gats.1.gat2.attn_l f4 [1, 1, 64]
0	0x3c865895	0.016399661
1	0x3de513b9	0.111854024
2	0xbe6b4617	-0.22975956
3	0x3b2bae71	0.0026196504
4	0x3b507b43	0.003181175
5	0x3e3120f2	0.17297724
6	0x3de3929c	0.11111948
7	0x3b5d8d0e	0.0033806
8	0xbb00c075	-0.0019645963
9	0xbe3f5ffb	-0.18688957
10	0xbc8705b6	-0.016482215
11	0xbc2d880d	-0.010591519
12	0xbdd1c15c	-0.102419585
13	0xbde12c09	-0.10994727
14	0xbdf92ef7	-0.12167161
15	0x3e2f26ef	0.17104696
16	0x3db68536	0.08912127
17	0xbe10dcca	-0.14146724
18	0x3d8a7195	0.06759945
19	0x3ea1b5ae	0.31583923
20	0x3d7dd343	0.061969053
21	0xbb058183	-0.0020371384
22	0xbcf8efc5	-0.030387769
23	0xbc2fe1d7	-0.010734997
24	0xba1714b3	-0.00057632773
25	0xbe260e60	-0.16216421
26	0x3dac9102	0.084260955
27	0x3e6ef372	0.23335055
28	0xbddcd495	-0.10782734
29	0xbbf06f26	-0.0073374687
30	0x3b8a47ed	0.00422
31	0x3e0b1b29	0.1358458
32	0xbe4eaa5d	-0.20182176
33	0xbd1450f9	-0.036210034
34	0xbdc482f9	-0.095952936
35	0xbb97b7c5	-0.0046300613
36	0xbe9e8077	-0.30957386
37	0xbd796458	-0.06088671
38	0x3e176027	0.14782773
39	0x3d68f525	0.056874413
40	0xbe8e06db	-0.27739605
41	0xbca85d6a	-0.020552356
42	0xbdce1c6e	-0.10064016
43	0x3c04a8bd	0.008096871
44	0x3e802a24	0.2503215
45	0x3dc90400	0.09815216
46	0xbdb9cfde	-0.09072851
47	0x3e498c5a	0.19682446
48	0xbbd86bfc	-0.0066046696
49	0x3e1cbade	0.15305659
50	0xbc2482c2	-0.010040941
51	0xbd2c562d	-0.04207437
52	0xbdd2f64b	-0.10300883
53	0xbe658baa	-0.22416559
54	0xbe3c2e43	-0.18377022
55	0xbd8009d8	-0.062518775
56	0x3cc88e31	0.024481865
57	0x3c609c11	0.013709084
58	0x3ce0c98e	0.027439859
59	0xbc909feb	-0.01765438
60	0xbea6f2df	-0.3260717
61	0x3baa4707	0.0051964554
62	0xbc0c9891	-0.008581297
63	0x3defecd9	0.11715097

fallback.mp_gats.1.gat2.attn_r f4 [1, 1, 64]
0	0xbabf5663	-0.0014597889
1	0xbb587807	-0.0033030526
2	0x3e67043d	0.2256021
3	0x3dded006	0.10879521
4	0x3cd7eb90	0.026357442
5	0xbae427e2	-0.0017406906
6	0x3c811387	0.015756382
7	0xbb913acc	-0.004432058
8	0xbbf905ff	-0.0075995917
9	0x3b9a2e6e	0.004705242
10	0x3e22134e	0.15827677
11	0x3d30839a	0.043094255
12	0x3d21d371	0.039508287
13	0xbb54e1a1	-0.0032483118
14	0x3bd2c06a	0.006431629
15	0xbd0efc10	-0.034908354
16	0x3ad7c353	0.0016461409
17	0xbbe6a0c0	-0.007038206
18	0x3c817cae	0.015806522
19	0xbb78f636	-0.003798855
20	0x393cf526	0.00018020402
21	0x3d795b1a	0.060877897
22	0x3abeec86	0.0014566339
23	0xbc6e4a72	-0.014544116
24	0x3bc06b08	0.005872134
25	0xbd44bf89	-0.048034225
26	0xbc7086d3	-0.014680582
27	0xbd362c6b	-0.044475954
28	0x3c64a40e	0.013955129
29	0x3c6706a4	0.014100704
30	0x3e719e79	0.23595609
31	0x3c06c29e	0.008225111
32	0x3d71d3ac	0.059039757
33	0xbb4683af	-0.0030290892
34	0x3e3326a7	0.17495213
35	0x3d77afec	0.060470507
36	0x3d3a54b9	0.045490954
37	0x3d153db1	0.036435787
38	0xbe07bdae	-0.13255951
39	0xbe4112a2	-0.18854764
40	0xbc1880e3	-0.009308073
41	0xbe017a1a	-0.12644234
42	0xbc034abf	-0.008013426
43	0xbe4073ac	-0.18794125
44	0x3e6653aa	0.22492853
45	0x3c0dd483	0.008656624
46	0x3b969d3d	0.004596381
47	0x3e82116e	0.25403923
48	0xbb8e0a91	-0.0043347557
49	0xbe2b478d	-0.16726513
50	0x3e6bd278	0.23029506
51	0x3dfc6d0c	0.123254865
52	0x3d212b9b	0.039348226
53	0x3e5c0253	0.21485262
54	0x3b14ef57	0.0022725665
55	0xbac75939	-0.0015209086
56	0x3e471806	0.19442758
57	0xba947484	-0.0011326228
58	0x3d1852d1	0.037188355
59	0xbc31cd18	-0.010852121
60	0x3e06d5ae	0.1316745
61	0x3a2f9957	0.00066985696
62	0xbe1e7a2e	-0.15476295
63	0x3c4d9797	0.012548349

fallback.mp_gats.1.gat2.bias f4 [64]
0	0x3d04f1f8	0.032457322
1	0xbc5a3d5a	-0.013320291
2	0xbccdba22	-0.02511317
3	0x3c9128cb	0.017719647
4	0x3c6930f7	0.014232866
5	0x3ca21520	0.019785464
6	0xbd533e61	-0.05157316
7	0xbc00c9ed	-0.007860643
8	0xbd3dca1d	-0.04633533
9	0xbc27cb6a	-0.010241369
10	0x3cc933dc	0.024560861
11	0xbd3b0f53	-0.04566891
12	0xbd44ce0f	-0.048048075
13	0x3d3b69bd	0.045755137
14	0xb89b635b	-7.409482e-05
15	0x3c83da0d	0.016095186
16	0x3ba36bb2	0.0049872035
17	0xbd1fe786	-0.039039157
18	0x3ca746d5	0.020419518
19	0xbc9aa257	-0.018876238
20	0xbd072449	-0.03299359
21	0xbc511616	-0.012761613
22	0xbbfbda35	-0.0076859244
23	0xbccb69dd	-0.024830753
24	0x3d5d8e5d	0.054090846
25	0xbce6804a	-0.028137345
26	0xbcea6462	-0.02861232
27	0x3c62fe16	0.013854524
28	0x3c161154	0.009159405
29	0xbcf0825e	-0.029359039
30	0x3d4e760b	0.050405543
31	0x3bb06d50	0.005384125
32	0x3cef5596	0.029215615
33	0x3cacfbbe	0.021116134
34	0xbcb80ff9	-0.022468554
35	0xbc2b02c9	-0.010437676
36	0xbd0987fd	-0.033576954
37	0xbc0a9e90	-0.008460656
38	0x3c812ecf	0.01576939
39	0xbc2b1c59	-0.01044377
40	0x3d219641	0.039449934
41	0x3c92b283	0.017907387
42	0xbc9ed040	-0.01938641
43	0xbbe2f157	-0.0069257426
44	0xbcbfc237	-0.023408039
45	0x3d61e666	0.055151366
46	0x3ca050ff	0.019569872
47	0xbb81dcbc	-0.003963081
48	0xbce94861	-0.028476896
49	0xbc427a18	-0.01186993
50	0x3ce6303c	0.028099172
51	0x3c6aad49	0.014323541
52	0xbd336b19	-0.04380331
53	0x3d149018	0.03627023
54	0x3d235b6e	0.039882116
55	0xbbeee098	-0.0072899573
56	0x3d04d4bb	0.032429438
57	0xbc2033ef	-0.009778007
58	0xbd26264d	-0.04056387
59	0xbcdc08fd	-0.026859755
60	0x3bb33376	0.005468781
61	0xbbfc3cbc	-0.00769767
62	0x3cfdd59e	0.03098565
63	0xbd305ccf	-0.04305726
