benchmark/HAN/checkpoint/rep2.pt (torch, 555468 bytes, 21 tensors)

fallback.proj.0.weight f4 [64, 1870]
000000 c5 da 60 bc 2a 31 e5 bc 9b fc 37 3c 1d 89 1b bd
       -0.013724034 -0.027977545 0.011229659 -0.03797256
000010 14 98 44 bd 26 13 0a bd 78 77 2b bd 24 ce e7 bc
       -0.047996596 -0.033709668 -0.04186198 -0.028296538
000020 00 aa 8d bd 3e 6a 70 bb 1d b3 1c bd 75 33 22 3c
       -0.069171906 -0.003668442 -0.038256753 0.009899964
000030 c2 d4 00 bd 7a 6c 04 3d 9c 7a 31 bd 47 1d 42 3b
       -0.0314529 0.032330014 -0.04332982 0.0029619501
000040 d8 64 20 bb c8 73 48 bd 1b 58 af 3c e3 20 b5 3c
       -0.002447417 -0.048938543 0.021404317 0.022110408
000050 ac c1 a3 bc 31 db 05 3b b5 9d 96 bc 6d e1 aa 3c
       -0.01998981 0.0020424838 -0.018385747 0.020859445
000060 99 b7 56 3d 0c 7c 1d 3d 43 95 15 bd 40 04 12 bd
       0.052421186 0.03844838 -0.0365193 -0.035648584
000070 b2 0f 9e bc f8 a7 82 ba cb 95 e2 bc df 9d 38 3c
       -0.019294593 -0.0009968271 -0.027659317 0.011268108
000080 23 8a 7d bc 51 70 94 3b b8 54 b0 bb 19 15 5a bc
       -0.015474829 0.0045299907 -0.005381193 -0.013310694
000090 7d 84 19 bd 9e 13 a5 bb 3e be b5 bc d3 3c 96 bc
       -0.037479866 -0.005037739 -0.022185441 -0.01833955
0000a0 b8 35 87 3c bb f4 0e 3b a3 f6 9f bc 2a cf 2b 3c
       0.016505107 0.0021813351 -0.019526785 0.0104864035
0000b0 25 9c ec 3a 36 6a 85 bc 0e d2 12 3d d2 8c 96 bc
       0.0018051906 -0.016285997 0.035844855 -0.018377695
0000c0 f7 42 9b ba 14 e3 36 3b 1c d2 05 3d c3 46 9d bb
       -0.0011845519 0.0027906345 0.03267108 -0.004799695
0000d0 7c da 4e bd f4 80 b9 bb 5f 60 0f 3d 3e f7 32 3d
       -0.05050133 -0.0056611244 0.035004016 0.04369282
0000e0 6c 7c b7 bb 77 d9 dd 3c d8 d1 22 bc 42 f9 27 bd
       -0.005599549 0.027081234 -0.009937726 -0.041009195
0000f0 68 7c db bb d5 7d 1e bd bd 41 1d 3c 08 a6 7c bc
       -0.00669818 -0.03869422 0.009598193 -0.015420444
000100 b9 c5 9b 3c 53 6b 3b 3b 5d 8e 5f bc 33 17 0d bd
       0.01901518 0.0028597906 -0.013644782 -0.034445953
000110 04 c5 95 3c 6c 3b fd 3b ac 85 04 bd ac 6b 17 bc
       0.018282421 0.007728031 -0.032354042 -0.00924198
000120 ed 6b 26 3c 7c f8 0f bd f5 00 85 3c 5a d5 43 3b
       0.010157567 -0.035149083 0.016235808 0.0029881806
000130 7f 63 f9 3c 7b f2 c5 bc fc 36 59 bc c5 1a 6d 3c
       0.030442951 -0.024163475 -0.013257738 0.014471714
000140 63 65 0d 3c ad d6 fd bc 35 45 1e 3b e0 72 e5 3c
       0.0086301295 -0.030986154 0.0024150137 0.028008878
000150 7f ec 3a 3d 3f 82 a6 bb 16 f4 23 3c b8 f7 72 3c
       0.045635697 -0.0050814445 0.010006925 0.014829569
000160 10 f0 b6 bc 1e 78 6f bd 45 27 70 bd 9f 52 57 bc
       -0.022331268 -0.058464162 -0.0586312 -0.013142257
000170 33 80 32 3c 0b e9 00 bd f0 4c c4 bc f2 a1 e0 bc
       0.010894823 -0.031472247 -0.023962468 -0.027420972
000180 69 2c 30 bd 51 75 6e 3a 85 e3 b1 bc 6e 40 9f bc
       -0.043011103 0.0009096461 -0.021714935 -0.019439902
000190 a2 d9 5c 3b f7 65 10 bd d1 8e 87 bc 4d da 63 3a
       0.0033699055 -0.03525349 -0.016547592 0.0008691892
0001a0 97 ce b0 3b a2 77 0f bd 4c e5 0f bd 2c ad 47 3c
       0.005395721 -0.0350262 -0.035130784 0.0121872835
0001b0 64 2c dd 3b e6 b3 c3 bb c6 a5 d4 3b b4 fb 68 3b
       0.0067496765 -0.0059723733 0.0064894883 0.0035550417
0001c0 6f 0a 17 bd 06 28 08 bc aa 12 b3 bc 7c 63 c8 bc
       -0.036875185 -0.008310324 -0.021859486 -0.0244615
0001d0 bf 87 27 bc 74 ba e0 3a a4 c2 88 3c 93 7c c4 3c
       -0.0102252355 0.0017145411 0.016694374 0.023985183
0001e0 06 c5 97 3b 17 18 20 bd 1b a1 97 bb 53 9b ae 3c
       0.0046316413 -0.039085474 -0.0046273596 0.021314299
0001f0 79 65 7c bc 3b 8f 1e bc 9c a5 62 bd 23 44 99 3c
       -0.015405052 -0.0096777035 -0.05533372 0.018709248
000200 52 05 1d bd fd 57 80 bc 2e 3e 8b 3c c1 d5 31 3c
       -0.038335152 -0.015666956 0.016997423 0.010854186
000210 38 8b 11 3d 25 3f 55 bc a3 cd 69 bc d4 c8 cc bc
       0.03553316 -0.013015543 -0.014270219 -0.024998106
000220 6b fb 9c bb af b3 ae 3a 03 55 53 3c 85 c9 04 bc
       -0.0047907135 0.0013328696 0.012898686 -0.008104687
000230 d8 1d ae bc 30 60 de bc b4 bc 94 bc ab f5 27 3c
       -0.021254465 -0.027145475 -0.018156387 0.010251443
000240 ed 60 c4 bc 0d e6 ba bc c6 cb aa ba 87 1d 31 bd
       -0.023971999 -0.022814775 -0.00130307 -0.04324105
000250 3d 23 19 3c 67 e8 0a bd 39 23 8b 3c bb dc 1a 3d
       0.00934678 -0.033913042 0.016984569 0.03780816
000260 1c 67 84 bd bd 5b 28 bc 78 fc 49 bc 91 48 95 3c
       -0.06464979 -0.010275778 -0.01232826 0.018223079
000270 9a 96 15 bd 10 2b 19 bc 14 13 55 3c 0e 7b 68 bc
       -0.036520578 -0.009348646 0.013005037 -0.014189495
000280 12 74 91 3c 73 4d 12 bd 6e cc 8c bc 18 e2 5f bc
       0.017755542 -0.035718393 -0.017187323 -0.013664745
000290 85 0e ac bc 52 ff 9d 3b e8 3f 2b bd 19 1a 3c 3c
       -0.021003017 0.0048216963 -0.041808993 0.011480832
0002a0 29 22 6b 3c ec c8 b1 ba 78 5a ed bb 61 4b 21 bb
       0.014351406 -0.0013563908 -0.0072434507 -0.002461158
0002b0 17 80 51 bd 75 b0 f3 bc 16 fd 4a bb ff c1 25 bd
       -0.051147547 -0.029747227 -0.0030973605 -0.040468212
0002c0 bb 3f 41 bd 08 38 e7 3b 49 da d1 3c aa 2e 93 3c
       -0.04717992 0.00705624 0.025616782 0.017966587
0002d0 f7 83 d3 bc d6 8f c1 bc e6 2d 55 3b 67 08 18 3d
       -0.025819762 -0.023628157 0.0032528578 0.037117388
0002e0 08 a0 69 bd 8a e5 e7 ba 36 d7 2a 3c b5 0d 69 3b
       -0.057037383 -0.0017692309 0.010427287 0.0035561149
0002f0 35 35 0d bd 6e 2e 8b bc 16 4e c7 3c e3 f5 fd bb
       -0.03447457 -0.016989913 0.024329226 -0.0077502592
000300 ec f1 13 bd ae fa 4c 3b f6 54 13 3d 2c cf c9 bb
       -0.036119387 0.0031277346 0.035969697 -0.00615873
000310 80 dc 1c bd b8 0d 15 bd e2 24 c8 bb af 21 00 3b
       -0.038296223 -0.036390036 -0.0061079124 0.0019551327
000320 bb b1 e9 bb 0f 55 1b bd 64 7a 8c bc bf e5 aa 3c
       -0.007131783 -0.037922915 -0.017148204 0.020861505
000330 41 cf 18 bc 6b 3d bc bc 84 fc 96 3c 6f 59 b7 bc
       -0.009326757 -0.022978505 0.018430956 -0.022381512
000340 65 b3 03 bd bc 00 81 bd 56 44 fd 3c ab 50 3e 3d
       -0.032153506 -0.06298968 0.030916374 0.04646365
000350 22 21 ca bb 29 63 dd 3c 03 be 84 bd 09 59 da 3c
       -0.0061685005 0.027024822 -0.06481554 0.026653783
000360 69 b1 b9 3b b7 e2 46 3a 9e c7 23 bc bc 9e a4 3c
       0.005666901 0.0007586884 -0.009996323 0.020095222
000370 65 72 6a ba b1 9c f7 3b 68 08 20 3c c8 4d da 3c
       -0.0008943438 0.007556521 0.009767629 0.026648417
000380 10 3b 38 3c 04 14 68 3d ad d3 7c 3c cb 89 b1 bc
       0.01124455 0.056659713 0.015431327 -0.02167215
000390 dd 1d a0 3c fe 48 05 3d fc 9a 6f 3c e9 d6 85 3c
       0.01954549 0.032540314 0.0146243535 0.016337829
0003a0 60 3b 96 bc dc da 59 3c 1e fd 88 3c 67 ec bc 3c
       -0.01833886 0.013296809 0.016722258 0.023061944
0003b0 b4 f9 64 3c 0d 2e fa 3c 7d 21 65 3c 15 9e 11 3d
       0.0139755495 0.030539537 0.013985035 0.03555115
0003c0 0c b4 01 3d 25 9f 11 bd ae 38 ef 39 94 88 ff 3b
       0.031665847 -0.035552163 0.00045627862 0.007798264
0003d0 dd 49 26 bd 74 b2 db 3c e0 f8 92 bc f2 3f 02 bd
       -0.040597785 0.026818492 -0.017940938 -0.031799264
0003e0 46 a1 95 3b bc 71 b9 bc aa 58 f8 3a 94 5b 70 3c
       0.0045663444 -0.02263724 0.0018947322 0.014670271
0003f0 68 e2 8b 3c 95 d0 03 bc cd c6 b3 3c 14 30 43 bc
       0.017075732 -0.008045335 0.021945382 -0.011913318

fallback.proj.0.bias f4 [64]
000000 a9 c5 02 bd cf d1 28 bd ba 27 07 bd bb 05 06 bd
       -0.031926785 -0.041215714 -0.03299687 -0.03272031
000010 10 e5 1b 3c 04 c6 9b bc d6 b3 f2 3b 30 32 1c 3d
       0.009515062 -0.01901532 0.007406692 0.0381338
000020 5c 95 46 3c 38 c3 8c bc f1 c2 fc 3b 59 04 43 3d
       0.012120571 -0.017182931 0.0077136685 0.047611568
000030 39 d1 28 3d 5d af 04 3d 07 cd d5 bc 28 83 1b bd
       0.041215155 0.032393802 -0.026098741 -0.037966877
000040 18 fd 14 3c 8e ce 90 bc 9c c8 60 bb 97 4b 0a bd
       0.009093545 -0.017676618 -0.003429926 -0.033763494
000050 10 03 e0 3c f8 00 af 3c 10 02 5f bd 7e 07 16 3d
       0.02734521 0.021362767 -0.054445326 0.03662824
000060 7e f9 bf 3c d3 37 bb bc 82 37 3d 3c 17 68 2b 3c
       0.023434397 -0.022853767 0.011548879 0.010461829
000070 5d 56 28 bd 57 5e 8c bc 03 7f 6f bb b6 c8 18 bc
       -0.041097987 -0.017134828 -0.003654421 -0.009325197
000080 b4 ed 19 3c 76 f5 b7 bc da d2 04 3a bf fb 8b 3c
       0.009395052 -0.022455912 0.000506682 0.017087815
000090 dd f8 a6 3c 4e 06 85 3c 43 92 74 bd ae ab 62 3d
       0.02038234 0.016238358 -0.0597098 0.055339508
0000a0 52 28 58 bc 20 c8 b4 3c 70 7a 19 bc 00 98 18 3b
       -0.013193207 0.022068083 -0.00936757 0.0023283958
0000b0 21 a2 e9 bc dc e3 2d 3d c6 da a4 bb b1 c9 09 3d
       -0.028519692 0.04245363 -0.0050309626 0.033639614
0000c0 cf b0 14 3c 0f 10 a0 39 96 26 88 bc 60 47 ba 3b
       0.009075358 0.00030529543 -0.016619962 0.005684778
0000d0 13 87 6c 3c 57 52 c1 3a 9f 6b ac 3b 0a 9c ab 3b
       0.014436501 0.0014749271 0.005261853 0.005237107
0000e0 1b 5c 9b 3d 46 f9 b2 bc 01 8a 23 3c 3d a6 4e 3b
       0.07585927 -0.021847378 0.009981633 0.0031532191
0000f0 96 c2 fa bc 1c e4 a3 3c 58 99 aa 3b 3b 6b f5 bc
       -0.030610364 0.020006232 0.0052062683 -0.029958358

fallback.mp_gats.0.gat1.attn_l f4 [1, 8, 8]
000000 6c 86 a0 3e a8 53 1e bd 15 da 14 be 54 60 13 bf
       0.31352556 -0.038654 -0.14536317 -0.5756886
000010 6e 2d 15 3d a0 80 75 3e 39 4d 68 be b1 94 a5 3b
       0.03642028 0.23974848 -0.22685708 0.005053126
000020 7c da fa 3d 09 60 df bd 1c 1d 71 3d 4a 4f cb 3c
       0.12248704 -0.10906989 0.05886565 0.024818081
000030 1b b7 11 3f 98 b8 c0 bc 57 1a 3f 3e ef 64 35 3e
       0.5692002 -0.023525521 0.18662392 0.17714284
000040 e7 9f 4f 3c 76 80 17 3e 7f 2d 1d 3b 0d ee 52 bd
       0.012672401 0.14795098 0.0023983417 -0.051496554
000050 3a b1 69 be de 5d aa bd d9 23 11 be aa 24 c8 bd
       -0.22821513 -0.08318685 -0.14173831 -0.09772618
000060 7f 8d ee 3e b6 7e 04 3d a5 7b 18 be f0 db 3c be
       0.46592328 0.032347403 -0.14890917 -0.18443274
000070 a1 93 70 3e 3e 81 08 bc 92 8a da be 31 10 4b be
       0.23493816 -0.008331595 -0.42683846 -0.19830395
000080 af 4c a8 3e 37 43 6b 3e 9c 04 f9 bd 1b 05 59 be
       0.32871005 0.22974859 -0.12159082 -0.21193354
000090 b6 f2 cc be e6 cd ca be 73 cb 88 3e 89 2e a3 3d
       -0.40028924 -0.39610213 0.2671772 0.0796786
0000a0 02 39 fd be fd 80 f1 3c 5c 29 4b bd ff ec be be
       -0.49457556 0.029480452 -0.04959999 -0.3729019
0000b0 20 c2 85 be d0 76 c3 3e 44 0f 03 be b5 e6 3e bd
       -0.26124668 0.38176584 -0.12798792 -0.046606738
0000c0 ec e7 27 be 6d 1e cf 3d 93 b5 d1 3e 41 32 26 bd
       -0.16397065 0.10113225 0.40958843 -0.04057527
0000d0 01 0b 23 3d df 5c 58 3d d4 a3 c2 3c 69 bc 92 3e
       0.039805416 0.052822944 0.02375976 0.2865937
0000e0 83 33 be bd 6f bf 8a 3e 3a f1 c6 bd 89 9e 85 be
       -0.09287169 0.27099177 -0.09713979 -0.26097515
0000f0 bc be b0 bd ce 43 e0 bd a6 a6 fc bd 01 78 06 be
       -0.0863013 -0.10950433 -0.12336473 -0.13131715

fallback.mp_gats.0.gat1.attn_r f4 [1, 8, 8]
000000 b0 30 94 be c6 95 d9 bc 96 96 93 3e c2 c1 37 3e
       -0.28943396 -0.026560675 0.28825825 0.17945006
000010 69 7f 9e be ec 76 57 3e e0 d6 b7 3d 2c 51 91 bd
       -0.3095658 0.21041459 0.08976531 -0.070955604
000020 55 6c dd bd f9 3f bf bc 17 70 d2 3d cc 94 22 3e
       -0.10811678 -0.023345934 0.10275286 0.15877074
000030 b4 20 37 3d 52 4e 93 bd 33 fd 7c 3d c1 ff 01 3d
       0.044708923 -0.07192673 0.061764907 0.031738047
000040 8d a2 7a 3d 62 fd 2c 3d 77 c5 70 be 16 9b 9b bd
       0.061190177 0.042233832 -0.23512827 -0.0759794
000050 4c 74 5b 3b d4 42 03 3e 70 33 e0 bd b2 1a 3e be
       0.0033486066 0.12818462 -0.10947311 -0.18564871
000060 14 35 a3 bd 64 c7 ea 3d 7a 6e 6c be 9d 0c 89 3c
       -0.07969108 0.11463812 -0.23089018 0.016729647
000070 85 f4 4d be e5 a0 34 3d 36 29 b9 3e 87 83 65 3e
       -0.20112808 0.044098753 0.36164254 0.22413455
000080 ae 9a 4c bd 97 e7 9e 3d 3e 61 58 bd e3 2f 08 3e
       -0.0499522 0.07759016 -0.052827112 0.13299517
000090 47 11 0a bf ea 53 2d bf 99 ce de bd e0 43 8c 3e
       -0.53932613 -0.6770617 -0.10879249 0.27395535
0000a0 61 49 75 bc be 9c 4e bd 70 d8 04 3d 76 67 3c be
       -0.014971108 -0.05044245 0.032432973 -0.18398842
0000b0 69 ee 30 bd f7 a8 d9 3d 5b a5 59 bd 28 47 40 3e
       -0.043196116 0.106279306 -0.05313621 0.18777144
0000c0 f4 f7 ae 3c ee d4 4a be bf 59 bd 3d 23 5b 49 3c
       0.021358468 -0.19807789 0.09245633 0.012289795
0000d0 14 ce a1 3d 70 5c de 3d bb d0 12 bd 34 eb a1 3d
       0.079006344 0.10857475 -0.035843592 0.079061896
0000e0 33 14 cb 3d 44 64 a0 3e 86 d1 b6 bd d2 f0 2b 3e
       0.09915962 0.31326497 -0.08926682 0.16791084
0000f0 89 51 0c 3c 69 e0 f2 bb 51 60 06 3f 3c ee c9 bd
       0.008564361 -0.0074120057 0.5249072 -0.09859893

fallback.mp_gats.0.gat1.bias f4 [64]
000000 d6 a0 32 3d 62 5b 6a bd 97 0f 27 bb 7e 57 9c 3b
       0.043610416 -0.057216056 -0.002549147 0.004771172
000010 8e bb a1 bc b5 3a cc 3c 71 63 ae 3c ea 39 bf 3c
       -0.019742753 0.024930337 0.021287652 0.023343045
000020 98 6d 0c bc 7f 63 8f 3c b6 06 9d bc eb 0a e9 3c
       -0.008571051 0.017503498 -0.01916824 0.028447589
000030 12 0a 24 3d 3e 2f 18 3a 18 9e a8 bc 20 37 f6 bc
       0.040048666 0.00058053795 -0.020583197 -0.030055583
000040 65 d8 f9 bc 86 06 af bb c2 29 a4 bc c7 3f 9e ba
       -0.030498693 -0.005341354 -0.020039443 -0.001207345
000050 18 c6 e6 3b 73 be 2e bc 3e 9c ca bc 7d 64 72 3d
       0.0070426576 -0.010665524 -0.024732705 0.059177864
000060 27 c1 cf 3c b4 78 1a 3d f9 3f e5 3c 88 ea 22 3d
       0.025360657 0.037712768 0.027984606 0.039774448
000070 6b 37 97 bb 37 7b 0a 3c fa 93 93 bc 01 ad a0 3c
       -0.0046147606 0.008452228 -0.018014897 0.019613745
000080 77 72 75 3c a1 e3 42 3d b2 ca 26 bd ad de fd ba
       0.014980904 0.047580365 -0.04072065 -0.0019368731
000090 27 e1 8d bc e1 b7 15 3d 79 6a a0 bb d7 d2 26 3d
       -0.017319275 0.036552314 -0.004895505 0.040728416
0000a0 b0 b5 05 3d 33 c7 6f bc ab b8 8b 3c 00 df de 3c
       0.032643974 -0.014634895 0.01705583 0.027205944
0000b0 4e 6e d0 bb 5c 0d 8f bc d2 a9 d6 3c f2 5b 11 bc
       -0.0063608056 -0.017462425 0.026204024 -0.008872019
0000c0 85 fa 03 3d 3d ce 30 bd fb 6c 6a 3d 53 1b 57 bd
       0.032221336 -0.043165434 0.057232838 -0.052516293
0000d0 49 97 07 bd d3 3b 0e bc c7 e5 cc ba 88 e7 67 bd
       -0.03310326 -0.008681255 -0.0015632444 -0.05661729
0000e0 50 09 04 3d 12 07 2c bd 25 e9 4d 3d d6 96 bf 3c
       0.032235444 -0.04199893 0.050271172 0.023387354
0000f0 27 84 ea bc 4f 3c b0 bc ad 3c 75 3d af 3b 2f bd
       -0.028627468 -0.021513132 0.059872318 -0.042781528

fallback.mp_gats.0.gat1.fc.weight f4 [64, 64]
000000 08 78 63 be 61 2a 33 3d f2 a6 bd 3e 67 3f 8b 3d
       -0.22213757 0.043741588 0.37041432 0.067992024
000010 4e b9 18 bd 74 11 96 3e 09 55 28 3c 1f f2 b6 bc
       -0.037286095 0.2931019 0.01027418 -0.02233225
000020 8f cd ad 3d 05 07 00 3e 41 c3 10 be 48 f8 29 be
       0.08486473 0.12502678 -0.14136983 -0.16598618
000030 c0 6d b6 bb 6c 30 b5 3d 51 71 b9 bd 83 ff d1 bd
       -0.0055672824 0.08847126 -0.090548165 -0.10253813
000040 c1 47 47 bd 21 22 d9 3b 01 4d b2 3c 28 2b 34 3d
       -0.048652414 0.006626383 0.021765234 0.04398647
000050 bf 89 16 be 7c 9d e8 3d 31 52 8c bd 93 d4 4c be
       -0.14700983 0.11358163 -0.06851614 -0.20002966
000060 df fb e3 3e 97 c2 6f bd a4 e7 eb bd 5f 04 8c be
       0.445281 -0.058535185 -0.11518791 -0.27347085
000070 af f5 54 3c 2e 3c 39 be 5a e8 06 be b6 8f c1 bd
       0.012998029 -0.18089363 -0.13174573 -0.09451239
000080 7c 9f 1e bd b2 e1 28 be 81 9b 97 bd cf cb b2 be
       -0.038726315 -0.16492346 -0.07402707 -0.3492112
000090 ef ad 66 3e f5 4b 97 3c 5c e9 53 be 27 8d e3 bc
       0.22527288 0.018468836 -0.20694488 -0.027777268
0000a0 78 2b dd 3d 28 5c 1f bd 32 d6 84 be f9 65 80 be
       0.10799307 -0.038906246 -0.25944668 -0.250778
0000b0 00 39 1e bc 0d 3a 81 be 87 a6 8d be 2b a0 42 be
       -0.009657145 -0.25239602 -0.27666113 -0.19006412
0000c0 a3 f0 94 3e 46 c3 96 be da 97 fc bd a4 cf be 3d
       0.2908984 -0.29445857 -0.12333651 0.09316948
0000d0 b0 6b 03 be 84 6b de 3d af b1 00 3c ec fc af bd
       -0.12834048 0.10860351 0.007854863 -0.08593163
0000e0 5e 19 31 bd d5 0a db bd fb bf dc bd e7 7b 28 3e
       -0.043237083 -0.106954254 -0.10778805 0.16453515
0000f0 f1 31 93 3d a6 09 c1 3c 0a 26 5e 3e c8 e7 8d 3c
       0.0718726 0.023564171 0.21694198 0.017322436
000100 ea d2 8c 3d a0 78 6c 3d 27 d3 2f 3e c5 ab 72 bd
       0.06876166 0.057732224 0.17170392 -0.059245843
000110 1f a1 b9 bd 28 73 98 3e 46 de b3 3d e9 9a 0d 3c
       -0.090639345 0.29775357 0.0878263 0.0086428905
000120 cc 09 38 bd 8d ff 18 3e 46 75 4f 3e fe 2c 78 bc
       -0.044931218 0.14941235 0.2025958 -0.015147446
000130 62 45 df bd 06 24 f4 bd 05 eb fc 3c 94 8f 2a be
       -0.109019056 -0.119209334 0.030873785 -0.16656333
000140 e2 ac 7c bc 49 d4 69 be e9 81 83 bc 64 21 ed 3d
       -0.015422078 -0.22834887 -0.016053157 0.115786344
000150 d4 0d 98 3d 0a 25 bc bd ff bb d6 3d 8e 58 10 3e
       0.074245125 -0.09186752 0.10485076 0.14096281
000160 c8 ba 9f bd 41 b1 3d bc 31 87 dc bd 2c 25 b6 3d
       -0.077992976 -0.011577905 -0.10767973 0.08893809
000170 de ea 89 3d ea 6f 80 bc 72 0a 2c be b9 91 a7 bd
       0.067342505 -0.015678365 -0.1680086 -0.08182091
000180 81 60 43 bd 37 0c 8f 3e aa 06 d9 bd 65 78 e0 3d
       -0.047699455 0.27939007 -0.10596974 0.109604634
000190 9e de b7 3d c5 14 e8 3d 79 3c 8e 3e fb a9 4b be
       0.08978008 0.113320865 0.27780512 -0.19889061
0001a0 40 71 30 3d d9 a6 53 bd 22 55 6a 3d 34 ab e6 be
       0.043076754 -0.05167279 0.057210095 -0.45052493
0001b0 f7 68 15 3e 59 7d 35 be b0 01 e2 3c cc 95 fc 3d
       0.14590822 -0.17723598 0.027588695 0.12333259
0001c0 a6 18 0c 3e ef 86 28 be 1b 3d 79 3b 4d 50 b6 bd
       0.13681278 -0.16457723 0.0038030806 -0.08902035
0001d0 d1 7c 52 be 6f 28 6b bd 2f a8 dc bd 8f a3 15 3d
       -0.20555426 -0.057411607 -0.10774266 0.036532935
0001e0 ef 30 3b 3e 0b d7 be bd 13 ae 34 be 27 e1 a7 3e
       0.18280385 -0.0931836 -0.17644529 0.32788965
0001f0 e4 20 86 3d 63 3e 15 be 68 2c 20 bd dc 64 26 3d
       0.06549242 -0.1457458 -0.03910485 0.04062353
000200 7f 42 c4 bd 41 a9 16 bd 00 d5 b6 3e ba 55 bd 3e
       -0.095829956 -0.036782507 0.3570938 0.36979467
000210 5f 03 bf be d4 2e 1a 3e 24 f3 0c 3d b1 4c 9e 3d
       -0.3730726 0.15056926 0.034411564 0.077294715
000220 38 29 0c be 59 32 63 3e a1 19 b3 3e 18 89 89 3e
       -0.13687599 0.22187175 0.3498049 0.26862407
000230 a0 e2 76 3c 0f b7 1a 3e cc c3 1b 3e 04 4a 7b 3e
       0.01506868 0.15108894 0.1521141 0.24539953
000240 12 de 3d bb 9b 0d d6 3d 84 82 37 3d 0f c2 48 be
       -0.0028971476 0.10451814 0.044802204 -0.19605277
000250 a5 62 21 be c4 5f 0c be 80 57 b0 3b b1 c9 52 3e
       -0.15760286 -0.13708407 0.0053815246 0.20584752
000260 40 10 51 be 42 12 1f 3e 5d ff 28 3e c8 64 11 bb
       -0.20416355 0.15534309 0.16503663 -0.0022185314
000270 c0 e2 13 bd b5 18 8a 3d 11 93 79 3d 7c 87 85 bc
       -0.036104918 0.06742994 0.06093127 -0.016299956
000280 9f 8c 6b 3e 49 82 9c be b6 ae 65 bd d5 e2 ed 3d
       0.23002861 -0.3056815 -0.05607482 0.116155304
000290 e1 d0 0d be 7a 08 6d bc ab 54 1f 3d d7 e9 cb 3c
       -0.13849212 -0.014467353 0.038899105 0.024891777
0002a0 77 b1 2c 3e 2a 06 0f be 77 e3 61 bc 4c 48 13 be
       0.16864572 -0.13967195 -0.013787142 -0.14383048
0002b0 32 db 77 3d 49 4d 1f bc c2 9c 9a bd 8f 8e d2 bd
       0.060511775 -0.009723016 -0.075494304 -0.10281097
0002c0 78 83 ec bd 4e 5d 9f 3d 12 fc c3 bd c8 6f 2b be
       -0.11548513 0.07781468 -0.09569563 -0.1674186
0002d0 04 1d 74 bd 4a f2 db bd b2 24 5b 3e 01 9c ee 3d
       -0.059597984 -0.10739572 0.21400717 0.11650849
0002e0 f3 37 15 3e 79 ed 92 be 96 f0 74 3c ab 79 58 bd
       0.14572124 -0.28696802 0.014949938 -0.052850407
0002f0 62 e6 27 3e 88 d5 6c be 38 2f c4 3c a6 7c 9b bc
       0.16396478 -0.2312833 0.023948297 -0.018980335
000300 79 c7 84 3e 6c 60 4b be 80 46 f5 3b 4a 9e 77 be
       0.25933436 -0.19861001 0.007485211 -0.24181476
000310 a2 e3 b6 be 52 8e 7c bd 78 35 c1 3d 92 49 ee 3c
       -0.35720545 -0.061659165 0.094340265 0.029087815
000320 7e 67 0a be df 0b 27 be af 11 1f 3e 75 46 87 bd
       -0.13516042 -0.16313122 0.1553409 -0.066052355
000330 fa ee 36 3c b8 fa b7 3e 62 02 82 3e 66 94 44 3e
       0.011165375 0.3593347 0.25392443 0.19197235
000340 f2 8a 18 3e 8e ad ee 3d 2d 86 82 3d 7b 02 30 3d
       0.14896753 0.11654197 0.06373248 0.042971116
000350 5f c5 06 bc 68 35 49 3e a8 8f ae 3e dc 6d ef 3d
       -0.008225768 0.19649279 0.34093976 0.11690876
000360 19 05 ec bd e0 81 9f bc ee b7 a4 bd ff 7c 8d be
       -0.1152441 -0.019471109 -0.08042894 -0.27634427
000370 b4 59 ec 3e c3 f3 e9 3d 47 a5 02 3e 27 59 56 3d
       0.46162188 0.11423447 0.12758361 0.052331116
000380 e5 0f 55 3d 6f c7 17 3e 70 1b f1 3d 1f 38 28 3e
       0.05201711 0.14822172 0.117728114 0.16427658
000390 bc 20 71 bd 93 f1 48 3d de 51 96 3d 6b 59 20 be
       -0.05886911 0.049058508 0.07339834 -0.1565911
0003a0 22 b1 3f 3e 90 8a 97 bd 08 8a ab 3d 55 ac 10 3e
       0.18719915 -0.073994756 0.08375937 0.1412824
0003b0 d7 2b 18 3e 30 de 4a 3e 04 6d 27 3e 34 e0 5a 3e
       0.14860474 0.1981132 0.1635018 0.21374589
0003c0 62 03 83 be 5b 3d 57 bd 6d bf 4f 3e b4 02 a0 3d
       -0.25588518 -0.052548748 0.20287867 0.078130156
0003d0 7c 2e 5d 3e ca e6 bf be bc 66 e8 3d 9b 9f f4 bc
       0.21599764 -0.37480766 0.1134772 -0.029861262
0003e0 54 12 23 3d 6e 9d 8a 3d 8f b7 60 3d 90 e4 b1 bd
       0.0398124 0.067683086 0.054862555 -0.08686173
0003f0 e4 72 2b be 02 fc b4 bd 46 94 99 3e 91 d0 b6 bc
       -0.16743046 -0.08837129 0.29995936 -0.02231625

fallback.mp_gats.0.gat2.attn_l f4 [1, 1, 64]
000000 59 66 98 3d fc 60 52 3e 56 dd 9a 3e a7 44 1a 3e
       0.07441396 0.20544809 0.3024699 0.15065251
000010 2c a2 eb bd f3 93 26 3d 82 1b a2 bd 84 11 ef bd
       -0.11505541 0.04066844 -0.07915403 -0.11673263
000020 76 fd 1b 3e 57 e5 f0 bd af 40 76 3e d5 89 b2 bc
       0.15233406 -0.11762493 0.24048112 -0.021794239
000030 73 49 c6 3d 63 30 2b 3d 6c c6 2e bd 66 50 b6 3c
       0.09681978 0.041794192 -0.0426697 0.022255134
000040 bd 84 44 3d b8 cb 3c 3d 07 8a 8d bd 5a 24 2f 3d
       0.04797815 0.04609272 -0.06911092 0.042759277
000050 11 67 ba 3e ca 1a 67 3e ac c8 cc 3d 82 93 81 be
       0.36406758 0.22568813 0.099992126 -0.25307852
000060 e6 39 41 be 10 fc 35 3e 9a ca 58 be 95 e6 d7 3d
       -0.18869743 0.17771935 -0.21171036 0.10542027
000070 cb 74 5b bd 21 38 8c 3d d1 54 24 be 83 4b 3e be
       -0.05357818 0.06846643 -0.1604798 -0.18583493
000080 4d c1 19 bd 34 4d 9a 3e a8 8d 3d 3e b1 eb 58 bc
       -0.03753786 0.30137026 0.18511069 -0.013239787
000090 49 95 f4 3d ac 7e 1e 3e 49 51 80 bd 52 14 ef bd
       0.119425364 0.15478009 -0.06265504 -0.11673798
0000a0 d2 07 69 3c 4a be 86 bc 6b a7 3a be c4 35 2f 3e
       0.014223056 -0.016448159 -0.18227927 0.17110354
0000b0 bc 75 6b be 21 24 77 3d be a8 ad bc de 91 9d bd
       -0.22994131 0.06033719 -0.021198627 -0.076938376
0000c0 31 45 85 bd 42 98 4a 3e 46 79 74 be 31 67 64 3e
       -0.06507338 0.19784644 -0.23874387 0.2230499
0000d0 1c 79 5f 3e b1 53 37 bd 84 36 63 3c 27 f1 6a 3d
       0.21823543 -0.04475755 0.013867978 0.057358887
0000e0 58 7b e9 bc 51 b7 07 be 9f b7 2a 3e 0e a0 c9 bd
       -0.028501198 -0.13253523 0.16671608 -0.09844981
0000f0 a3 86 fd 3c 32 09 e0 3d f5 6a b3 3c 17 65 3b 3d
       0.030947989 0.10939254 0.021901587 0.045750704

fallback.mp_gats.0.gat2.attn_r f4 [1, 1, 64]
000000 47 aa 95 3b d2 ae 11 3a d9 df 9f bd 70 22 6a bc
       0.004567418 0.00055573613 -0.078063674 -0.014290437
000010 9e b2 05 be 4c 15 7f 3e bd 4f 1d 3e 97 94 0d bc
       -0.13056418 0.24910468 0.15362449 -0.008641384
000020 29 33 09 be 5f c9 0d bd 2d 5c 52 3d d3 d7 2e 3d
       -0.13398422 -0.03461587 0.051357437 0.042686295
000030 b5 12 39 be 9c 34 ba 3e 7c 8b 84 bd 42 1c 61 3d
       -0.18073542 0.36368263 -0.06471917 0.05495859
000040 78 aa a2 3c 4e ac 55 3e 13 f7 12 3e 99 27 a1 bd
       0.019856676 0.2086651 0.14352064 -0.07868881
000050 04 c6 0d 3d a8 fb 49 3e e2 00 8a bd 6a 04 a5 3d
       0.03461267 0.19724905 -0.0673845 0.080574825
000060 a9 be 14 3e 3d b3 a7 3d 3b 09 47 bc f5 f9 2b 3e
       0.14525856 0.08188484 -0.012148197 0.1679457
000070 1d 51 72 3e 06 2a 58 be e8 a6 42 be 19 dc 25 3c
       0.23663755 -0.2110978 -0.19008982 0.010123276
000080 36 ee 8d 3c 49 c7 22 3e 99 9b 3e 3e f2 dd c3 3d
       0.017325502 0.15896334 0.18614043 0.09563817
000090 f4 20 99 3b bc db 96 3e ae 0e 8e ba 72 72 20 3e
       0.004673118 0.2946452 -0.0010838115 0.15668657
0000a0 c6 dc 97 bd b2 9b bf 3d bb f6 74 be ae 3d 3d 3b
       -0.07415156 0.093558684 -0.23922245 0.0028875875
0000b0 42 b8 75 be de f2 85 bd f0 3d 04 3d c1 c7 82 3e
       -0.2399607 -0.06540464 0.03228563 0.25543025
0000c0 33 09 b8 3c ca ab 32 be 9a 97 2f 3e 81 92 18 be
       0.022465324 -0.17448345 0.17147675 -0.14899637
0000d0 43 35 45 3c 68 77 00 3d bb c5 38 3e 6e ab 1f 3d
       0.012036624 0.031363875 0.18044178 0.038981847
0000e0 92 3d af be 68 84 6f bd 2c ef c6 be 1f 5a ae 3e
       -0.34226662 -0.05847588 -0.3885435 0.34053132
0000f0 1f 94 59 3e 24 d9 2d bd 81 8b 2e 3d a3 c9 81 bd
       0.2124791 -0.04244341 0.04261351 -0.06337287

fallback.mp_gats.0.gat2.bias f4 [64]
000000 2c a0 0f 3d af 90 52 3c c4 2e 41 3d 89 d2 16 3d
       0.03506486 0.012851878 0.04716374 0.036821876
000010 ff 30 ad 3b 0c 47 e2 bb 29 3f a1 3c 76 9a f0 3b
       0.005285382 -0.006905442 0.019683437 0.007342632
000020 e4 23 c8 bc d0 47 94 bc c8 1e b5 39 34 b5 44 bd
       -0.024431176 -0.01810065 0.00034545944 -0.04802437
000030 61 ab 1d 3d a5 c2 07 3d d3 04 b6 3b 69 5d 08 bd
       0.038493518 0.033144612 0.0055547743 -0.033292208
000040 51 b2 ee 3c cd 65 b5 bc 25 f8 76 3c c4 0b 34 bd
       0.029137762 -0.022143269 0.015073811 -0.043956533
000050 f4 e0 13 3d c6 06 2c 3d 98 d3 88 bc 51 82 43 bd
       0.036103204 0.041998647 -0.016702458 -0.0477317
000060 60 85 66 bd 88 74 63 bd 9e 18 74 bd 7b fa 87 bc
       -0.05627954 -0.055531055 -0.05959379 -0.01659893
000070 a7 fc f2 bc d2 7f 1d 3d c0 0c da bb 7a c5 3d bd
       -0.02966149 0.038451977 -0.006654352 -0.046330906
000080 2c 8c 3b 3c 02 ba fc 3c 6c 21 8d 3c f1 7d 8b bc
       0.011446994 0.030850414 0.01722785 -0.017027827
000090 f1 08 66 3d 66 69 07 bd a1 1f 3a 3d bf f7 1d bd
       0.05616087 -0.0330595 0.04544032 -0.038566347
0000a0 e2 5f 3c bd 17 56 4b bd 74 85 1e 3d 0e 7a d2 3c
       -0.04598988 -0.04964265 0.03870149 0.025692966
0000b0 a8 cb 21 3d 6a 8a 0b 3c b7 c3 17 bd 0b 07 25 3d
       0.039500862 0.008516887 -0.037051883 0.04028992
0000c0 82 d8 36 bb 00 e7 dc bc 7a 5c 82 bd 19 cd 47 bb
       -0.0027900045 -0.026965618 -0.06365295 -0.0030487238
0000d0 c4 34 22 bc 11 96 b2 3c b8 33 0e 3d 04 b4 cc bc
       -0.009900276 0.021800073 0.03471729 -0.024988182
0000e0 fb 7e 38 bd 41 ad 21 bd 22 ac 44 bd 75 0e ae 39
       -0.045042973 -0.03947187 -0.04801572 0.00033198638
0000f0 ce 71 87 3b 0a 52 ab 3c d0 5c 1e bc b6 bb 2b 3d
       0.0041334396 0.020913143 -0.009665683 0.041927062

fallback.mp_gats.0.gat2.fc.weight f4 [64, 64]
000000 e0 58 d6 bc 2a 63 81 be f0 85 86 3e 86 77 32 3e
       -0.026165426 -0.2527097 0.2627406 0.17428407
000010 5f 97 83 bd f5 b1 5d bd 77 92 3d be 93 67 8f bc
       -0.06425356 -0.05412479 -0.18512903 -0.017505443
000020 91 41 c9 bd 4a 4a 05 3f d3 da 2e bb 40 e1 9e 3d
       -0.09826959 0.5206648 -0.0026680722 0.07757807
000030 78 ab 47 be a0 78 64 be c0 d2 03 be 64 9d 43 3d
       -0.19499004 -0.2231164 -0.12873363 0.04775752
000040 ce 58 9d 3b d4 19 e6 be 9d d4 41 3e 57 f8 5b 3e
       0.004801846 -0.4494158 0.18928762 0.21481453
000050 6c 1b 92 3e 0b ec 7c 3c c8 55 e6 bd 0c 2f a1 be
       0.28536546 0.015437136 -0.1124683 -0.31481206
000060 ec 34 4e bd fb 20 fc 3d 3a a4 a8 3d 67 c7 c3 3d
       -0.05034344 0.12310978 0.08234449 0.09559517
000070 c2 5d 5c bc 66 11 b0 3e fc b0 65 3e b7 cd cb 3a
       -0.013450088 0.34388274 0.22430795 0.0015548979
000080 5f 19 fa 3d 75 6e fd bd 3d 11 03 3d 09 3d 32 be
       0.122118704 -0.12374584 0.03199886 -0.17406096
000090 49 ba 1f bc e2 7b ce 3d 12 e5 93 be e9 31 9d 3d
       -0.009749004 0.100822225 -0.28885704 0.07675535
0000a0 8f 4a 04 bd 3d 77 02 3e f9 bf 13 3e ab a7 97 bc
       -0.032297667 0.12740798 0.144287 -0.018512568
0000b0 4a d7 0e 3e 63 18 90 be 73 38 9f 3d fb 88 5d 3e
       0.13949314 -0.28143606 0.07774439 0.21634285
0000c0 70 9e 59 be 7a 9f 19 3e ef 8c 91 3e 47 50 3f 3d
       -0.21251845 0.15002242 0.28427836 0.046707418
0000d0 58 5d b8 bd c4 0f 6f 3e 27 ce 69 bd f0 1c 96 3c
       -0.09002179 0.23345858 -0.057081368 0.018324345
0000e0 52 f5 ac be 86 4a cf bd 2a e2 33 3e 8b 8d 11 be
       -0.33780915 -0.10121636 0.17566743 -0.1421415
0000f0 1f 4b 91 bd be c7 32 be 78 d6 05 be b1 fe fc 3c
       -0.07094406 -0.17459008 -0.13070095 0.030883165
000100 70 58 a7 3e a2 e6 e9 bd 25 10 8e bd f3 90 c8 3c
       0.3268466 -0.11420943 -0.06936673 0.02448318
000110 b0 c9 6a 3e 03 38 eb 3d 63 5d 8f 3e 91 c2 01 3e
       0.229285 0.11485293 0.28000936 0.12671877
000120 d5 de ba be ca a5 38 3e 93 03 05 be 73 7c cb 3d
       -0.36498132 0.18031994 -0.12989645 0.09935846
000130 e9 c6 32 3e ed 64 28 3e 27 20 ab be 60 e3 9b be
       0.1745869 0.1644475 -0.33422968 -0.3044691
000140 04 94 0e be 26 50 f0 bd 22 24 ec 3a d1 96 56 be
       -0.13923651 -0.11734037 0.001801614 -0.2095597
000150 39 86 12 3e 28 d1 82 3c 42 5e f3 3d 3c a0 96 3e
       0.14309014 0.015968874 0.118832126 0.29419124
000160 fb 61 a3 3d e6 2e 93 3d 5e 6c 3a 3e 56 69 ae bb
       0.07977673 0.071866795 0.18205401 -0.0053226156
000170 f5 7b f9 3d 89 75 4f be b2 dc e8 3d 47 74 b3 bd
       0.12181846 -0.2025968 0.11370219 -0.087624125
000180 5d 36 96 bd 55 a7 db bd 74 e3 a1 3d 51 bf ba be
       -0.07334588 -0.107252754 0.07904711 -0.36474088
000190 af 3f f1 bd 96 1d 28 be 80 68 86 3e 42 08 2e 3e
       -0.11779725 -0.16417536 0.26251602 0.16995338
0001a0 72 57 62 3e 83 c2 8b 3b 7d ec 88 3d f3 51 4f bd
       0.2210367 0.004265131 0.066857316 -0.050615262
0001b0 bc 5c 39 3c 5a 99 57 be 7e 66 91 bd ad 88 83 be
       0.0113136135 -0.21054593 -0.07099627 -0.25690213
0001c0 b0 0b 5f 3e c3 f7 a6 3b 23 05 8e be d8 49 21 be
       0.21781802 0.0050954535 -0.27738294 -0.15750825
0001d0 8e c3 95 bd ab 9e ed 3b 95 62 8b be bd 96 5d 3e
       -0.0731269 0.0072515807 -0.2722365 0.21639533
0001e0 c6 49 8e 3e 0e 02 6a bd 85 6f 8d be 12 03 8d 3e
       0.2779066 -0.057130866 -0.27624145 0.27541405
0001f0 ab c3 ff 3d c5 be 40 be b1 af 3a be 95 ac 10 3e
       0.124884926 -0.18822773 -0.18231083 0.14128335
000200 ba 5b 4b be d1 81 7d 3d db 03 87 3e ca 44 7f 3e
       -0.1985921 0.06189138 0.2637013 0.24928585
000210 db 0e 31 3e f5 77 4d 3e 86 28 1d be db 6f c2 3e
       0.17290823 0.20065291 -0.1534749 0.37975964
000220 d3 24 fb bd 65 87 9b 3d f7 1e 55 3e cf 79 d4 3d
       -0.12262883 0.07594184 0.20812593 0.10374796
000230 7b 35 4e 3e 55 cc 14 be 79 04 d9 be 6c 8b 4b be
       0.20137589 -0.14531071 -0.42386225 -0.19877404
000240 8c 37 21 bd b4 4a 1c 3e 42 f9 ac 3d dc c4 eb 3d
       -0.039359614 0.15262872 0.0844598 0.11512157
000250 f4 9a 21 3d ca da 1d be dc bf 8d ba d5 39 11 3d
       0.039454415 -0.15415493 -0.0010814625 0.035455544
000260 61 64 2c 3e b1 a2 28 3e ba 07 76 bd 1d f6 8c 3e
       0.16835167 0.16468312 -0.060065962 0.2753152
000270 04 3b 68 be d4 1c 5a 3d 5c 77 c9 bb 85 f4 0b bd
       -0.22678763 0.05325015 -0.006148262 -0.03416874
000280 bb 4d 99 3d 97 a8 9f bc ba cd 8f be 08 13 d6 bd
       0.07485529 -0.01948957 -0.28086644 -0.10452849
000290 c6 28 ef bd d6 fc 53 bd 6d c0 25 be 47 fa f4 3e
       -0.11677699 -0.051754795 -0.16186686 0.47847196
0002a0 da 31 34 be e3 db 99 3e c9 b2 55 be 12 e7 56 be
       -0.17597142 0.30050573 -0.20868982 -0.20986584
0002b0 f3 6a 26 bb ad b4 2e 3e 7f 0c ab 3c d5 b6 aa 3d
       -0.0025393337 0.1706111 0.020879982 0.08335654
0002c0 bf 87 40 be 25 cf 4d be b9 ee 9c 3d 20 47 b9 be
       -0.18801783 -0.2009855 0.0766272 -0.36187077
0002d0 9e fd 85 bd 0d 0b 1e be 78 ef 24 be 80 b2 95 be
       -0.06542514 -0.15433903 -0.16106975 -0.29237747
0002e0 19 0e cf 3d 60 13 f7 bd bf 11 0b 3e b9 5b 8e bc
       0.10110111 -0.12064242 0.13580988 -0.017377721
0002f0 36 3a da 3e da e0 56 be 16 1b e9 bb 46 0f e8 bd
       0.42622536 -0.20984212 -0.0071138246 -0.11331038
000300 e7 7b 9b 3d 96 55 97 3e 9b a7 49 3d 03 48 34 be
       0.07591992 0.29557484 0.049232107 -0.17605595
000310 cf 21 94 3c e5 cb 3c 3e a2 26 75 3d 10 34 bb 3d
       0.018082527 0.18437155 0.059851296 0.091407895
000320 51 99 16 3e d6 36 9a bb 78 af 32 be 29 2f 9c 3d
       0.14706923 -0.004706244 -0.17449749 0.076261826
000330 32 6b 49 be db 23 5d 3e 7b 72 5a 3c be cf 23 be
       -0.19669798 0.21595709 0.013332958 -0.15997216
000340 c6 97 e8 3c 51 38 82 be 04 6a 11 be 83 90 80 be
       0.028392684 -0.2543359 -0.14200598 -0.25110254
000350 75 cc 99 be c5 ab b7 bd e7 2f a8 bc 1f 42 8c 3e
       -0.300388 -0.08968309 -0.020530654 0.27394196
000360 9a 3d 40 3d 34 4c 11 3e c4 42 3b 3e d1 9f ab 3d
       0.046933748 0.14189225 0.18287188 0.08380092
000370 0d 35 17 3d 84 1c bd 3c b3 40 89 3d c5 18 04 3e
       0.036915828 0.023084886 0.067017935 0.12900074
000380 21 27 80 bd c4 c8 b8 3d 4e 8b 30 bd 13 70 34 bc
       -0.06257463 0.09022668 -0.0431016 -0.011013049
000390 7f 0e 63 bc 39 11 09 3d 56 af 40 bd 7b 9d e4 3d
       -0.013858437 0.03346369 -0.047042213 0.111628495
0003a0 3c a5 08 be b9 f2 a5 be 5c 43 a9 3e 1b 2a 61 3e
       -0.13344282 -0.32411745 0.33059204 0.21988718
0003b0 68 ae 71 bc d5 80 bc bd e1 2e db 3d e1 69 6b 3d
       -0.014751054 -0.0920426 0.10702301 0.05747402
0003c0 59 5e 71 3e 2c 31 bf 3d ff 93 bd bd 6f 9a 91 3e
       0.23571147 0.09335551 -0.09256744 0.28438136
0003d0 a7 de c5 3c 8b 26 83 be e5 be 2c be d5 df f5 3d
       0.02415402 -0.25615343 -0.16869695 0.12005583
0003e0 10 60 82 be c4 13 24 be fb 6d d0 3d 4b 84 71 bd
       -0.25463915 -0.16023165 0.10177227 -0.058964055
0003f0 3d 9a 2f 3e a9 cd 04 be d6 0f 53 3e 5f 2f 47 3e
       0.17148681 -0.12969078 0.2061151 0.19451664

fallback.mp_gats.1.gat1.attn_l f4 [1, 8, 8]
000000 03 e7 f9 bb 3c c8 e7 bc b6 28 98 bd 5b 5e 8f 3e
       -0.0076264157 -0.028293721 -0.0742964 0.28001675
000010 84 3c e5 3b 06 43 82 3e 2d f8 0d 3f 4a c0 1a bd
       0.0069957394 0.2544176 0.5545681 -0.037781037
000020 e3 65 8a be 70 46 b7 bc ce 14 a0 3e 10 c4 39 be
       -0.27030858 -0.022372454 0.31265873 -0.18141198
000030 a2 12 7d 3e a6 e0 b8 be 9c 31 20 be 7e a8 22 be
       0.24714139 -0.36108893 -0.15643924 -0.15884587
000040 48 ee ed bc 0c b9 8a be 99 85 cd bd 33 15 5c be
       -0.029044285 -0.27094305 -0.10035247 -0.21492462
000050 71 ad a0 3d ef 82 83 ba 9b d0 74 3c 6a 7d 13 bf
       0.07845581 -0.0010033528 0.014942314 -0.5761324
000060 9a 71 27 3d 38 85 3a be 71 ea d6 bd d1 38 97 bd
       0.040879823 -0.18214881 -0.10493935 -0.07383884
000070 34 29 fb 3c 5c 75 4b be ae 06 ab be 3d 3f 7e 3e
       0.030659296 -0.19868988 -0.33403534 0.24828811
000080 1f d2 49 3e a0 f2 84 bd 83 c5 85 be 8b 23 8e be
       0.19709061 -0.064915895 -0.26127252 -0.27761492
000090 47 c9 b4 bc 42 2f 85 be a6 6c 7b be b8 cf 9d bd
       -0.022068633 -0.26012617 -0.24553165 -0.07705635
0000a0 6d cc 71 be 38 c6 32 be 8e ee de 3e 7e 0a 0e 3e
       -0.23613138 -0.17458427 0.43541378 0.1387119
0000b0 16 f3 53 bd e4 da 32 bc 51 08 c6 bd ac d0 96 be
       -0.051745497 -0.010916445 -0.09669555 -0.2945608
0000c0 cf 3f d5 bd dd 6f 74 3e fd cb d0 3e ec fe db bc
       -0.10412561 0.23870797 0.4078063 -0.026854955
0000d0 6f 86 93 bd 4c 8f ab 3d 89 d6 bc bd 87 91 e4 bb
       -0.072033755 0.08376941 -0.09220607 -0.006975356
0000e0 6f 4a d5 be bc 43 6e 3d 3f d2 0b 3d ed 24 fb bd
       -0.4165835 0.058170065 0.034136053 -0.122629024
0000f0 a6 e5 3c 3e 7a 6b 99 3d f5 9c 67 be 24 09 a7 bd
       0.18446979 0.07491203 -0.22618468 -0.0815604

fallback.mp_gats.1.gat1.attn_r f4 [1, 8, 8]
000000 ff c0 35 bc 3e df c5 be da 71 ad bc 08 74 36 3c
       -0.011093377 -0.38646883 -0.021172453 0.011136062
000010 b0 14 50 bd ef 25 35 3d 68 36 2f 3d df be bc bb
       -0.05080098 0.04422563 0.042776495 -0.0057600583
000020 43 fa 76 be ed 63 8b 3e 83 f3 a9 bd 0c 55 84 3d
       -0.24118905 0.27224675 -0.08298399 0.06461534
000030 a3 1d 9b bb 46 45 c2 bd 6c b5 82 3c 39 70 a9 3c
       -0.0047337576 -0.09485869 0.01595565 0.020683395
000040 f5 c5 fd bd 2f b6 2d bc 75 26 0a bd 58 75 9e bd
       -0.12391273 -0.010602518 -0.03372808 -0.07737225
000050 e6 21 b1 3e ba 85 5e 3c d7 d2 9b 3d 16 5d 1f be
       0.34596175 0.013581688 0.07608574 -0.15562853
000060 9c 62 ac 3b fb 7e 8f 3b ac e0 d9 bb 32 0b 10 be
       0.0052607786 0.004379151 -0.0066490974 -0.1406677
000070 1a 35 3a bc 04 70 04 bc 88 a4 52 3d c4 2b 21 be
       -0.011365199 -0.008083347 0.05142644 -0.15739352
000080 39 90 cf 3d 05 c7 96 bd 9c c9 25 3c 1d c7 d9 bb
       0.1013493 -0.07362179 0.010118868 -0.0066460506
000090 75 c1 45 3d 1b 71 f4 3b 5f 28 4e bc 88 9a 89 39
       0.048280198 0.0074597723 -0.012582867 0.0002624581
0000a0 f7 a2 cd 3d 1e 89 fa 3c 0f d0 e0 bd f5 cf 01 3d
       0.10040849 0.03058296 -0.10977184 0.031692464
0000b0 f0 a2 86 be cb 3b d3 3e f3 e8 9e bd 5e 46 3d 3e
       -0.26296186 0.41256556 -0.07759275 0.18483874
0000c0 95 a5 40 bc 64 f2 a0 3e 92 3f 36 be f3 25 74 bb
       -0.011758228 0.3143493 -0.17797688 -0.0037254065
0000d0 4a c0 09 bd 00 52 15 bd 47 58 bd 3e c7 11 c5 3d
       -0.033630647 -0.036455154 0.36981413 0.096225314
0000e0 ca 20 95 bd fe db 17 3d 43 8e 41 bb fd b2 8f b9
       -0.07281645 0.037075035 -0.0029534257 -0.00027408442
0000f0 46 3a b1 3d 99 11 ec 3c dd 52 36 3e 31 87 19 3c
       0.08653693 0.028816985 0.17805047 0.009370611

fallback.mp_gats.1.gat1.bias f4 [64]
000000 8e d8 f7 bc be b9 a4 bc a0 28 aa bb c7 55 eb bc
       -0.030254629 -0.0201081 -0.005192831 -0.028727425
000010 a8 6f a9 3c a8 81 25 bd a9 e8 fa bb 94 bf 2e 3d
       0.020683125 -0.040406853 -0.00765713 0.042663172
000020 d8 9f de bc 43 a9 17 3d 56 93 fa bc 97 4a f4 3c
       -0.027175829 0.037026655 -0.030587833 0.029820723
000030 41 b0 fd bc b9 e2 2b 3d 92 17 69 bc a7 11 ad 3c
       -0.030967833 0.041964266 -0.014226811 0.021126581
000040 ad 58 c7 3c fe 71 08 bd 78 1a b2 3b c2 39 a6 3c
       0.024334276 -0.033311836 0.005435284 0.020291213
000050 80 65 e5 bc 1f 40 f1 bb 9b ba 1d bd 92 7a d8 3c
       -0.0280025 -0.00736238 -0.03850804 0.026425634
000060 aa 31 0d bd b3 c0 b9 bc a8 38 30 3d cd 03 93 3c
       -0.03447119 -0.022674894 0.04302278 0.017946148
000070 af 2b 40 bd bf 63 11 bd bc 82 d2 bc c6 de 67 bd
       -0.04691666 -0.035495516 -0.025697105 -0.056608938
000080 a8 5f 1a 3d 0c 3d 09 bd d4 f8 31 3c 81 e1 3d bd
       0.03768888 -0.033505484 0.010862548 -0.046357635
000090 55 e1 ae bc a8 e1 94 3c 05 5d 07 3c 75 31 3c bb
       -0.021347681 0.018174008 0.008261924 -0.0028716002
0000a0 56 1c 28 3d 81 d3 47 3c cb 71 dd bc d0 9a d2 3c
       0.04104265 0.012196423 -0.0270318 0.025708586
0000b0 8b b2 87 3b b1 67 5c 3d 95 74 47 bd 9c 5c 02 3d
       0.004141157 0.053809825 -0.048695166 0.0318266
0000c0 8e f5 f6 bb 0e c2 9b 3d 27 b9 b1 3c a2 e3 d2 bc
       -0.0075365966 0.07605372 0.021694733 -0.02574331
0000d0 25 c1 d4 3c ff 41 ff 3c e2 c5 de bc 18 4f bc 3c
       0.025971005 0.0311594 -0.027193967 0.022986934
0000e0 78 c8 61 bc bf 2c 34 3c f4 f5 e1 3c 09 0b 2c bd
       -0.013780706 0.010996996 0.0275831 -0.04200271
0000f0 9d 9f 15 bd b1 19 42 bd 3f dd ea 3c 01 83 19 bd
       -0.036529172 -0.047387782 0.028669951 -0.03747845

fallback.mp_gats.1.gat1.fc.weight f4 [64, 64]
000000 7d d6 61 3e e5 98 81 3c cf a8 19 3e 62 0d 7b 3e
       0.22054477 0.015819976 0.15005802 0.24516824
000010 78 2d 2a be d4 15 0d 3e 13 af 28 be ee af 95 3d
       -0.16618907 0.13777858 -0.16473036 0.073089465
000020 ac 9d d3 bc 47 bf 80 bd 83 43 b9 3e b7 39 22 be
       -0.02583202 -0.06286483 0.3618432 -0.15842329
000030 22 78 f3 3d 54 bc b8 bd de 2b 06 be 71 6a 7e 3e
       0.11888148 -0.09020296 -0.13102672 0.24845292
000040 0f 79 ae ba 11 fa b8 bd 3e c7 10 3e ab 6d 73 3e
       -0.0013311225 -0.090320714 0.14138505 0.23772304
000050 a3 65 3d 3e 7d f0 d2 bd 4a d3 1b be f4 7e c3 3d
       0.18495803 -0.10299776 -0.15217319 0.09545699
000060 a0 02 18 be f2 9c c5 bd be 0b 8d 3d 18 a6 1e bc
       -0.14844751 -0.096490756 0.06887005 -0.0096831545
000070 db 9c 12 be b8 9f d5 3c 63 8f 89 3d fb b5 af 3d
       -0.14317648 0.026077136 0.06716802 0.08579632
000080 50 0b 70 bd bf a8 a2 3e 2b 62 11 be 91 75 52 be
       -0.05860454 0.31769368 -0.14197604 -0.2055266
000090 cf 9d 56 be de c7 03 be 72 58 b2 3d 4b 24 c8 3d
       -0.20958637 -0.12869212 0.08708276 0.09772547
0000a0 c8 f5 d0 bc 3f 9e 83 3d 7e c5 91 3c c7 e1 68 3e
       -0.025507823 0.064266674 0.017794367 0.22742377
0000b0 58 44 18 3d 0c f5 a0 3d b2 9b 43 be d7 f6 ab bd
       0.037174553 0.07859239 -0.19102362 -0.0839669
0000c0 b2 0d 26 3e 51 48 0c 3d 2c 3a 32 be b4 5c 81 3e
       0.16216162 0.034248654 -0.17405003 0.2526604
0000d0 d0 f9 f3 bd 3b b5 b7 3d f1 e7 88 bd 25 6b cc 3d
       -0.11912882 0.08970114 -0.06684864 0.09981374
0000e0 0d 46 92 3d 48 a4 7e 3e 81 9e 38 3c 3b 44 73 3e
       0.071422674 0.24867356 0.011268259 0.23756497
0000f0 3c be 55 be a5 d4 30 be d6 3a 3c 3e b6 4f e3 3c
       -0.2087335 -0.17268617 0.18381819 0.02774797
000100 05 26 32 3e 0a 8c 3b bd b2 4c 46 be 80 d1 f7 bd
       0.17397316 -0.04578785 -0.19365194 -0.12100506
000110 38 1d 34 bd 74 f3 af 3e 0b c7 d4 bb f5 5e 85 3d
       -0.043973178 0.34365427 -0.0064934543 0.06512252
000120 60 37 89 bd c7 2e f5 3d 9b 81 bb 3d b6 13 2a bc
       -0.06700015 0.11971813 0.0915558 -0.010380676
000130 ac a4 aa bd 26 1c 9e bd c2 08 74 3d 91 24 f7 bb
       -0.0833219 -0.07720213 0.059578665 -0.007542201
000140 7b 3e 71 3e c4 00 9a 3d 49 7b 10 be 7e 0a 13 3e
       0.2355899 0.07519677 -0.1410953 0.14359471
000150 ee 29 7a 3e 73 cd 8b 3d 5a c3 68 3e 81 ad 65 be
       0.24430057 0.06826296 0.2273077 -0.22429468
000160 4a 69 63 3d 99 ed 37 3e 6b 97 ae bd 7a ab a7 bd
       0.055520333 0.1796173 -0.085249744 -0.081870034
000170 10 fc 27 be 9d 49 12 be 98 1e a9 3e c8 88 18 be
       -0.16404748 -0.14285894 0.33031154 -0.14895928
000180 99 05 d7 3d 22 6d 8e 3d a6 6f 85 3c 69 f5 6e 3e
       0.104991145 0.06954409 0.01628859 0.23335804
000190 bd 83 0f be d9 e8 82 bd 63 f7 ba bb b1 6e 5c 3e
       -0.14015098 -0.063920684 -0.0057057603 0.215266
0001a0 95 61 08 be fb 1a 79 be 63 13 e7 3c 17 4b 77 bd
       -0.13318475 -0.24326698 0.028207486 -0.060374346
0001b0 cc 3f a9 3e d1 71 43 be 04 0f f7 bc 12 9e a3 be
       0.33056486 -0.19086386 -0.030158527 -0.31956536
0001c0 27 2f 0d be 5a 29 c1 bd 7d 94 35 3e 7a 98 03 be
       -0.13787518 -0.09431715 0.17732425 -0.12851134
0001d0 2a 61 2b bd 08 06 70 3e d4 66 30 3e 5c 5c f0 bc
       -0.04184071 0.234398 0.17226726 -0.029340915
0001e0 76 1b 85 be 49 74 64 3d 4e 48 32 3e da 57 4c bd
       -0.25997514 0.05577496 0.17410395 -0.04988847
0001f0 23 f9 13 bd 13 05 db 3d b0 c2 58 be b8 07 c2 3b
       -0.036126267 0.10694327 -0.21168017 0.0059213303
000200 d8 f0 0d 3e 6f 41 e8 bd ab da 44 bd dd 36 5f be
       0.13861406 -0.113406055 -0.0480601 -0.21798272
000210 be 99 8b 3e 33 42 c3 3b 96 dd 98 3e 67 ea 3b bd
       0.27265733 0.0059588193 0.29856557 -0.04587784
000220 96 cb 7b 3d 70 10 5b be ef 27 08 3e f8 4d a9 be
       0.06147345 -0.21392989 0.13296483 -0.33067298
000230 a4 21 82 3c ac 5f 67 3e 0d 45 30 3e 4c c7 12 3b
       0.015885182 0.2259509 0.17213841 0.0022396622
000240 f9 f5 7e bc 35 61 69 be 8b e7 2c 3e 33 89 0f be
       -0.015561574 -0.22790988 0.16885202 -0.14017181
000250 6e 48 c3 3d 7f ac ae 3d ad ef 98 3e 4b 18 9d bd
       0.09535299 0.08528995 0.29870358 -0.07670649
000260 23 d3 2a be ac 9a 25 3d 84 72 0e 3e ba ec 9c bd
       -0.16682105 0.04043071 0.13910872 -0.076623395
000270 d2 51 91 3d e2 ec c9 3d a7 e6 25 bd c7 a3 fa 3d
       0.07095684 0.09859635 -0.04050317 0.12238269
000280 65 72 fd be cb 5c 03 3e ac 40 17 3e 2f 63 1c 3c
       -0.4950134 0.12828366 0.14770764 0.009545132
000290 e0 33 22 be 55 30 ce bd 30 40 bd 3d 19 95 bc 3c
       -0.15840101 -0.10067812 0.092407584 0.023020314
0002a0 84 c2 6a 3d fe 00 1a 3a 76 fa 3c 3d 13 d3 b0 3d
       0.05731441 0.00058747816 0.046137296 0.08634009
0002b0 7c 68 6b 3e f2 f8 eb bd 02 e6 d8 3d 34 31 ca 3c
       0.22989076 -0.11522092 0.105907455 0.024681665
0002c0 32 9f 1f be 24 a7 44 bd ea 0f e0 bd d4 19 24 be
       -0.15588072 -0.04801096 -0.10940535 -0.16025478
0002d0 8a 16 06 3e b7 ad 74 3e 19 6b 59 3e 38 f5 a1 bd
       0.13094535 0.23894392 0.21232261 -0.079081
0002e0 b7 07 9e bd 68 6a e7 3d 92 9d 35 3c ef 6a cd 3a
       -0.07716315 0.11299592 0.011084931 0.0015672127
0002f0 78 09 52 3e d8 a6 56 bd de e7 ac bd 1c dc 01 3e
       0.20511425 -0.05240521 -0.08442663 0.12681621
000300 2b 46 27 3c 1c e3 0a bd 64 8e 39 3c 38 f3 00 be
       0.0102096 -0.033907995 0.0113254525 -0.1259278
000310 25 16 3b 3e 98 bb dd 3b 90 2b 44 be e1 53 5d bd
       0.18270166 0.0067667477 -0.19157243 -0.05403507
000320 6f 26 fb bd d4 55 ac 3d c2 7d 66 3d d1 fd 8a be
       -0.1226319 0.08414808 0.056272276 -0.27146772
000330 bb 43 51 3e f2 c7 b3 be ae 1e bd bd 45 e1 f9 be
       0.20435993 -0.35113484 -0.09234367 -0.4880468
000340 a8 0d d8 bd 41 6e 71 3d 8e 70 f4 bd 6f 42 66 be
       -0.1054948 0.058943037 -0.119355306 -0.2248628
000350 d7 11 e4 bd c3 a7 12 be b3 c4 5c 3e 4b c4 e3 bd
       -0.11136215 -0.14321809 0.2155941 -0.11121424
000360 bc 7e ed be c3 e6 d5 bd c2 8f 99 bd 9c a7 ce bb
       -0.46385753 -0.10444405 -0.07498123 -0.0063066017
000370 7e ad 61 be 5f c8 89 be 2c 47 42 3e ec 7f 32 3d
       -0.22038838 -0.26910684 0.18972462 0.043579027
000380 e7 8f 97 bd 89 7d 1e be 25 54 0f be 92 ca 29 3e
       -0.07400494 -0.15477575 -0.13996942 0.1658118
000390 87 14 7c bb 02 5c 03 be 2f b3 39 3e d1 7d a1 3d
       -0.0038464384 -0.12828067 0.1813476 0.07885326
0003a0 00 c6 25 3e e2 76 90 3c b8 09 20 3d b1 bb 95 3e
       0.16188812 0.017634813 0.03907177 0.2924476
0003b0 3a 64 da be 5c 34 9a 3e 89 53 ab be 30 b7 47 be
       -0.42654592 0.30118072 -0.3346217 -0.19503474
0003c0 10 df d5 bd b4 77 74 bd f1 c5 d5 3d c3 37 b0 3e
       -0.104429364 -0.05968447 0.10438145 0.34417543
0003d0 fe e7 91 be 3a bf 72 bd c5 e2 91 bd 80 e1 b7 bd
       -0.28497308 -0.0592644 -0.07123331 -0.089785576
0003e0 d7 5e 8c bc 58 1b c4 bc 9a 09 53 3e 52 ec a9 be
       -0.017135067 -0.02393882 0.20609131 -0.3318811
0003f0 eb fd 4e 3d f9 04 e5 bc c5 e4 39 bd 40 15 19 3e
       0.050535124 -0.027956473 -0.045384187 0.14949512

fallback.mp_gats.1.gat2.attn_l f4 [1, 1, 64]
000000 57 0b d9 3b 8b ef 00 be 1c db d1 ba e5 f8 84 be
       0.0066236663 -0.12591378 -0.0016010734 -0.2597114
000010 b9 47 11 bb 97 ed d8 3b f5 9a 67 3e 78 f1 eb bc
       -0.0022167994 0.00662012 0.22617705 -0.028801665
000020 6d 3f 9b bb 71 b6 d1 3d 5b f0 7d 3c 5d ee 92 3c
       -0.0047377856 0.10239876 0.0154992 0.017935926
000030 a4 54 09 be e9 af 27 be ff 14 e1 bb bb ce 3d bb
       -0.13411194 -0.16375698 -0.006868958 -0.0028962332
000040 9c 3f b4 bd c9 a9 bf bd b2 d4 d8 3d f2 75 87 3b
       -0.08801195 -0.09358556 0.105874434 0.004133933
000050 96 9c 2f 3c 29 1f 84 3e 45 17 70 bb bc c5 97 3e
       0.010718485 0.25805023 -0.0036634963 0.29643047
000060 a8 50 69 3b ce 20 0c be 0d 5d fe bc 7c 9a c6 3d
       0.0035601053 -0.13684389 -0.03105023 0.09697434
000070 88 46 86 bb 05 1d 95 bb 08 85 17 be 0a c8 fb bc
       -0.0040977634 -0.0045505785 -0.14796841 -0.030735034
000080 1f 94 32 bc 35 25 8a bc ac cb a6 bb 36 9e 92 3b
       -0.010899573 -0.016863445 -0.0050901975 0.0044744266
000090 1b d9 c1 3b 7e 2b 93 ba 21 67 c3 3b 1a d6 07 3c
       0.0059157736 -0.0011228172 0.0059632217 0.008290792
0000a0 93 a5 16 bb 2d bc f7 bd 4b 65 1a 3c b9 58 9d 3b
       -0.0022986874 -0.120964386 0.009423564 0.0048018363
0000b0 f7 88 52 be 39 1a aa 3d b3 af a2 3c 0b e0 a2 3b
       -0.2056006 0.08305783 0.01985917 0.0049705557
0000c0 a4 3f 00 be 41 79 c3 3d ce dd dd bd 78 22 f4 3b
       -0.12524277 0.09544612 -0.108333215 0.007450398
0000d0 04 41 b8 3b 88 3a e5 3b bd 43 4f 3e 85 b4 c7 3b
       0.005622985 0.006995503 0.20240684 0.0060945177
0000e0 b4 19 fd 3d c0 89 99 bb d1 d7 95 bd d0 3c 2c 3c
       0.12358418 -0.0046856105 -0.07316554 0.010512546
0000f0 4f 3f e7 3b 60 f0 62 bb 73 4f 65 bc 9f 4d a0 3c
       0.0070571075 -0.0034628138 -0.013995993 0.019568263

fallback.mp_gats.1.gat2.attn_r f4 [1, 1, 64]
000000 78 24 e9 bd 5a 40 5c bc d7 b8 40 bc 00 7e 0b bc
       -0.11383909 -0.013443077 -0.011762819 -0.008513927
000010 9c e1 8a 3a d3 5c 64 bd 98 c3 9b b9 33 61 ca bb
       0.0010595801 -0.055752587 -0.00029709633 -0.006176138
000020 9c 37 70 bd 0c 9c 89 bd c2 b9 08 3b 85 5a 85 3c
       -0.058646783 -0.06719217 0.0020862673 0.016278515
000030 39 be 2d 3c 10 e5 16 3c d4 b8 5e 3b f6 58 3a 3e
       0.010604435 0.009209886 0.0033984678 0.18197998
000040 f0 d3 06 3c 60 f6 ef bd 7f c2 88 bd 41 f7 ed 3a
       0.008229241 -0.11716914 -0.06677722 0.0018155352
000050 0e df 8f 3e 35 1a 39 3c 7d 04 26 bb 47 27 06 bb
       0.28099865 0.011297752 -0.0025332265 -0.0020470188
000060 66 b2 4b bd 4a 7e f7 3b 6a 62 51 3b 9b fb 84 3a
       -0.04973068 0.0075528966 0.0031949528 0.0010145785
000070 b6 76 8a bb 9c 60 3b 3a 4c 1c f5 3c 68 4e 01 bc
       -0.004225577 0.000714788 0.02992072 -0.007892229
000080 5b 2c 8b bd 0b af 99 ba 46 53 4d 3c c7 1e d3 bd
       -0.067955695 -0.001172514 0.012532061 -0.10308605
000090 9f 92 81 bd ee 2e 9e bb c7 6c 61 bb cf c6 2b bc
       -0.06326794 -0.004827372 -0.0034397112 -0.010484411
0000a0 77 ac c1 bd 85 ec 97 bc 56 96 52 3e 02 ce 0b 3c
       -0.09456723 -0.018545398 0.20565161 0.008533003
0000b0 9f 7c 12 bc 11 eb d6 bc d3 88 b3 bc 70 2c 8f 3b
       -0.008940845 -0.026235135 -0.021915829 0.004369311
0000c0 15 99 33 be 15 76 49 bc 0c 78 08 be 22 56 b1 bc
       -0.17538865 -0.012296219 -0.13327044 -0.021647517
0000d0 53 2c 16 3b da c3 15 3c b5 14 4a ba fe 98 34 bd
       0.0022914603 0.009140933 -0.0007708774 -0.044091217
0000e0 25 b7 39 bb 8f fa b4 bb be ac 56 bc 76 03 8e bd
       -0.0028337922 -0.005523033 -0.013102708 -0.06934254
0000f0 22 45 d6 3d fc 43 56 3c 6c d2 00 ba 9a 51 ac bb
       0.10462405 0.013077732 -0.0004914168 -0.005258751
