benchmark/HAN/checkpoint/rep3.pt (torch, 555468 bytes, 21 tensors)

fallback.proj.0.weight f4 [64, 1870]
00000000: fa4c 98bc aa27 353c ada4 df3c 131b fd3c
00000010: 2cdd aabb ded8 eb3b 2e95 10bc d469 003d
00000020: 5845 0b3d ecc1 a23c f2ca e63c 04e5 a03c
00000030: 4316 b53c 5d52 1a3d 6476 a53c 1e0e 983c
00000040: c02e 553c 9a0d ee3a 6c80 dfbb 51ef e4bc
00000050: ae11 1ebc 4430 bc3a e86f fe3b 992e b7bc
00000060: f69d 073c 3cff 1f3d 4af1 723c 3995 be3c
00000070: 2b25 7cbd d4d5 10bc 0834 b63c a040 3d3c
00000080: d270 2d3d 4891 91bc 9099 05bd 0f24 0f3d
00000090: 5bc8 e73c 752d 9b3c dc3f e23c 8ea5 1e3c
000000a0: 2557 07bd e66b cd3c b0ca a039 508c 2c3d
000000b0: 5432 1b3d bccc 18bb 29cf f63c b0be f23c
000000c0: 31d4 2b3c b196 193b 48d4 e83c 648d cb3c
000000d0: 9954 153c 99fe 843c fc27 62bd d851 44bd
000000e0: 10ee e63b 929f f8bc 6b8b 64bc 61ad d8bb
000000f0: 345c 043d feaa bb3c 5e58 453d b59b e13b
00000100: b9a2 cb3c e12a e43c 8b84 9ebc 5ab7 b0bc
00000110: 4a07 fdba f7b3 5abb ad91 ea3c c7f7 103d
00000120: 1a0b 5dbd 585e bfbc 2f81 1f3d d4b2 a2bb
00000130: ef7d 30bc 8ee8 ce3c 45da a53c 757b d83c
00000140: a7f1 c53c 5ac7 b7bc 6a68 463d 77f0 fc3c
00000150: 1be7 0ebd 1a49 a8bb 21ea ad3c b345 aa3a
00000160: 48f7 60ba b08a 38bc b871 333c 7488 263d
00000170: 2d6e 27bd 02f7 2b3c aef1 b93c 2ea9 55bc
00000180: d3c8 8e3c 7c6b c2bb 361f 5539 57d2 dbba
00000190: 15e5 5cbd 7d90 c9bc 0671 5fbc 7c64 a33c
000001a0: bf08 adbc 1713 633c f824 dabb 6321 26bc
000001b0: ab01 13bd aedc eb3c b4e1 0ebd a6ad 7c3d
000001c0: e90c c43c 161d 093c 10dd cf3c 8fcd 79bc
000001d0: 941b 063d 221e 0bbd ebdd cbbc b5bc c5bc
000001e0: c47a b93c 3fff 15bd 5aa7 6a3d 4b0c 233d
000001f0: 1ede d2bb 14e4 323c 1c01 e8bc b835 dcbc
00000200: ac8d 1bbc e419 4a3d 97aa 8abc e1b0 ccbb
00000210: f5a8 b9bc 2eef 553c 2204 333d 3c12 e63c
00000220: aeef 3b3c 2041 1d3d a07c 6a3d fa83 253c
00000230: 126d 0d3d 9322 c6bc b939 d73c 66fb 743d
00000240: 3b75 353d e58c 9c3b 03ab 503c a951 3c3c
00000250: e501 2e3d c0e0 88bb 00f3 93bc 4aee 21bc
00000260: 50cf a3ba d2be 8b3d c912 d53c d230 b5bc
00000270: d544 8c3c 9278 163d d42e 043d 7b89 d03c
00000280: 1043 0a3d 4740 fabc ed23 da3c 66c4 f8bb
00000290: 7dae 103d c1a3 013d bd34 923c e8f1 14bc
000002a0: dee4 583d b6b7 143d 2d10 35bc edbf 043d
000002b0: 7c08 0a3c 023a e3bc 1344 003d c3fa 27bc
000002c0: e9d1 fa3c 9201 1d3c dc95 b0bc f9ee cfbc
000002d0: ef04 cfbc c7ca 8bbb 7e43 133d d06c a43c
000002e0: 50f4 383d 4576 d2bc cc24 f1bc c420 213c
000002f0: 30d4 4b3d 5d51 753a 6c07 42bd 2f00 5bbd
00000300: e540 d73c 5041 08bd 6970 213d f662 793d
00000310: 3de3 013d 2c06 ba3c fb46 02bc 912e 3b3d
00000320: a39f d13c 88fb 3a3d 684d acba 4d7a 933c
00000330: 1eb4 bb3c 494b 873c badc 31bd 048b afbc
00000340: 5391 48bb c256 f13c 0f85 2abc 05d3 613d
00000350: 2d56 3e3d dc75 663d 13a7 013d 69fe 87bb
00000360: 1142 883c 0455 153d 04f2 2f3d b368 053d
00000370: 9e54 073d 01fe 953c a86b cbbc 00c2 08bd
00000380: 313a 353d 544a e33c 5040 373c eb63 c63c
00000390: a1b1 e73c b9d0 7bbd 9392 59bd 4bec aabc
000003a0: 4fd2 e53c 22de 0d3d 245f 5bbc 5784 d03c
000003b0: 5baa 2a3d c301 96bc 7a2e 4c3d 6bc8 213d
000003c0: 316a a7bc 0db8 d43c 6d46 b13c b2c5 debc
000003d0: c75f 253d 7d23 393d ba71 013d a07d e4bc
000003e0: d5de 2b3c 8693 ba3c 0ba3 163d 4a0b 323d
000003f0: a61d 7b3d 219f 833b b9ed 803d f273 2fbd
-0.018591393 0.01105682 0.027300203 0.030896699 -0.005214354 0.0071974834 -0.00882463 0.031350926
0.03400168 0.01986786 0.028172944 0.019640453 0.022105342 0.037676204 0.020198055 0.01856142
0.013011634 0.0018162013 -0.006820729 -0.027946146 -0.00964777 0.0014357646 0.007764805 -0.022361087
0.008277407 0.03906177 0.014828036 0.023264514 -0.061558884 -0.008840043 0.022241607 0.011551052
0.042343922 -0.01776947 -0.03261715 0.034946498 0.02829378 0.018942574 0.027618341 0.009683026
-0.033042092 0.025075864 0.00030668592 0.042126 0.037889794 -0.002331539 0.030128079 0.029631943
0.010487602 0.0023435766 0.028421536 0.024847694 0.009114408 0.016234683 -0.055213913 -0.047929615
0.007047422 -0.030349527 -0.013949255 -0.0066124653 0.032314494 0.022908684 0.048179977 0.006885017
0.024857866 0.027852478 -0.01935031 -0.021571804 -0.001930454 -0.0033371428 0.028633917 0.03539255
-0.053965665 -0.023360416 0.03894156 -0.0049651656 -0.010772212 0.025257375 0.02024568 0.026426056
0.02416308 -0.022433925 0.04843942 0.030876381 -0.034888368 -0.0051356675 0.021229805 0.0012990743
-0.00085817697 -0.011263534 0.010952406 0.040657476 -0.040876556 0.010495903 0.02269825 -0.013040824
0.017429745 -0.0059332233 0.0002032489 -0.001677106 -0.053929407 -0.02460503 -0.013637787 0.019945376
-0.021122335 0.013859532 -0.006657239 -0.010139796 -0.035890263 0.028791752 -0.034883216 0.06168904
0.023931937 0.008368751 0.025373966 -0.015246763 0.032741144 -0.033964284 -0.024886092 -0.024137834
0.022641547 -0.036620375 0.057288505 0.039806645 -0.00643517 0.010918636 -0.028320841 -0.026881084
-0.009494226 0.049341097 -0.016927047 -0.0062466715 -0.022663573 0.013057513 0.043705113 0.028084867
0.011470718 0.038392186 0.057247758 0.010102266 0.034527846 -0.024186408 0.026272641 0.059810065
0.044301253 0.004777538 0.012736085 0.011494079 0.042482276 -0.004177183 -0.018060207 -0.009883473
-0.0012497697 0.068235055 0.026009934 -0.022118006 0.017122665 0.03673608 0.03227122 0.02545618
0.033755362 -0.030548228 0.026628459 -0.007591772 0.035322655 0.03165031 0.017847413 -0.009090878
0.05295264 0.036308013 -0.01105122 0.032409597 0.008424874 -0.027737621 0.03131492 -0.010252657
0.030617671 0.009582894 -0.021555834 -0.025382506 -0.025270907 -0.0042661163 0.035953037 0.020071417
0.04515487 -0.025691161 -0.029436491 0.009834472 0.049762905 0.00093581324 -0.04737036 -0.053466972
0.026276061 -0.03326541 0.039413843 0.060885392 0.031710852 0.022708021 -0.007951493 0.045698706
0.025588816 0.045650035 -0.0013145627 0.018002653 0.022913035 0.016515391 -0.043423392 -0.021428593
-0.0030604198 0.029460315 -0.0104077 0.055132885 0.046468902 0.056264743 0.031653475 -0.004150201
0.016633065 0.03645803 0.042955413 0.032570552 0.03303968 0.018309595 -0.024831608 -0.033388138
0.04424495 0.027745403 0.011184767 0.024217566 0.028282942 -0.06147835 -0.0531183 -0.020864626
0.028054385 0.03463567 -0.0133893825 0.02545373 0.04166637 -0.018311387 0.04984901 0.039497774
-0.020436378 0.025966669 0.021640027 -0.027193878 0.040374544 0.04519986 0.0316026 -0.027891934
0.010490139 0.022775423 0.036776584 0.043467797 0.06130757 0.0040167724 0.06295342 -0.042835183

fallback.proj.0.bias f4 [64]
00000000: 27d6 d53c 1e56 99bc ac3f 6ebb f7ef 083c
00000010: f5f8 af3c 53d1 8fbc 3902 b8bc f926 babc
00000020: 04d8 8b3c e80e aa3a 4adc 8d3c 215a c53c
00000030: 43b7 2b3c 6953 50bc 4d72 ccbc 52c8 293c
00000040: 9182 8e3c 0a09 49bc 0415 4a3b a1c3 8bbb
00000050: e5d1 aebb 408e 87bc 1eab 07ba cd29 66bc
00000060: 2950 3ebc 1f09 06bd 0273 673c 2149 7cbc
00000070: 1b1d a03b 010f 2dbc 5344 e23c 4feb 91bb
00000080: db2e 6d3c c985 993c b524 e4bc c623 563c
00000090: f5e5 4ebc 8b6e 1ebd d0fc 4f3c 3f43 87bc
000000a0: d383 bbbb a277 553a f04d 053c 5e8d dabc
000000b0: d2ca 513c 3fc7 97ba 2007 a63c 6201 37bc
000000c0: 32a4 803c 56d7 a5bc e78b acbc 26fa 943c
000000d0: 1a13 bfbc af79 a53c e98f 313c f5db 833c
000000e0: 24fc a33b dee6 67bc b003 c73b 4bad 823b
000000f0: 24f3 85bc 8dc4 37bc 6046 9abc 44e3 a0bc
0.026103092 -0.018717822 -0.003635387 0.008357993 0.021481017 -0.017555868 -0.022461997 -0.022723662
0.017070778 0.0012974413 0.017316956 0.024090828 0.010480705 -0.012715199 -0.024956847 0.0103627015
0.017396243 -0.0122702215 0.003083528 -0.004265264 -0.00533508 -0.016547322 -0.000517534 -0.014048052
-0.011615791 -0.032723542 0.014126541 -0.015398295 0.004886282 -0.010562659 0.02762047 -0.0044531
0.014476503 0.018740552 -0.027849535 0.0130700525 -0.012628068 -0.03867964 0.012694553 -0.016511558
-0.005722502 0.0008143132 0.0081362575 -0.026678737 0.012804704 -0.0011579766 0.02026707 -0.011169763
0.015703294 -0.020244282 -0.021062804 0.018185686 -0.023324538 0.020199625 0.0108375335 0.016096095
0.0050044227 -0.014154164 0.0060734376 0.0039879433 -0.01635129 -0.011216295 -0.018832386 -0.019639619

fallback.mp_gats.0.gat1.attn_l f4 [1, 8, 8]
00000000: a888 073e f276 fbbe c14f 6e3e e64c 823b
00000010: 9144 3dbf c13e 33bd 5a9f d13c 67a2 cc3d
00000020: 7c26 85be 8681 e33e e32f 413d 90b6 61be
00000030: 548b 1bbf 936f 29be 8a53 543e 2625 a4be
00000040: e018 3ebe 2c6d 133e 9ea7 d5bd 9235 c4bd
00000050: 085a e5bd 3926 9bbe 8b5f 8abe df0f 24be
00000060: eb40 82be 35a7 58bd 386a 5b3d ab95 40bd
00000070: b94a 853c 9f2d 953d 1793 4ebe a900 c63e
00000080: a20b 85be 5f3e d3bc b6fb ad3d cdbd 883e
00000090: ba21 af3e 4e43 11bd 6a31 1f3c b091 733e
000000a0: f1de b7bd ddc7 bcbe ea96 bc3e 868c 61be
000000b0: c596 a73e 4bb4 f53e 1a88 ad3d 51bc febc
000000c0: 6d2a b23e 8176 7c3e 1258 7dbe 5a7b 0ebe
000000d0: 51ee 483f e50b 2d3d 5999 54bd 87e1 b73e
000000e0: b284 11be 600e 023f d6c2 9bbe 593b d03c
000000f0: aa0f a5be 5416 cb3d 8ab7 a7bd 3095 5dbe
0.13235724 -0.49114186 0.23272611 0.003976452 -0.7393275 -0.04376102 0.02558868 0.09991913
-0.26005924 0.44434756 0.04716481 -0.22042298 -0.6075947 -0.16546468 0.20734993 -0.32059592
-0.18564177 0.14397115 -0.10432361 -0.0958053 -0.11198813 -0.303026 -0.27026019 -0.1602168
-0.25440153 -0.052893836 0.053568095 -0.047017734 0.016270982 0.07284092 -0.20173298 0.3867238
-0.25985438 -0.025786577 0.08495276 0.26707307 0.3420542 -0.035464577 0.009716371 0.23786044
-0.089780696 -0.36871234 0.36833888 -0.22026262 0.32732216 0.47989115 0.08473225 -0.031095656
0.34797993 0.2465458 -0.24740627 -0.13914242 0.7848864 0.04224767 -0.051904056 0.3591425
-0.14210775 0.50803185 -0.30422086 0.025418924 -0.32238513 0.09916368 -0.08189304 -0.21638942

fallback.mp_gats.0.gat1.attn_r f4 [1, 8, 8]
00000000: 3fd9 d3be ffc2 493e 49c5 013e 9972 26bd
00000010: 4d59 a53e 5938 febd aeb7 dc3e 1ff9 253e
00000020: 1091 30bd c1b7 653e fe0a 383e 2719 e5bd
00000030: 1978 4c3e e3ef 58bd 2807 843d e651 bd3e
00000040: 5c32 753e 2348 2abe df52 4ebd a072 0d3d
00000050: db37 a63d 683d e63c eece 833e 37e2 cbba
00000060: 2940 c2be a8c0 143e 720b 9abe 9298 f0bd
00000070: 66a4 bb3e 2f82 993e 4ed7 b23e b1ac 83be
00000080: 9d7d 743d 697a 01bd 3c3a d3bc dfa4 1ebd
00000090: 3fd8 48bd 1578 1bbd 776f d33e 9e74 53be
000000a0: 8641 85be 7e0b dd3d 5506 9fbd 06a6 923d
000000b0: 1e70 b43e 6c9a 1ebe 9fdb 98bd 1afd 903e
000000c0: c71a 59be b3a8 dcbe da0b a43e 5845 23be
000000d0: 1457 c63e a31c aabd 04bc ce3d 3600 e33b
000000e0: 93e5 56bd 63b7 ad3d b8b6 f6bc aef6 19be
000000f0: fa8c dcbe b861 983c c032 3dbe 9588 d9bc
-0.41376683 0.19703291 0.12672915 -0.040636633 0.32294694 -0.12413091 0.43108886 0.16208313
-0.043107092 0.22433378 0.17972943 -0.11186438 0.19967689 -0.05296315 0.064466774 0.36976546
0.23944992 -0.1662908 -0.050372 0.034533143 0.08116122 0.028105453 0.25743812 -0.0015555088
-0.37939575 0.14526618 -0.30086857 -0.117478505 0.36648864 0.29982135 0.3492989 -0.2571769
0.059690107 -0.03161088 -0.025784604 -0.038731452 -0.049034353 -0.037956316 0.41295978 -0.20649955
-0.26026553 0.107932076 -0.077648796 0.07160573 0.3524179 -0.15488595 -0.074637644 0.283181
-0.21201621 -0.43097457 0.32040292 -0.15944421 0.3873831 -0.08306243 0.10094455 0.0069275154
-0.052465033 0.08482244 -0.030116424 -0.15035507 -0.43076307 0.018601283 -0.18476391 -0.026554385

fallback.mp_gats.0.gat1.bias f4 [64]
00000000: 9722 35b9 36ae fa3b 1813 0e3c ec1b 62bb
00000010: fc21 80bb 3a3c afba c8c2 0c3c 8491 64bc
00000020: bf8a 953c 5559 8a3c 4500 bb3c b331 35bc
00000030: a0db 9d3b 861c 3f39 e316 a83c 0bbb 98bc
00000040: bb86 33bb a506 b139 faf7 74bc 4a51 e83b
00000050: ca56 a7bb efdb d8bc 226b dcba ddbc 933c
00000060: df88 3b3c 559d 3abc 1eb7 c23c 1302 e33c
00000070: 9e78 c2bb 1582 d23c c228 9dbc 88c5 753c
00000080: d2f9 1c3c 1eb0 ff3b 2c35 09bc 4bf3 b6ba
00000090: d9ee 6439 044f 4bbb ecea 633c cc29 523c
000000a0: d1dd f1ba 0d99 7dbc aaa0 a33c cc42 9ebc
000000b0: f1ae 65bc ecac c63a 2c4f 03bb 2129 c13b
000000c0: 7410 82bb e39b 2ebb 2d01 033c 3ba6 2fbc
000000d0: 38b8 59ba f5cd 38ba 2cdd 8f3c 1355 913b
000000e0: bf76 ad3c 5bc8 e7bb 35ce e9bc 5756 923c
000000f0: 5134 143c 78fa d8bc 4dd6 75bc c1f2 6dbb
-0.00017274391 0.007650162 0.0086715445 -0.0034501506 -0.0039103013 -0.0013369389 0.008591361 -0.013950709
0.018254636 0.0168883 0.022827277 -0.0110592125 0.004817441 0.00018225805 0.020518726 -0.018643877
-0.0027393538 0.0003376502 -0.0149517 0.0070897685 -0.0051067816 -0.02647206 -0.0016816596 0.018034393
0.011446207 -0.01139005 0.023768958 0.02771095 -0.005934789 0.025696794 -0.019184474 0.015000708
0.009581046 0.007802977 -0.008374494 -0.0013958005 0.00021832752 -0.0031022439 0.01391099 0.012827348
-0.0018452947 -0.015478385 0.019974072 -0.01931896 -0.01401876 0.0015157736 -0.0020036204 0.0058947955
-0.0039692465 -0.0026643209 0.007995886 -0.010720785 -0.0008305344 -0.0007049733 0.017561518 0.0044351905
0.021174787 -0.007073445 -0.02854071 0.017863436 0.009045676 -0.02648662 -0.015004707 -0.0036308023

fallback.mp_gats.0.gat1.fc.weight f4 [64, 64]
00000000: dc0e a53c 924d 79be aac4 34be cc65 23be
00000010: c4ba 2d3d 5610 3b3d 1e00 b33d 7e33 8c3e
00000020: d89a 5c3e ebd6 10be 8e39 ccbc bdf9 cdbe
00000030: da4a af3c 211f 7dbd 1df6 6ebe fe53 8a3d
00000040: ffe4 3cbe bd9e 9cbe 2d18 d33d 5686 113d
00000050: 641f 043e d166 80bc a592 65be b819 ba3d
00000060: c4ae 0f3e 0910 c63d c311 abbd 39d5 7b3d
00000070: cd89 473d 5cbe 163e 0217 943d a36d b93e
00000080: eae0 4dbe 4c56 5a3e 755f 613e 3d10 c7be
00000090: 84a6 073e 5551 0a3e 1fe9 013e f0b6 bebe
000000a0: 7301 87be b035 57be 5b90 81be ff86 423e
000000b0: a347 c63d 7b11 023d 16a1 573d da07 223e
000000c0: eec3 25be 6769 76bd fe83 a2bb 8cbf 293e
000000d0: bc6e ed3d 8f93 ec3d 5072 543e cea6 3e3e
000000e0: ee81 70be 525d 91bd 71b0 d23c 4187 e73d
000000f0: f99b 90bc 2bd0 de3e bf10 1dbd 9d59 ff3d
00000100: dfb5 e8bc 97fe afbc e9ad 2dbb 5212 6abe
00000110: 8dc5 143e abb5 7f3e d074 62be 2011 d63e
00000120: 9b39 aabd b259 e73d 7ff9 dcbe 458a 06bd
00000130: 0b55 d9be a99f 1b3b 1bf3 903e ca93 87bd
00000140: dda2 043d 5e2d 1a3d efa0 63bd 57fa 68bd
00000150: 7daa 39bd c173 0a3d ea15 48be 2bd9 843b
00000160: 8a05 eabd 8db2 e33c 8d2d 373e a5c1 1a3d
00000170: 766b a33d 920c a83c 1861 8f3b 29f3 d83d
00000180: 03b6 93bc 733e 80bd 5ecb 0d3e ca50 013e
00000190: 5c30 393e de13 e9be af72 f83d 34a6 a6be
000001a0: be26 ac3e 37f5 48be cd37 993e 7486 aa3e
000001b0: 71bc e53d 5b5b 37be 5c6d 9cbd 5884 743e
000001c0: 8be2 823d e081 50bd 4dc5 213e faef 263e
000001d0: 2d75 a43d 1a41 74bc 8d9c 3abe 83fc 223e
000001e0: 277d 5cbd ad35 f83d d5b8 80bd d265 373e
000001f0: ba98 eb3d c7d8 bb3d 1235 303d 7660 683e
00000200: 6c2a 623d 2b00 8ebd 787d ac3e b34c 6ebd
00000210: f7f5 4d3e 2fc3 003d 9ae9 853b 7b6b 4fbb
00000220: d97b 86be ade0 c73e 6322 433d f3a3 babc
00000230: c49c 0e3d 58ec acbe 4ab7 c3bd cc4c 09be
00000240: 6241 4c3e 93cb 26bd 357a cb3d 6e53 983d
00000250: 57fd 033e 9892 4d3e c5f4 2ebe d5ec 623e
00000260: 5147 85bd 01b4 26be a66b 113e b867 e33d
00000270: 99de efbd 1c0e 2d3e 4cf6 3a3d 4521 303d
00000280: d148 2cbd da9d da3d f349 ebbd ac34 10be
00000290: 26b1 18be 41ca 01be e1c0 79be 79cf 4bbe
000002a0: 7bb7 293d c7c9 433d 8a34 51be 9cae 103e
000002b0: 7a08 1c3d c7b0 b13e 336f 34be 0abe 01be
000002c0: 599e 8bbe b497 fabc ddc2 51be 3367 81bd
000002d0: 6add 033e e81c 4e3e da4c 14be 0509 9e3d
000002e0: 6403 7f3e f36d ebbe b131 ef3d 030b af3d
000002f0: 70b6 c6bd faae 2a3e f639 903d 1de1 143e
00000300: 5b3d 12bc d30d b4bd 678c aebc 1a38 4cbb
00000310: 5be5 953d 9841 363d d117 8e3e 4114 68be
00000320: 425c 6a3e 84b8 ca3e d85e 5fbe fffa 8f3d
00000330: ddbc 3f3d 22f3 343e 3eca 0e3e 8c28 7b3e
00000340: 6973 4f3c 1c80 3bbe d239 14be 0ba5 443e
00000350: 75d7 b63e 0d8d da3d 0219 85be 0dae 183d
00000360: 3ec8 11be 7901 e0be 486c 393e c3b8 bc3c
00000370: ff7a 613d 1558 8b3c 8232 d2bd c2b7 75be
00000380: 30a6 8abc d80f d8bc 6cab 20be 3820 25bd
00000390: c441 06be 0ba2 2b3e 22a0 cf3b 51f2 553d
000003a0: 8396 2dbe 2f99 173e 8af6 c43d bfea 543e
000003b0: eb22 a4bc 480e 4fbd e705 42bd df64 853e
000003c0: 2249 923e e36f 073d 76aa 7cbe 1b25 89be
000003d0: f168 fe3c 8ea8 ca3d 3435 4b3e decb bebd
000003e0: f766 8e3d 1c82 e9bd d7d6 6e3d a5a3 96bc
000003f0: 1e19 97bc 5a0a a23e 2d66 de3d 4258 0e3e
0.020148687 -0.24345997 -0.17653146 -0.15956801 0.04241444 0.045669876 0.08740257 0.27383035
0.21543443 -0.14144485 -0.024929788 -0.40229598 0.021397997 -0.061797265 -0.23336072 0.067543015
-0.1844673 -0.30589858 0.103073455 0.035528503 0.129026 -0.015674027 -0.22419222 0.09086937
0.14031512 0.09671027 -0.08352997 0.06148264 0.0487154 0.14721054 0.07230951 0.3621646
-0.20105329 0.21321982 0.2200907 -0.38879576 0.13247114 0.13507588 0.12686585 -0.37248945
-0.26368293 -0.21016574 -0.25305447 0.1899681 0.09681632 0.031754952 0.052643858 0.15823308
-0.16188022 -0.060159113 -0.0049595824 0.16576976 0.115933865 0.11551582 0.20746732 0.18618318
-0.23487064 -0.070978776 0.0257189 0.113050945 -0.017652499 0.43518195 -0.03834605 0.12468264
-0.028407035 -0.021483703 -0.0026501364 -0.22858551 0.14528485 0.24971645 -0.22114873 0.4180994
-0.083117686 0.11296405 -0.431591 -0.032846708 -0.42447695 0.0023746288 0.28310475 -0.066199854
0.03238188 0.03764092 -0.0555734 -0.056879368 -0.045328606 0.033801798 -0.1953961 0.0040542088
-0.11426838 0.0277951 0.1788847 0.03778233 0.07979481 0.020513806 0.004375588 0.10593254
-0.018031126 -0.06261911 0.1384711 0.12628475 0.18084854 -0.4552297 0.12131249 -0.32548678
0.33623308 -0.19624792 0.29925385 0.33305705 0.11217583 -0.17905943 -0.07638046 0.2387861
0.06390866 -0.05090511 0.1579792 0.16302481 0.08030162 -0.0149081 -0.18223782 0.15916638
-0.053830292 0.12119613 -0.06285254 0.17909935 0.1150374 0.09172206 0.04301936 0.22693047
0.055216238 -0.06933626 0.33689475 -0.058178615 0.2011336 0.03143614 0.0040866854 -0.0031649757
-0.26266363 0.39038602 0.047640216 -0.022783255 0.034817472 -0.33774066 -0.09556444 -0.13408202
0.19946817 -0.040721487 0.099354185 0.07437788 0.1288961 0.20075452 -0.1708556 0.22160657
-0.06507743 -0.16279604 0.14201221 0.11103767 -0.11712379 0.16899914 0.045645043 0.04300048
-0.04206163 0.10674639 -0.11488714 -0.14082593 -0.14911327 -0.1267481 -0.24389984 -0.19903363
0.041434746 0.04779985 -0.20430198 0.14129108 0.03809402 0.34705183 -0.17620544 -0.1267015
-0.27269247 -0.030589916 -0.2048449 -0.06318512 0.12877432 0.20128214 -0.14482442 0.07716564
0.24903637 -0.45982322 0.116794 0.08547022 -0.09702766 0.16668311 0.07042305 0.14538999
-0.008925761 -0.08791699 -0.021307183 -0.0031161369 0.07319137 0.04449615 0.27752545 -0.22663976
0.22886756 0.395939 -0.21813524 0.070302956 0.046810973 0.17670873 0.13944337 0.24527186
0.012661793 -0.18310589 -0.14475182 0.19203584 0.35711256 0.106714346 -0.25995642 0.037275363
-0.14236543 -0.43751124 0.18107712 0.02303732 0.05504894 0.017009774 -0.1026354 -0.2399588
-0.016924948 -0.026374742 -0.15690392 -0.04031393 -0.13111025 0.16761033 0.006336228 0.052233044
-0.16951947 0.14804529 0.09617336 0.20792674 -0.020036181 -0.05055073 -0.04736891 0.2605352
0.2857142 0.033065688 -0.246744 -0.26786122 0.0310559 0.098954305 0.19844514 -0.09316228
0.06953233 -0.114017695 0.058310356 -0.018388579 -0.018444594 0.31648523 0.10859332 0.13900855

fallback.mp_gats.0.gat2.attn_l f4 [1, 1, 64]
00000000: cf88 08be ef35 193e 3a30 f53d 5097 ccbd
00000010: ec30 533e 592e ec3c 42a4 56bc 54d2 2fbd
00000020: aa9e 883e bf91 dd3c 8653 263e b000 743e
00000030: 0992 dfbd ace8 aa3d de26 053c 4743 c13e
00000040: fdc1 603c 056e 5b3e a2f4 b33d 306a 433e
00000050: f03d 763e c753 233e 0a21 b83e 12aa 863d
00000060: f846 0d3d b306 6b3d 609c fdbd 1de4 6dbe
00000070: 1e1b 3dbe 39e9 733e bddf 643e 41fe 0cbe
00000080: 95fd 1a3d 5eb8 8aba 7fb3 a2bd 1edb 1c3e
00000090: 8ca9 523e 3200 3c3e 7767 0e3d 149d 11be
000000a0: a744 253e 9422 65be 6d67 dfbd 822f 293e
000000b0: ac0b 5cbd d742 053d b8e3 63be 712a 49be
000000c0: 02f0 653d 7d6d 083e 9123 453e 37c6 8a3d
000000d0: 5c11 a8bd 1887 e83d 5ac5 64bd 2134 d2bc
000000e0: cd3d 7f3d 30c5 bb3d 07f0 143e 1811 8bbd
000000f0: 86c3 483c a0b6 b53d ee57 d63b d7c9 2c3b
-0.13333438 0.1496198 0.11972089 -0.09989798 0.20624131 0.028830694 -0.013100686 -0.042925194
0.2668355 0.027047036 0.16242799 0.23828387 -0.10916526 0.0834516 0.008126942 0.3774664
0.013718125 0.21428688 0.087868944 0.19083476 0.24047065 0.15949927 0.35962707 0.06575407
0.03449151 0.057379436 -0.12383342 -0.2323155 -0.18467376 0.23819436 0.22350974 -0.13768865
0.03783949 -0.001058351 -0.079443924 0.15317962 0.2057249 0.1835945 0.03476664 -0.14220077
0.1613947 -0.22376472 -0.10908399 0.16522029 -0.05372207 0.032534447 -0.22254837 -0.19645096
0.056137092 0.13323016 0.19251849 0.06776088 -0.08206436 0.11353892 -0.05585227 -0.025659623
0.062314797 0.0916847 0.14544688 -0.0679037 0.012253648 0.088727236 0.0065412438 0.0026365423

fallback.mp_gats.0.gat2.attn_r f4 [1, 1, 64]
00000000: 82d8 01be 3042 cabc 6af0 df3c 0c8c 4dbd
00000010: c436 33bd 98d4 19be ff9a 133e 6955 0fbe
00000020: d938 1f3e c097 473d 9e81 673a e284 ea3d
00000030: bce0 443e cf51 0d3e edc9 40be 357a ccbe
00000040: a9c5 643d 4bea 5abe bd0d e53c 4719 88bd
00000050: 7ead 2f3d b067 1e3d 0d1a b7be 231f 3d3c
00000060: f9b4 3cbe 9607 4fbe dd05 743d a254 d3bd
00000070: e358 983e 2a68 7abe c7e5 67bd 85a8 1e3e
00000080: f6eb 5fbe 8ff6 fdbd 7912 27be fa9a 91be
00000090: 5afa a43e bd00 18bc 2a16 d93d 0b62 10bd
000000a0: ca78 2f3d b3bf 89bd b790 543e c5ba 043d
000000b0: b7aa fd3d 0525 373e 59e7 643e 607e 6fbe
000000c0: 9a93 49be c5db 333e be36 c63e 0ba6 a13c
000000d0: d400 7e3d c594 d73d dfe8 003d e50d 35be
000000e0: 0ee6 ab3e 05c7 de3d 68c4 debd 2ebc efbc
000000f0: a7b0 a73d 6d41 a83e 2fcf 203d 0c25 603d
-0.12680247 -0.024689764 0.027336318 -0.050182387 -0.0437534 -0.15022504 0.14414595 -0.13997425
0.1554903 0.048728704 0.0008831265 0.11451127 0.19226354 0.13800739 -0.18827029 -0.39936987
0.055852566 -0.21378438 0.027960652 -0.06645446 0.042890064 0.038673103 -0.35762063 0.011543068
-0.1842841 -0.20217738 0.059575904 -0.10318877 0.29755315 -0.24453798 -0.056615617 0.15493973
-0.21867356 -0.12400543 -0.1631564 -0.2843855 0.32222253 -0.00927752 0.105999306 -0.03524975
0.042839803 -0.06726017 0.2075833 0.03240468 0.12386077 0.17885216 0.22353877 -0.23388052
-0.19685212 0.17564304 0.3871364 0.019732496 0.06201251 0.105264224 0.031472083 -0.17681082
0.33573955 0.10877804 -0.10877305 -0.029264536 0.08187991 0.32862416 0.039260086 0.05472283

fallback.mp_gats.0.gat2.bias f4 [64]
00000000: d45e bebb e8b7 a1bb 4a18 2bbc a51f efbb
00000010: 3d4e d53c 0265 923c ecaa 1ab8 8d67 f1ba
00000020: 2602 6ebb e7a8 b43b e40d 5cbc 71c1 1dbc
00000030: 463f ed3c dd0e 2bbc 6e34 4b3b 8b70 b9bb
00000040: cc97 a23c 6fc7 513c 676c 223c 434e 55bb
00000050: 2554 d83a 7dda 933b 9db8 49bc 17b9 903c
00000060: 4bb9 7e3c f21d 98bb 03a6 c7bc c41b f63c
00000070: 5f80 5c3c da63 6b3c e56d fcbc ebf2 473c
00000080: ffb3 2a3c ea5b e4bc 93fa 27bc 15bc 02bb
00000090: 761e 75bb 9dec b1bb cf40 c73b 6bc9 28bc
000000a0: 0a03 85bc 70a9 873b 30ae 14bc 6705 3e3c
000000b0: 4c09 2ebc 1b79 0c3c 8cdb c83a 73d2 28bc
000000c0: 269e a6bc 3caa fcbb 7f44 633c 81e3 863b
000000d0: 884e 173c 5cca 5a3b 3ef8 41bc 3dcc a2bc
000000e0: c0de f3bc b3ad df3b abdb 0e3a 5274 c3bc
000000f0: 4514 8b3c c916 8ebc abb8 89bc 7a36 923b
-0.0058096442 -0.0049352534 -0.010442803 -0.0072974735 0.026038283 0.01787043 -3.6875645e-05 -0.0018417701
-0.0036317199 0.005513299 -0.013431046 -0.00962864 0.028960835 -0.010440555 0.0031006592 -0.005659168
0.019847773 0.012803896 0.00991354 -0.0032547868 0.0016504569 0.00451213 -0.012312082 0.017666383
0.015547107 -0.0046422416 -0.024371153 0.030042537 0.01345834 0.014367068 -0.03081412 0.012203912
0.010418891 -0.02787586 -0.010252613 -0.0019948531 -0.003740219 -0.005429818 0.006080724 -0.010301928
-0.0162368 0.0041400716 -0.009074733 0.011597968 -0.010622334 0.008573796 0.0015324219 -0.010304081
-0.020339083 -0.007710723 0.013871311 0.004116476 0.009235032 0.0033384776 -0.011838971 -0.019872779
-0.029769301 0.0068261265 0.0005449603 -0.023859177 0.016977439 -0.01734485 -0.01681169 0.0044620605

fallback.mp_gats.0.gat2.fc.weight f4 [64, 64]
00000000: 10c3 fcbe 63b6 3b3e 172f 713d 1333 efbe
00000010: 7439 273e 76ff be3e 7951 19bd 028f 00be
00000020: faed 9d3d 9d4e 853d beea b43c ba2a 9a3d
00000030: e001 073e b0dc e1bd 697b d2be cd30 a6bd
00000040: 09b1 31be f365 ac3e b182 efbb 9007 0abd
00000050: 3e2c 3fbd cc09 cf3d 2fde ea3d f851 39bc
00000060: 0c42 91be 0b9e 0abd 5b69 e5bd 9158 7cbe
00000070: 0e66 3c3e 5548 1dbe 2962 933d e611 9b3c
00000080: 278a 843c c4c5 a93c 7b8e 7f3b a570 9f3d
00000090: 0345 173e d776 093e 8168 8c3d 51df 863e
000000a0: 5204 803c a9b1 0cbe d581 1dbe 0683 033e
000000b0: fed0 893d 055d 463d bd88 083e 9f28 b13d
000000c0: a63a 0c3d b41e 123b f9d1 22bd ae6c 1a3e
000000d0: e058 87bc 13d6 7b3e f0c5 4838 5ad3 51be
000000e0: 863e 9a3e 67fe 843e 95fb 07be 924e 32be
000000f0: 16f9 a5be 6213 833d a02f 23be 901f 553b
00000100: 861a 86bd af5f f1bd 22a9 a6be 206d 0dbe
00000110: c8e2 64bd 94a8 34be f76f 0a3e 4013 07be
00000120: a803 b1be f8c2 403b ce84 88bd bcb5 d2bd
00000130: 717f d83c 5be7 253e 74fd 043e 1a7f 30be
00000140: 3f8a 8bbe f8ef fa3d 4373 ae3d bdf0 d83d
00000150: d9af 3fbe b9d2 67bd 36bc 99be cef9 403d
00000160: 866a fc3c 1fc5 eebe cd92 13be 49b3 873e
00000170: 66bf 003e e416 dabe 186e 5bbd 3dd3 00bb
00000180: 2171 5abd 7e5f a93e 6f4a 0f3e a37a 59bc
00000190: 3632 6c3d 6a69 4f3d b5ad 9f3d 2f6a 6e3d
000001a0: 34b5 893c b7eb babe 5ff0 6abe ee65 39bc
000001b0: 2753 c4bd 42d3 383e e5d1 f1bc 3126 2b3e
000001c0: 9111 d0be f969 c63d 3a30 a43d ffa9 34be
000001d0: 6c65 aabe 2115 23be eab7 853e 64ea 1cbd
000001e0: 0ba2 bd3d 85e3 773e eae5 873e 18bd a9bd
000001f0: 6bf0 5a3c dc06 2a3e 786e bc3e cca1 43be
00000200: 0e0e 203e b30a aebe 31cc 333e 62ba 863e
00000210: aea2 91bc 96eb 0cbe ceae ba3d 65d9 9bbd
00000220: e572 c4be 4fdc 68be e48f 74be 0504 eabd
00000230: b211 75be 1574 8dbe a3cd 80bd c5ea f33c
00000240: ad38 9bbe c38e 683e ccda 873d c35e a3be
00000250: ddae 6dbe 3e1b 533c 3a2c a5be 723b 613e
00000260: 2ec4 5abe 1698 bcbd c995 3c3e de03 8a3d
00000270: a553 6c3d 48e9 523c a609 27bd 379d cb3d
00000280: de4f 983e 4240 6dbb 4cf6 8b3d a7fe 65be
00000290: 80e1 273e 82e4 f53d 6ab2 0ebb 8b66 99bd
000002a0: f217 22be 8f01 9dbe 7dac 183c ea07 39be
000002b0: c303 033e 0436 0abe 39fd d03d 9ce9 1dbe
000002c0: 3587 a53d c9f4 3f39 92eb c23e b633 7dbe
000002d0: 845d 4e3e e254 0b3e 3716 183d 66af 48be
000002e0: 876e 7bbe 85fc 033e 9685 5ebe 0910 c2bc
000002f0: af15 b23d fc30 e7be 364f c13c f47e 3dbe
00000300: e6b4 35bd 068e cb3d 4c4c 11be 221d 1bbe
00000310: cf57 c6bc 6d8e 963e 914d 8f3d 92dd e73d
00000320: f9f5 783e 5d06 463e c95c 62bb fbd1 91bd
00000330: 277e 4b3d c78b 043d 16d2 7c3c d821 33bc
00000340: df4a f2bd aa1c 593e 70c2 30be 90c6 c8bd
00000350: eeb0 e43d 8d8a 3c3e cc29 65bc bd3f 2e3e
00000360: 2f09 103d ada7 503c 07af 1c3b fab7 c63d
00000370: ddaa 8a3e 78cf 1e3e 5285 91bd c968 0e3e
00000380: 8237 023e 2c4e 3b3e b2a3 133f 8f1f bcbb
00000390: 6f43 5cbb 87c6 293e f547 f2bd ad40 683e
000003a0: 0a21 e03c f281 aa3d ac55 7a3e fc27 d8bc
000003b0: 147e 143d d418 cf3e 3b21 1abc 2137 783d
000003c0: 6241 a4bb 84ae 993d 0577 e33d 0395 f5bd
000003d0: aeaa 8c3e 0ed5 eb3c 89a5 e8be 8813 b0bd
000003e0: 149f 87bd d090 f43d 4660 0abe f255 82be
000003f0: 7df4 2e3d 5542 2c3e 8a6b 15be c802 92be
-0.4936757 0.18331294 0.0588828 -0.46718654 0.1633051 0.37304276 -0.037431214 -0.12554553
0.07711406 0.06509135 0.02208459 0.07527681 0.13184309 -0.11028421 -0.4110978 -0.08114777
-0.1735269 0.3367153 -0.007309281 -0.03369862 -0.046673052 0.101092905 0.114681594 -0.011311047
-0.28370702 -0.033842128 -0.112017356 -0.2464316 0.18398306 -0.15359624 0.07196457 0.018929433
0.016179157 0.020724185 0.0038994837 0.07785157 0.1477242 0.1342424 0.0685587 0.26342252
0.01562706 -0.13739647 -0.15381558 0.1284295 0.06729315 0.048428554 0.13333412 0.08650326
0.03423562 0.0022296133 -0.039751027 0.1508052 -0.016521871 0.24593382 4.786806e-05 -0.2049078
0.30125827 0.25975344 -0.13279565 -0.17412785 -0.324166 0.06400181 -0.15936136 0.0032520033
-0.06548028 -0.11785828 -0.32550913 -0.13811159 -0.055880338 -0.17642432 0.13519274 -0.13190937
-0.34573102 0.0029413085 -0.066659555 -0.10288569 0.026427956 0.16201536 0.1298731 -0.17235985
-0.2725391 0.12252802 0.08518078 0.10592792 -0.18719424 -0.056597445 -0.30026406 0.047113232
0.030812513 -0.46634766 -0.14411469 0.2650397 0.12573013 -0.4259559 -0.05357179 -0.0019657158
-0.053330544 0.33080667 0.13993238 -0.013273868 0.057665072 0.05063764 0.07796804 0.058206733
0.016810037 -0.3650796 -0.22943257 -0.011315806 -0.095861726 0.18049338 -0.02951903 0.16713788
-0.40638402 0.096881814 0.08017011 -0.17642973 -0.33280504 -0.15926029 0.26116878 -0.03830947
0.09259423 0.24207886 0.26542598 -0.0828802 0.013362984 0.16604179 0.3680303 -0.1910469
0.15630361 -0.33992538 0.17558362 0.26314074 -0.017777767 -0.13761744 0.091153726 -0.07609824
-0.38368908 -0.22740291 -0.23883015 -0.11426548 -0.23932531 -0.27627626 -0.06289222 0.029775033
-0.30316678 0.2271071 0.06633529 -0.31908235 -0.23211236 0.012884913 -0.32260305 0.21995333
-0.21363899 -0.092086956 0.18416514 0.06739019 0.057696957 0.012873001 -0.040780686 0.09942096
0.29748434 -0.003620163 0.06834087 -0.22460423 0.16394615 0.12006475 -0.0021773824 -0.07490262
-0.15829447 -0.30665252 0.009318468 -0.18069425 0.12794404 -0.13497168 0.102045484 -0.15421146
0.08082429 0.00018306369 0.3807035 -0.24726757 0.20152861 0.13606599 0.03713056 -0.19598159
-0.24553882 0.12889297 -0.21730646 -0.023689287 0.08695542 -0.4515456 0.023597341 -0.1850546
-0.04436197 0.09939198 -0.14189261 -0.15147832 -0.024211792 0.29405537 0.069972165 0.11321558
0.24312581 0.19338365 -0.0034540168 -0.07120129 0.049680855 0.032359865 0.015430948 -0.010933362
-0.11830687 0.2120234 -0.17261672 -0.09803498 0.11166559 0.18412228 -0.013987016 0.17016502
0.03516501 0.0127352895 0.0023908035 0.097030595 0.27083483 0.1550883 -0.07105507 0.1390716
0.12716487 0.18291539 0.57671654 -0.0057410668 -0.003360953 0.16579638 -0.11830131 0.22680922
0.027359504 0.08325566 0.24446744 -0.026386254 0.03625305 0.4044863 -0.009407337 0.06059945
-0.005012677 0.07503989 0.111066855 -0.11991312 0.27473968 0.028788116 -0.45438793 -0.08597475
-0.066221386 0.11941683 -0.13513288 -0.25456196 0.04271363 0.16822179 -0.14591804 -0.28517747

fallback.mp_gats.1.gat1.attn_l f4 [1, 8, 8]
00000000: 7efa b43d e0a8 64be 33cf 143e e99a 9b3e
00000010: a283 0c3d 7e44 0d3e 285b e53c 2803 413e
00000020: 6cc7 703e fd25 d4be a051 d33d 587b 29be
00000030: d719 6bb9 ad33 143d ec8d e13e 6a74 b83c
00000040: 0207 923d 19b9 153f 4a74 18bd 6fe9 5cbe
00000050: 1d5e ae3a b19f 7f3d cbb4 cb3e 2fb7 aa3e
00000060: a1db 59be daef 22be a82b a53c abc7 d53d
00000070: 048d 79bc 79e9 003f 471a 233d 6238 d439
00000080: 46fc b2be 61e2 f9bd 679d eb3b d3e0 63bd
00000090: 764f f73b b8fa ccbc 9b7c d9bd b278 a83d
000000a0: 8d5c b63d aabd 6dbe d35e 2cbd c845 2d3d
000000b0: 6a3a 14bc 18ee 043d d470 663e 419f a3be
000000c0: 803d bc3c 7dad 5bbe 0147 afbd 1144 6a3e
000000d0: 2c57 11bd 8cbf f6be c42d ba3c 6d07 26be
000000e0: 57d2 48be 1a18 dc3e ae3e 8ebe 45cc fdbc
000000f0: fa37 3cbd 2701 533d 0177 33be 32a0 acbc
0.0883684 -0.22330046 0.14532165 0.30391625 0.034305222 0.13795659 0.027997568 0.1884886
0.23513573 -0.41435233 0.10318303 -0.16550958 -0.00022420973 0.036182094 0.4405359 0.022516448
0.07130243 0.5848556 -0.037220277 -0.21573423 0.0013303194 0.062408153 0.39786372 0.33342883
-0.21275188 -0.15911809 0.020162418 0.10438474 -0.015231375 0.5035625 0.039819982 0.000404778
-0.34958094 -0.122013815 0.0071903947 -0.05563433 0.0075473143 -0.025021896 -0.1061947 0.08226146
0.089043714 -0.23216882 -0.04208262 0.042302877 -0.00904713 0.032453626 0.22503978 -0.3195744
0.022978544 -0.214529 -0.08558465 0.22877528 -0.035483524 -0.48193014 0.0227269 -0.1621377
-0.19611488 0.42987138 -0.27782196 -0.030981192 -0.04595182 0.05151477 -0.17525865 -0.02107248

fallback.mp_gats.1.gat1.attn_r f4 [1, 8, 8]
00000000: 10bf 443e 40be 2e3d cad1 9b3c a319 90bd
00000010: f02d 4a3d 1c0b ea3d fb71 6dbe e978 473d
00000020: b792 98bd e554 0fbd 7380 6ebc 9709 5cbe
00000030: 98a7 5d3d 2429 6e3b 26cb 803e 8676 edbd
00000040: c4e6 7e3e af2e 15be 7481 503d f778 4a3c
00000050: 1231 c9be cfe9 6abe 6f32 693e 3873 d23d
00000060: de9c 663c 37eb 55be 5a47 57be 1ed6 30be
00000070: 120c df3e a56b 19bf d983 703e 29a0 823e
00000080: ca67 5dbc 5b52 243d 503a ec3d 2382 cfbd
00000090: c086 18be e38f 103e 4133 c7be c074 f2bc
000000a0: 7053 a4bc b4ac f1bd b8d2 90be 6306 6dbd
000000b0: 2570 3ebe 25ca 0bbe 7611 903d 46af 893e
000000c0: 0735 f13c 9b8e cd3e 2aa9 acbc 3d4c b13d
000000d0: f465 15be f0da a2bd 8b72 fc3d f0b6 afbe
000000e0: 7759 1abd 29c4 053e 4fc3 cc3e 67fb fc3d
000000f0: 260a 033e b73a b83c 797b a73c e160 95be
0.1921351 0.042661905 0.019020934 -0.0703614 0.049360216 0.114279 -0.23188011 0.048699293
-0.07449859 -0.03499307 -0.014556992 -0.21488033 0.054114908 0.003634044 0.2515499 -0.11594872
0.24892718 -0.1456859 0.050904706 0.012357942 -0.3929525 -0.22940753 0.22773145 0.102758825
0.014075486 -0.20890509 -0.21023312 -0.17269179 0.43563896 -0.5992988 0.23487796 0.25512818
-0.013513515 0.040117603 0.1153456 -0.101322435 -0.14895153 0.14117388 -0.3890629 -0.029596686
-0.020059317 -0.11800519 -0.28285766 -0.05786742 -0.18597467 -0.13651331 0.070345804 0.26891536
0.02944423 0.40147862 -0.021076757 0.086571194 -0.14589673 -0.07951915 0.12326535 -0.34319258
-0.037682977 0.1306311 0.3999276 0.12352639 0.1279684 0.022488935 0.020444619 -0.29175475

fallback.mp_gats.1.gat1.bias f4 [64]
00000000: 709a 863c 0293 20bc ee15 f3bc d78f 14bc
00000010: e9de 8d3c ce88 443c 2543 eabc 13b3 6e3c
00000020: 008a 0abd de5d 1b3d dc56 e33b bf58 d53a
00000030: 9f78 853c 34c0 a8bc 3bf7 92bc 200b bcbc
00000040: 3741 ea3c eb10 11bd 0c6f e63c 6d3b 573b
00000050: c41c 1d3d e5c5 11bd 6d34 3ebd 39bb 03bc
00000060: eeba e5bc 77a9 023d b80a d5bc 6316 283d
00000070: 3d95 513c ca15 493c 4fb2 333d 38ab 9c3c
00000080: 9d97 12bd d919 473c 6a06 b13c cddd d03c
00000090: 565c 7e3c 3ebc 793a 9d52 2cbd b685 fdbb
000000a0: 7592 3c3c 736a 2abb dd61 2e3b ce23 653c
000000b0: fda4 18bd 1769 713c 5d90 29bd cc27 0e3c
000000c0: b48a cdbc d802 9dbb a2f0 bebc a209 02bd
000000d0: e6e0 143d fd1e 173c 7959 083c 4741 f0b9
000000e0: 7eb7 023d 5a3c d03c 19cf 06bd a145 02bc
000000f0: d2eb 253d 71ed cc3c 65d5 efbb 5691 babc
0.016431063 -0.009800674 -0.029673543 -0.009067497 0.017318206 0.011995507 -0.02859647 0.014569062
-0.033823013 0.037931316 0.0069378447 0.0016277059 0.016292868 -0.020599462 -0.017940154 -0.022954524
0.02859555 -0.035416525 0.028129123 0.0032841817 0.03835751 -0.035589118 -0.046436716 -0.008040243
-0.028043237 0.031899896 -0.026006088 0.041036975 0.012791929 0.012273261 0.04387122 0.019124612
-0.03578912 0.012152159 0.021609504 0.025496388 0.015524944 0.00095266465 -0.042070974 -0.007736887
0.011509527 -0.002600339 0.0026608624 0.013985587 -0.03726672 0.014734528 -0.04139744 0.0086764805
-0.025090553 -0.0047915988 -0.023308102 -0.031747468 0.036347292 0.009223697 0.008322113 -0.00045825003
0.031913273 0.025419403 -0.032912347 -0.007951171 0.0405081 0.025015565 -0.00731914 -0.02277438

fallback.mp_gats.1.gat1.fc.weight f4 [64, 64]
00000000: 10e8 413d fd78 ee3e 41c1 b7bd 3151 92bd
00000010: 8f48 953e ece9 33bd 8b62 66bd c7f0 90bd
00000020: 4ed0 c63c ba35 55bd 535f 19be 2143 19be
00000030: ef0b 09bd b7b6 8cbd e05b 533c 2e3e 05be
00000040: 76ea e8bd 4a66 27be 2a62 0fbe 7ac7 1fbe
00000050: d9c8 2abe 19c6 d1bc b3f1 82be 7619 c6be
00000060: c560 413b 454d 883e 3484 6abc 89f1 46be
00000070: 2e26 29bd e5bf 0f3c 1875 4bbe f997 2bbe
00000080: 8004 8abd fe69 23be 7018 703e 609d 6d3e
00000090: c321 093e 5fc6 c63d 2246 563e 7a81 af3e
000000a0: 5750 383e 5a77 d43d 0751 a13d 545a 86bd
000000b0: 51d7 e53e df09 ff3d 6031 1b3d 0129 b4bc
000000c0: 224f 3c3d ec8e 753d 2874 cebd 1994 37be
000000d0: 1d55 d73d 80af 54be 3613 c1bc bc04 1bbc
000000e0: c519 7cbe 1249 2c3e 1129 483e 0767 f83d
000000f0: c5b5 3abe a9da 8cbe 79ae a43e d7dd 8cbc
00000100: 7ec5 7a3e 2134 a5bd 618d 703e 8a98 863e
00000110: 6437 37bc b854 583e 9af1 763e eadb 02be
00000120: 0000 5d3e aa52 243e 6966 b8bd c191 e13c
00000130: 745a 93bd 4644 913d aad4 113c 3048 463e
00000140: 7642 0dbc c0f7 2a3d 3b07 443e fa64 96be
00000150: 124a 013e 6edc 03bd e1fa ad3e 2f5d 15be
00000160: db3c cebd 227c fa3c 8d41 31bd f77a c6bd
00000170: 2068 673d 2178 a6bc 0cd4 c53e b1d6 edbe
00000180: 85f3 723e db1c 3d3d c903 733d 96d2 173e
00000190: 5044 9dbe 5172 f0bb f33a 03be 1648 2f3e
000001a0: a1c6 edbd f985 35be 2cc7 323e ce24 8e3d
000001b0: cda3 6abe 2ff9 89be ffa5 513e 0995 613a
000001c0: c2d5 13be b7b3 303e 3679 a1bd 4ee1 a2bc
000001d0: cd27 61be 11df 823e d668 883a 9cc5 2ebd
000001e0: 23f5 aa3e da61 5a3a 1243 fcbd 6c7e ff3d
000001f0: a0d0 803d b31f 08bd c4f5 d7bd d7c5 4fbe
00000200: 7a27 4a3e 025e ecbd 72c7 51be 60bc 1f3e
00000210: 12a9 06bb cb73 12be 0161 48bd 16f0 7dbd
00000220: aa5d 1b3e 596c 39bd 891f c03d 2190 6f3d
00000230: 5d19 3cbe f1ef 033e 75ae 583c 5744 0c39
00000240: ca34 84be 8f6c fabd c764 fe3d e145 a73e
00000250: 9f24 47be d1df 7b3e b686 993d d05f 31bd
00000260: 02a8 dd3b c032 23be 5795 f0be b5ba 6ebd
00000270: 60b6 343e de55 113e d02b 79bb 2064 25bd
00000280: 0480 55be 61da c23d d97f 16bd d408 de3d
00000290: 9250 b53c 6865 2d3e 74c8 983e cb38 993d
000002a0: 652b d73e 7aad 993d 388c 263e 6f46 86bd
000002b0: 7802 2dbe 03e9 5e3e 7e78 1b3e fbf1 29bc
000002c0: 305b 03be 7873 50be 0778 653e 5995 b839
000002d0: 3917 14be d050 36be 198a 273e 0446 443e
000002e0: a960 053e 4fee 8d3e d293 a53d d495 ee3d
000002f0: 9347 f03d ca1b 23bd dded ea3d aefe a13d
00000300: 8142 d2bd 4676 24bd 5c28 ed3d bc0a 8e3e
00000310: a583 413d 182d d4be cd81 6e3e 0ca1 0f3e
00000320: 8557 1bbd ff84 0c3d 200f be3c a5a5 903e
00000330: 5c40 3f3e 4d1f 01be 62a2 54bd cf4a 05bb
00000340: 423c 58be f70d 053e 094e 18be e2cf 27bd
00000350: f1eb 08bd 04ab 9cbd cfaf 363e bdcc f23d
00000360: 3c33 593e c17f a23e 4e10 b1bb 9a71 833e
00000370: e2a6 6fbe 915d 6e3e 2f4e 18be 112a 5bbe
00000380: 39d2 82be b975 4d3e b214 7cbe 6553 96be
00000390: 9734 e0be 69d6 523d 4707 5e3e afbd 373d
000003a0: 5be9 72be b0f6 483d 15e7 193e c065 fabe
000003b0: a4e1 c23d 9f70 20bc 4865 14bd 83f5 08bd
000003c0: 8249 7d3e 0614 01bd ee9e ba3d f028 a2bd
000003d0: d850 ddbc 83a5 123c f5d7 22be d219 cc3d
000003e0: 1f6d c2bc a82a 94bd 3f2e 95be aaab 1d3e
000003f0: d310 013e 30e2 59be 12f0 ba3e 2c50 fcbd
0.047340453 0.46576682 -0.08972407 -0.07144392 0.2915692 -0.043924257 -0.05624632 -0.07077175
0.02426925 -0.05205319 -0.1497777 -0.14967014 -0.033458646 -0.068707876 0.012900323 -0.13012001
-0.11372845 -0.16347614 -0.1400229 -0.15603438 -0.1667818 -0.025607156 -0.25575027 -0.386913
0.0029507142 0.26621452 -0.014313746 -0.19428076 -0.041296177 0.008773779 -0.19868886 -0.16757192
-0.067391396 -0.15958402 0.23446822 0.23204565 0.13391785 0.09705805 0.20925191 0.3427847
0.17999397 0.10374327 0.07876783 -0.065601975 0.44890836 0.12453055 0.037888885 -0.021992208
0.045973904 0.059950754 -0.10080749 -0.17927589 0.10514281 -0.20770073 -0.02356873 -0.009461578
-0.24619205 0.16824749 0.19546916 0.12129026 -0.18233402 -0.27510574 0.32164362 -0.017195625
0.244894 -0.080665834 0.23491432 0.26288253 -0.01118264 0.21126068 0.24115601 -0.12779203
0.21582031 0.16047159 -0.09003908 0.027535321 -0.07194987 0.070931 0.008900801 0.19363475
-0.008621803 0.04174018 0.19143383 -0.29373914 0.12625912 -0.03219264 0.33980468 -0.14586328
-0.10070201 0.03057677 -0.043275405 -0.096914224 0.056495786 -0.020320954 0.3863834 -0.4645286
0.23725708 0.046170097 0.05932978 0.14826426 -0.3071618 -0.0073378463 -0.12815456 0.17117342
-0.11610151 -0.17726888 0.1745879 0.06940614 -0.22914048 -0.26947924 0.20473479 0.0008605277
-0.14437011 0.17256056 -0.07884447 -0.019882824 -0.21987839 0.2556081 0.001040722 -0.042668924
0.3339015 0.0008330621 -0.1231748 0.12475285 0.06289792 -0.033233356 -0.10544923 -0.20290314
0.19741622 -0.11541368 -0.20486239 0.15599203 -0.002054755 -0.14301984 -0.048920635 -0.061996542
0.15172449 -0.045269344 0.09381015 0.05848706 -0.1836905 0.12884499 0.013225188 0.00013376899
-0.25821525 -0.12227737 0.124215655 0.326705 -0.19447564 0.24597098 0.07496397 -0.043304265
0.006764413 -0.15937328 -0.46988937 -0.058283526 0.17647696 0.14192912 -0.00380205 -0.04037869
-0.20849615 0.09514309 -0.03674302 0.108415276 0.022133145 0.16933215 0.29840434 0.074815355
0.42025295 0.07503791 0.16264427 -0.06556403 -0.16895473 0.21768574 0.15182683 -0.010372634
-0.12827754 -0.20356548 0.22409068 0.00035206488 -0.14461984 -0.17804265 0.16361274 0.19167334
0.13025154 0.27720878 0.08084835 0.11649671 0.11732402 -0.039821424 0.1147115 0.079099044
-0.10266591 -0.040151857 0.115799636 0.27742565 0.047244687 -0.41440654 0.23291703 0.14026278
-0.037925262 0.034306522 0.023200572 0.28251377 0.18676895 -0.12609597 -0.051912673 -0.002033878
-0.21116737 0.12993608 -0.14873518 -0.040969737 -0.033428136 -0.07649806 0.17840503 0.11855457
0.2121095 0.31738093 -0.005403555 0.2567261 -0.23403504 0.2327788 -0.14873575 -0.21402766
-0.25551012 0.20064439 -0.2461727 -0.293605 -0.43790123 0.05147401 0.21682464 0.04485863
-0.2372183 0.049063385 0.15029557 -0.48905754 0.09515694 -0.009792476 -0.0362294 -0.033437263
0.24735072 -0.031513236 0.09112345 -0.079179645 -0.027016088 0.008950594 -0.15902694 0.09965862
-0.023733674 -0.072346985 -0.29136845 0.15397516 0.12604074 -0.2127769 0.36511284 -0.12319979

fallback.mp_gats.1.gat2.attn_l f4 [1, 1, 64]
00000000: 66ec 2e3d 0f51 d2bc 0664 c63d bf7b 60be
00000010: 0817 3abe d82c c7be 016f 163e e5a2 e8bb
00000020: d47f 3e3e 1026 103e 84f0 cd3c b729 683d
00000030: 8259 353e 2a6d 98bd c62f fabd cb64 02bd
00000040: 1505 d0bb bc72 293e 58fe 5f3d b1ff 40bd
00000050: ecb0 3e3d 5c22 adbd 3f26 edbd 930f c0bb
00000060: 3cdf 1cbc 50b8 893c 7060 88bd b216 793d
00000070: 321f 973d f712 563e 4c96 953d adce 2dbc
00000080: 027c 403d 603f a23b a606 7e3d 6c09 0b3e
00000090: 65be f8bd f2b8 1cbe 0d09 f43c e066 14be
000000a0: 3d74 86be 31b8 dcbc 13af 193e af34 bebd
000000b0: 75cc 05bb c604 09bd 7bed 9c3d da5d 90bd
000000c0: c1ff 4cbe 1bfc 4a3d c5aa 153c 003d c33b
000000d0: 5b6e 0bbc b0a3 5fbe 9475 0dbd a09f 17be
000000e0: 558c 2dbe c189 9f3c 5aa4 19be 56c1 0e3e
000000f0: 9523 19bc f7aa a13b f2f4 efbb faf1 10be
0.042705916 -0.025673417 0.09687047 -0.21922205 -0.18172848 -0.389014 0.14690782 -0.0070994967
0.1860345 0.1407702 0.0251391 0.056680407 0.17709926 -0.074426964 -0.12216143 -0.031834405
-0.006348262 0.16547674 0.05468592 -0.047118846 0.046555445 -0.08453819 -0.115795605 -0.0058612316
-0.009574708 0.01681152 -0.06659019 0.06081266 0.07378997 0.20905672 0.073040575 -0.010608357
0.046993263 0.0049514025 0.06201806 0.13577813 -0.1214569 -0.15304926 0.029789472 -0.14492369
-0.26260558 -0.026943298 0.15008192 -0.09287392 -0.0020416055 -0.033451818 0.07662483 -0.07049151
-0.20019437 0.049556833 0.009134953 0.0059581995 -0.0085101975 -0.21839786 -0.03453596 -0.14806986
-0.16948064 0.019474866 -0.15004101 0.1394094 -0.009346862 0.0049337107 -0.007322901 -0.14154807

fallback.mp_gats.1.gat2.attn_r f4 [1, 1, 64]
00000000: 0424 4c3d 4904 b43a 3f2c 293e 56b3 5ebe
00000010: 9c83 65bd c6db bc3c 03c3 783e e65e 923d
00000020: c713 47bd 4373 afbc 2878 583e d34a 613e
00000030: 6b5b 16be 6f5e 88be fc0f 243c 4b2b 603e
00000040: 226f 38be 1c8d b938 443a 873d c79b e6bb
00000050: a9cc f63b da31 023e 5de0 70bb 5c57 aa3d
00000060: a8d3 4ebd 13de cb3b d6de a9be 1dd5 f2b9
00000070: a921 97be d722 5c3d ef05 6a3d ecdd 5a3c
00000080: 9806 b9bd 0520 7d3d 91d3 c8bb 0ceb 7d3d
00000090: 9235 29bc d335 e73d 99bf ddbc df92 edbc
000000a0: e046 7abe ddf1 8e3e d07d 743e 5f56 6a3b
000000b0: 3a24 2a3e 6801 9a3b c5eb 92bd 6a73 9cbc
000000c0: 4f02 33be 0220 563d d83f 3cba 13ba 55be
000000d0: 371e 2abb 4986 a93d 8d27 993e ac3d 983d
000000e0: 1b7a 413d 71c0 273d c16c 2d3c 0650 963c
000000f0: 6cb0 903d 5678 423e 7c93 0e3c 577c eebc
0.049839035 0.0013734187 0.16520785 -0.21748099 -0.056033716 0.023054015 0.24293141 0.07147007
-0.048602846 -0.021417266 0.21139586 0.220012 -0.1468331 -0.26634547 0.010013577 0.21891515
-0.18011144 8.847771e-05 0.0660291 -0.007037613 0.0075317216 0.1271433 -0.0036754825 0.08317444
-0.05049482 0.0062215417 -0.33177823 -0.0004631662 -0.29517868 0.053744163 0.057134565 0.013358574
-0.09034461 0.061798114 -0.0061287363 0.061991736 -0.010327714 0.11289563 -0.0270689 -0.029000698
-0.24441099 0.27918902 0.23876119 0.0035757048 0.16615382 0.0046998747 -0.07173876 -0.019098002
-0.1748135 0.05227662 -0.00071811443 -0.20871763 -0.002595795 0.08277566 0.29912987 0.07433638
0.04723559 0.04095501 0.010585011 0.018348705 0.070649 0.18991217 0.008702155 -0.029112024

fallback.mp_gats.1.gat2.bias f4 [64]
00000000: f440 19bd a316 213d 566b 7c3c 0b41 ebbb
00000010: 875a ad3c 67ad e0bc 3816 083b 8659 3abd
00000020: 8330 0d3d be28 283d 6111 d2bc 522d 2bbc
00000030: 260c 0c3d 1744 093d ad52 5cbc 1ef2 54bc
00000040: 8af7 8ebb 3617 893c 01ee 8f3c 46d2 903c
00000050: b962 273d 6468 d43c 9106 04bd 828e 023d
00000060: 9b33 403c 4722 12bd 5b50 30bd 0027 443b
00000070: 1ad0 b63c a845 1a3d 3800 1f3c e86a b13a
00000080: 649b c4bc 1608 c8bb 8609 01bd e0f7 30bc
00000090: 5732 b1bc dcab ec3b b615 6eba ece0 083b
000000a0: a09a 0fbd d8bd 63bc 4b67 fd3c e415 4ebc
000000b0: b8f1 1abd 307f 253c 2db3 023c 2800 373d
000000c0: 9a56 1bbd 3c7f 07bd d92e 213d eadb 44bc
000000d0: 5c23 18bd 66b3 b63b ed91 0ebd bee6 28bd
000000e0: fc20 0cbb bdc3 98bc 9342 c23c 2651 06bd
000000f0: c999 f23c 0b39 173d 02b5 31bb d2b8 aa3b
-0.03741546 0.03932823 0.01540645 -0.0071793846 0.02116133 -0.027426435 0.0020765197 -0.045495532
0.034470093 0.04105448 -0.025643053 -0.010447817 0.034191273 0.0335122 -0.013447446 -0.012997178
-0.004363005 0.0167347 0.017569544 0.017678391 0.040865634 0.025928684 -0.032232825 0.031874187
0.011731054 -0.03567722 -0.043045383 0.0029930472 0.022316027 0.037664086 0.009704642 0.0013535889
-0.023999877 -0.0061044795 -0.031503223 -0.0108012855 -0.02163045 0.0072226357 -0.00090822147 0.0020886017
-0.03505957 -0.013900243 0.030933043 -0.012578461 -0.037828177 0.010101125 0.007977289 0.044677883
-0.037924387 -0.033080325 0.039351318 -0.012015322 -0.037143096 0.005575585 -0.034807134 -0.041235678
-0.0021381965 -0.018648023 0.023713386 -0.032792233 0.029614346 0.036919635 -0.0027115946 0.0052100206
