benchmark/HAN/checkpoint/rep4.pt (torch, 555468 bytes, 21 tensors)

fallback.proj.0.weight f4 [64, 1870]
-0.00037222434 0.0012560585 0.05954338 0.018924618 0.011439296 0.025653841 0.024466299 0.017744511
0.05107853 0.014843299 0.031286035 0.021850133 0.022386821 0.037681125 0.0045460663 0.021251047
0.029319877 0.012202023 0.016365446 0.012817097 0.0005387042 0.008775911 -0.012202609 0.03329791
0.05115893 0.013825822 0.068076074 0.019108882 -0.06694244 -0.0154802585 0.015058038 0.020369712
0.042842485 -0.033785645 -0.040805683 0.033424094 0.04163773 0.015519912 0.03595197 0.023005228
0.002180599 0.0042310017 0.024846565 0.070599064 0.036973484 0.019832488 0.038769186 0.032680236
0.004703031 0.0024834597 0.04442989 0.03484088 0.002702351 0.037865404 -0.051060323 -0.045191478
0.04071903 -0.051049795 0.027506853 -0.0036455293 0.030209284 0.0037391048 0.05924454 -0.00024213608
0.00928308 0.030823698 0.009681388 -0.023194397 -0.01443434 -0.047513302 0.029312614 0.049496118
-0.038587116 -0.0066418927 0.018630132 0.029492255 -0.019815022 0.07925742 0.0088298805 -0.010604639
0.053286914 -0.01787325 0.025202904 0.036968786 -0.064031854 0.016090795 0.03768185 0.006065371
0.021413028 -0.027676035 -0.007071742 0.061143577 -0.045202628 0.04413058 0.037247147 -0.005064824
0.01934142 0.026154691 0.053122092 -0.01968611 -0.02094944 -0.030733041 0.020984687 0.006059181
-0.020273555 0.012514693 0.008947877 0.02091142 -0.03137961 0.04080419 -0.029858738 0.069933265
0.05037204 0.015117903 0.02740304 0.025619142 0.02341283 -0.030816816 -0.01087916 -0.043065608
-0.011747065 0.021485012 0.043178998 0.03944765 0.008341253 -0.0022214367 -0.023777995 -0.0063464786
0.015675398 0.035328094 -0.01850726 -0.022731055 -0.048242804 0.0029810597 0.043496083 0.04897476
0.010129513 0.027503174 0.013767283 0.041160863 0.018779494 -0.007580916 0.033153437 0.054723904
0.016034344 0.04080008 0.020683132 -0.0040646675 0.0602895 0.010807003 -0.028908422 -0.0034621907
0.048528023 0.044265296 -0.012152291 0.020351013 0.031490777 0.042888425 0.063699305 0.01558
0.07950092 -0.00659053 0.063252605 -0.017586326 -0.016632874 0.007230303 0.028772207 -0.04636906
0.037049886 0.0378035 0.027267143 0.020989928 0.018422361 0.0020730186 0.021898054 -0.021243969
0.039647732 0.056021098 0.015566119 -0.049546 0.009470586 -0.037308313 0.04671623 0.06637319
0.016592981 -0.05370649 0.0035052223 0.016045414 0.006565152 -0.010411093 -0.04812017 -0.048395704
0.00030464222 -0.035923067 0.042912982 0.0378187 0.011159249 0.027611734 0.020297844 0.054787084
0.022260945 0.035979364 -0.0066581997 0.020752516 0.03040779 0.03529363 -0.017044948 -0.015249078
-0.023514053 0.044363037 -0.022677742 0.06990624 0.054585118 0.0450633 0.038375124 0.006894479
0.028203757 0.040530775 0.039196886 0.065223135 0.033608574 0.008107291 -0.03111084 0.00721125
0.07184408 0.04434592 -0.0044728075 0.038214147 0.04378603 -0.043495025 -0.015742524 0.0066215657
0.038054425 0.05849651 -0.0012936374 0.03218912 0.03456325 0.004385417 0.034251634 0.064174145
-0.023010524 0.031537034 0.037369978 0.001831719 0.036856387 0.028213067 0.017806333 -0.030719833
0.036140494 0.02760237 0.02996771 0.064802155 0.03944736 0.013726452 0.057544325 -0.021118768
00000000: 1b27 c3b9 54a2 a43a c2e3 733d cd07 9b3c
00000010: e36b 3b3c 0128 d23c 8c6d c83c f05c 913c
00000020: b837 513d 4f31 733c c925 003d 0dff b23c
00000030: 9164 b73c 8657 1a3d 2bf7 943b ad16 ae3c
00000040: 3d30 f03c feea 473c d410 863c cdfe 513c
00000050: d437 0d3a d7c8 0f3c 74ed 47bc 6463 083d
00000060: 078c 513d b385 623c 786b 8b3d 3b8a 9c3c
00000070: 1e19 89bd e9a0 7dbc fdb5 763c 62de a63c
00000080: 9a7b 2f3d d162 0abd dc23 27bd b4e7 083d
00000090: 538c 2a3d 3b47 7e3c 5f42 133d 7675 bc3c
000000a0: 61e8 0e3b 37a4 8a3b 068b cb3c 3e96 903d
000000b0: 8271 173d be77 a23c 70cc 1e3d b6db 053d
000000c0: e21b 9a3b 8ac1 223b 1efc 353d 50b5 0e3d
000000d0: ed19 313b c118 1b3d a124 51bd b31a 39bd
000000e0: ffc8 263d 9719 51bd 0d56 e13c d5e9 6ebb
000000f0: 7679 f73c c50b 753b 67aa 723d e9e5 7db9
00000100: 0f18 183c fb81 fc3c af9e 1e3c 2d02 bebc
00000110: 037e 6cbc 4f9d 42bd 0221 f03c 71bc 4a3d
00000120: 860d 1ebd 3ca4 d9bb 389e 983c be99 f13c
00000130: 1d53 a2bc b751 a23d 34ab 103c 14bf 2dbc
00000140: 6143 5a3d ec6a 92bc 5276 ce3c 956c 173d
00000150: 2223 83bd d8d0 833c 4958 1a3d 05c0 c63b
00000160: 606a af3c dab8 e2bc 12ba e7bb b071 7a3d
00000170: 6426 39bd 44c2 343d 7790 183d d3f6 a5bb
00000180: e671 9e3c 5d42 d63c 8d96 593d c444 a1bc
00000190: 299e abbc dcc3 fbbc 14e8 ab3c 188c c63b
000001a0: ba14 a6bc 6d0a 4d3c 1e9a 123c 6d4e ab3c
000001b0: e887 00bd 4b22 273d 509a f4bc 2c39 8f3d
000001c0: ea52 4e3d 15b1 773c 577c e03c 3cdf d13c
000001d0: 43cc bf3c 8c73 fcbc 813e 32bc 9065 30bd
000001e0: c376 40bc 5601 b03c 76dc 303d dc93 213d
000001f0: c0a9 083c 8695 11bb 12ca c2bc 1ff6 cfbb
00000200: b169 803c 31b4 103d 8a9c 97bc 7a36 babc
00000210: 3f9a 45bd e25d 433b f328 323d c299 483d
00000220: 42f6 253c 564e e13c 2c90 613c 4b98 283d
00000230: 74d7 993c 5569 f8bb e6cb 073d 2c26 603d
00000240: 755a 833c fc1d 273d ac6f a93c e730 85bb
00000250: 1ff2 763d db0f 313c 5bd1 ecbc ece5 62bb
00000260: 52c5 463d 874f 353d 671a 47bc 2bb7 a63c
00000270: 79fc 003d c6ab 2f3d c874 823d 4243 7f3c
00000280: 61d1 a23d 5ff5 d7bb 958a 813d 3311 90bc
00000290: aa41 88bc 2dec ec3b b1b3 eb3c 7ced 3dbd
000002a0: 9fc1 173d d8d7 1a3d 585f df3c 12f3 ab3c
000002b0: 7eea 963c 7bdb 073b 8c63 b33c d507 aebc
000002c0: a965 223d 6176 653d 0909 7f3c bff0 4abd
000002d0: 842a 1b3c 9ad0 18bd 8559 3f3d abee 873d
000002e0: 01ee 873c 56fb 5bbd dfb7 653b ac71 833c
000002f0: 7d20 d73b 4a93 2abc a819 45bd 933a 46bd
00000300: 63b8 9f39 1124 13bd 86c5 2f3d c8e7 1a3d
00000310: 48d5 363c 0132 e23c aa47 a63c 6c68 603d
00000320: 965c b63c 195f 133d 072d dabb 2e01 aa3c
00000330: c219 f93c 0e90 103d d9a1 8bbc 45d7 79bc
00000340: 8ba0 c0bc 04b6 353d acc6 b9bc 012b 8f3d
00000350: a594 5f3d 4b94 383d 3c2f 1d3d 15eb e13b
00000360: 910b e73c 9903 263d ea8c 203d b593 853d
00000370: 25a9 093d 71d4 043c 29dc febc 594c ec3b
00000380: fd22 933d 11a4 353d a190 92bb 7086 1c3d
00000390: fb58 333d d727 32bd 77f6 80bc b8f9 d83b
000003a0: f5de 1b3d 099a 6f3d 458f a9ba bdd8 033d
000003b0: 3292 0d3d 8bb3 8f3b 714b 0c3d bc6d 833d
000003c0: 9180 bcbc fa2c 013d 4311 193d 4a16 f03a
000003d0: b9f6 163d 171f e73c 96de 913c 29a8 fbbc
000003e0: 0e08 143d 5e1e e23c d87e f53c feb6 843d
000003f0: 8e93 213d eae4 603c 99b3 6b3d 4401 adbc

fallback.proj.0.bias f4 [64]
0.022364616 0.027038576 -0.026734691 -0.037067406 0.027465634 0.011565973 0.009105156 -0.039630078
-0.017138677 2.5122397e-05 0.029465077 -0.031543702 0.026554536 0.038250793 -0.0049534873 -0.00061412284
-0.020311676 0.011292525 0.012017184 0.025135394 0.0008785526 -0.002855184 0.02686908 0.017618636
0.013109187 0.027424496 -0.00947604 0.0034563504 -0.007325339 0.011932804 -0.012851245 -0.016429098
-0.00033897677 -0.025698127 -0.0035761842 -0.007211291 -0.0372283 -0.009678269 -0.026787693 0.00709926
-0.006085606 0.0013397635 0.030797789 0.050621767 -0.0011649464 0.0031641503 -0.02059692 -0.020225646
0.024879782 -0.032938235 -0.026210338 0.0070798243 -0.017816374 -0.022250557 0.009171095 0.019319851
0.052176453 0.01953672 -0.009477503 0.001856969 -0.008385562 0.0029216912 0.0045856806 0.0313003
00000000: 0036 b73c 0180 dd3c b602 dbbc fed3 17bd
00000010: 9cff e03c 357f 3d3c cb2d 153c 2653 22bd
00000020: 6966 8cbc f0bd d237 bf60 f13c f833 01bd
00000030: e688 d93c ddac 1c3d dd50 a2bb 16fd 20ba
00000040: ac64 a6bc 4804 393c b9e3 443c bee8 cd3c
00000050: ab4e 663a 0a1e 3bbb 8b1c dc3c f554 903c
00000060: eac7 563c 56a9 e03c 6441 1bbc f083 623b
00000070: 6609 f0bb cf81 433c 078e 52bc 5196 86bc
00000080: b1b8 b1b9 e184 d2bc 6a5e 6abb b24c ecbb
00000090: b47c 18bd 9a91 1ebc dd71 dbbc e9a0 e83b
000000a0: c369 c7bb 019b af3a a54b fc3c c558 4f3d
000000b0: 1db1 98ba a25d 4f3b dfba a8bc 41b0 a5bc
000000c0: afd0 cb3c 3eea 06bd 10b7 d6bc dffd e73b
000000d0: a5f3 91bc cd46 b6bc 5c42 163c aa44 9e3c
000000e0: fab6 553d 790b a03c 8747 1bbc 8a65 f33a
000000f0: 9963 09bc d879 3f3b 7a43 963b be34 003d

fallback.mp_gats.0.gat1.attn_l f4 [1, 8, 8]
-0.02594102 0.4697119 0.23722193 -0.029688159 0.1734884 0.09387464 -0.1248556 0.13938664
0.048820984 -0.42194894 -0.054621484 -0.20620635 -0.013119993 -0.08814969 -0.41689286 -0.030398238
0.12489414 0.08857217 0.087188505 0.0067522125 -0.31463212 0.08600523 -0.028737595 0.3105919
-0.019960426 -0.6349255 0.1720896 -0.043827694 0.047011398 0.013586393 0.15366852 -0.25040928
-0.13380066 -0.07360708 0.18986495 0.07172065 -0.5385535 -0.22346815 0.14585699 0.11505487
-0.6659106 0.33329946 -0.114687584 0.058887333 0.17295575 -0.17326427 -0.18759458 0.11276662
-0.015351925 0.32076338 0.080281325 0.0435563 -0.31922704 0.004031562 0.2800556 -0.10901078
-0.2837026 0.058580995 0.29512188 0.08831996 0.1244136 -0.08571573 -0.19525415 0.17014414
00000000: 4382 d4bc 147e f03e 4eea 723e 9534 f3bc
00000010: f1a6 313e 5941 c03d 4bb4 ffbd 5fbb 0e3e
00000020: 83f8 473d b109 d8be c7ba 5fbd c227 53be
00000030: 3df5 56bc d387 b4bd fb72 d5be ba05 f9bc
00000040: 80c8 ff3d 5365 b53d e38f b23d aa41 dd3b
00000050: 7617 a1be 8323 b03d 1b6b ebbc e705 9f3e
00000060: 0c84 a3bc 7a8a 22bf 4238 303e ab84 33bd
00000070: 068f 403d 7699 5e3c 485b 1d3e a535 80be
00000080: 0a03 09be 4fbf 96bd f56b 423e 47e2 923d
00000090: a4de 09bf d6d4 64be 895b 153e e3a1 eb3d
000000a0: 1e79 2abf 3aa6 aa3e 53e1 eabd d833 713d
000000b0: 501b 313e 306c 31be cb18 40be 30f2 e63d
000000c0: a486 7bbc 193b a43e 896a a43d 1768 323d
000000d0: ba71 a3be 311b 843b 7363 8f3e 0b41 dfbd
000000e0: 7841 91be a0f2 6f3d 371a 973e 18e1 b43d
000000f0: 8fcc fe3d bb8b afbd b4f0 47be 443a 2e3e

fallback.mp_gats.0.gat1.attn_r f4 [1, 8, 8]
-0.30291086 0.02427488 -0.28083265 0.08808077 -0.0012367112 -0.20793824 -0.09898636 -0.15415654
-0.08029007 0.074203685 0.11775849 -0.0047320467 0.12217599 0.19055218 -0.31495163 -0.13602516
0.24612923 -0.16377942 -0.32857692 -0.109962076 -0.14065073 0.014523744 -0.20443043 -0.120784245
0.08975695 -0.37874553 0.24759366 0.074728094 -0.09214399 0.037469145 -0.02033721 -0.11517053
-0.26211178 -0.1318492 0.046988375 0.2178195 -0.07850843 0.021729916 0.25710937 -0.049640454
-0.20345105 0.010343441 -0.22386962 0.14315303 0.08503392 -0.40443894 0.18890321 -0.298189
-0.26420203 -0.21619594 0.05472938 0.44590017 0.12617838 0.14926147 -0.52004975 -0.04212281
0.24074915 0.056091134 0.054404628 0.12081064 -0.6336389 0.03461177 -0.11654234 0.010353612
00000000: 2217 9bbe 1ddc c63c 4cc9 8fbe b163 b43d
00000010: 2419 a2ba c3ed 54be 5cb9 cabd 36db 1dbe
00000020: 1f6f a4bd 1af8 973d 5d2b f13d 490f 9bbb
00000030: 6837 fa3d 1c20 433e 5741 a1be 2e4a 0bbe
00000040: 4d09 7c3e cbb5 27be 3c3b a8be cc33 e1bd
00000050: bf06 10be fff4 6d3c 3656 51be bb5d f7bd
00000060: 7ed2 b73d efea c1be 3189 7d3e 0b0b 993d
00000070: fdb5 bcbd 3f79 193d 389a a6bc 87de ebbd
00000080: 8433 86be 7a03 07be e276 403d 130c 5f3e
00000090: 07c9 a0bd f002 b23c d7a3 833e ca53 4bbd
000000a0: 7955 50be 8977 293c 143e 65be b596 123e
000000b0: 4426 ae3d 9f12 cfbe d86f 413e 3bac 98be
000000c0: 7d45 87be 7862 5dbe ea2b 603d 074d e43e
000000d0: e834 013e 00d8 183e fb21 05bf f888 2cbd
000000e0: f286 763e d1bf 653d 63d7 5e3d 926b f73d
000000f0: 2936 22bf 12c5 0d3d c0ad eebd 32a2 293c

fallback.mp_gats.0.gat1.bias f4 [64]
0.0057811597 0.0062116226 -0.011928816 0.014421419 0.031263597 -0.034839798 -0.015719602 0.008514758
0.016217645 -0.029533226 0.0032733963 0.014027004 -0.025045674 -0.015755948 -0.005466383 -0.0070024757
-0.011289571 0.01731831 0.040242657 0.038523644 0.020898165 -0.006735751 0.027972385 0.01310367
0.004331028 0.008430421 0.002592585 0.012535007 0.037414692 0.041217625 0.0071655656 0.017535837
-0.012292667 -0.009807855 0.0020734377 -0.009260876 -0.01816971 -0.026868943 0.034068316 0.025291111
0.02466266 -0.007334772 -0.026124772 -0.02687119 -0.019304018 -0.024315 -0.0040293094 0.037360344
-0.0051473915 0.038429454 -0.0054929964 -0.064790994 0.024389941 0.020815788 0.0150211835 0.022225216
-0.025239693 0.032932155 0.043028962 0.015836362 -0.03331491 -0.015742969 0.023548786 0.050250947
00000000: e26f bd3b de8a cb3b 1571 43bc d147 6c3c
00000010: 420e 003d 2db4 0ebd 65c6 80bc 7c81 0b3c
00000020: deda 843c aaef f1bc 7a86 563b 85d1 653c
00000030: 962c cdbc 9e12 81bc 581f b3bb 0675 e5bb
00000040: e5f7 38bc 21df 8d3c 7cd5 243d f8ca 1d3d
00000050: a132 ab3c 93b7 dcbb 5826 e53c c7b0 563c
00000060: 4ceb 8d3b c01f 0a3c 5ce8 293b a15f 4d3c
00000070: 2640 193d d0d3 283d 1fcd ea3b 51a7 8f3c
00000080: 2f67 49bc 20b1 20bc 83e2 073b eeba 17bc
00000090: a5d8 94bc 421c dcbc 388b 0b3d 4e2f cf3c
000000a0: 5909 ca3c 8758 f0bb 9e03 d6bc f820 dcbc
000000b0: 7623 9ebc 4030 c7bc 4c08 84bb 2907 193d
000000c0: 73ab a8bb 3468 1d3d 98fe b3bb 24b1 84bd
000000d0: 6acd c73c df85 aa3c 691b 763c a811 b63c
000000e0: 79c3 cebc dee3 063d 233f 303d 42bb 813c
000000f0: 3775 08bd 66f7 80bc 62e9 c03c f0d3 4d3d

fallback.mp_gats.0.gat1.fc.weight f4 [64, 64]
0.09676274 0.08399477 -0.14837393 -0.022203287 0.08503247 0.016955558 0.11153507 -0.22412176
0.016710734 -0.31804562 0.09146649 0.0990702 0.10087492 -0.061516024 0.29142758 -0.08046121
0.01568688 -0.009149373 -0.15175286 0.37060294 0.05177067 -0.038837958 -0.086204164 0.0006555604
0.067542545 -0.14158826 -0.16448958 0.13627456 -0.05092358 -0.09466425 -0.21204846 -0.19762085
-0.02283812 0.13024159 -0.13899778 0.3970709 -0.087665536 0.11502383 0.18887223 -0.14078572
-0.21135962 0.10882859 -0.21023194 -0.1674124 -0.114091344 0.19424082 0.0320041 0.19429235
-0.07643905 -0.25122383 0.037164234 -0.17584594 0.11144249 0.03357776 -0.002910121 -0.20063695
0.08159102 0.06453991 -0.034332793 0.1647719 0.16924988 0.16042282 0.06575518 0.31136197
0.4717824 -0.27765876 0.2843199 0.026583368 -0.19097012 0.044370282 0.32112995 -0.027897472
-0.1368281 0.09412265 -0.18709429 0.0015185184 -0.32424292 0.19263187 -0.2956418 0.25384647
0.08902784 -0.319196 -0.2162252 -0.026316907 -0.25008637 -0.24972484 0.22462808 -0.12008271
-0.19829914 -0.27741408 -0.3333178 -0.033672646 -0.21771464 0.05440573 -0.006608282 0.20472707
0.1992073 0.014766835 0.18364008 -0.016948232 0.14939533 0.2187773 0.030434925 -0.07549565
-0.23390663 -0.104155034 0.0051630484 -0.003966966 -0.21287349 0.13584726 -0.43255794 -0.028269026
-0.012721068 -0.115827784 0.1496401 0.19515805 -0.053689472 0.017136663 0.086961314 0.21732014
0.02074023 0.30690166 -0.0876823 0.019372914 -0.10498455 -0.30229133 0.04313783 0.22762184
-0.028567165 -0.049190108 0.037709642 -0.041767526 -0.14669763 -0.19564533 -0.0724771 -0.22425105
0.11073404 -0.0901073 -0.057915922 0.017839106 -0.025881408 0.012819021 -0.14703768 0.26611772
0.0139342 0.1316658 0.063891426 0.11042254 0.050566584 0.124319375 0.3521617 -0.0067063146
-0.019617636 -0.13232665 -0.014885208 -0.21347815 -0.102234155 -0.045369 -0.11072827 0.0064113885
-0.29157534 -0.26991764 0.0556698 -0.33111167 0.097474344 -0.07912545 -0.15476233 0.16420348
-0.033465672 -0.21315654 -0.0102175 -0.02206711 -0.14267841 0.14802963 -0.08225488 -0.055885788
-0.16224225 -0.06107179 -0.101874106 0.1845958 -0.06598619 -0.02858515 0.09732559 0.10438831
-0.047050506 0.061843764 0.2512259 0.0072074505 0.15127046 -0.07793863 0.047818404 0.08730876
-0.12343297 -0.01605042 -0.030343994 -0.08539365 -0.33578613 0.013862662 -0.16438232 -0.39476168
-0.22763216 -0.021271521 0.12839754 -0.1348621 0.1231021 -0.13585806 0.07713601 -0.0741432
-0.1523139 -0.07943037 0.2976725 -0.09905069 0.0012331704 0.20909725 -0.11739958 0.103295915
0.36440957 -0.0052564377 -0.028019663 -0.10333962 -0.2736788 0.04247809 -0.100397706 -0.07344326
-0.39450195 -0.025746154 -0.107768975 0.30838063 0.06798114 -0.23812902 -0.18439779 -0.35693574
-0.016504847 0.119432494 0.10868704 0.0008802189 0.4000056 0.284887 -0.052148025 0.18788329
-0.1436485 0.0013136544 -0.13022225 0.006393419 -0.114765294 0.42592573 -0.10857314 0.17937127
-0.04929563 0.025462326 0.2515346 -0.049439657 -0.042880442 0.087459154 -0.20485449 0.23678604
00000000: 8b2b c63d 7305 ac3d 56ef 17be abe3 b5bc
00000010: 8125 ae3d 62e6 8a3c 806c e43d 2d80 65be
00000020: f3e4 883c e0d6 a2be c852 bb3d 51e5 ca3d
00000030: 8397 ce3d 3af8 7bbd ff35 953e d9c8 a4bd
00000040: c681 803c 40e7 15bc 1a65 1bbe abbf bd3e
00000050: 7b0d 543d 8d14 1fbd cf8b b0bd ead9 2b3a
00000060: bf53 8a3d 83fc 10be f56f 28be 8f8b 0b3e
00000070: 3e95 50bd 55df c1bd 3b23 59be 1f5d 4abe
00000080: 0217 bbbc 0d5e 053e 6f55 0ebe e14c cb3e
00000090: fd89 b3bd 9d91 eb3d b967 413e 222a 10be
000000a0: a86e 58be 86e1 de3d 0b47 57be 286e 2bbe
000000b0: b9a8 e9bd 11e7 463e bb16 033d 93f4 463e
000000c0: 148c 9cbd 69a0 80be 8639 183d f510 34be
000000d0: f63b e43d d588 093d bbb7 3ebb c673 4dbe
000000e0: 3119 a73d 802d 843d 8ba0 0cbd f7b9 283e
000000f0: d74f 2d3e e145 243e a7aa 863d d66a 9f3e
00000100: 768d f13e 4a29 8ebe 6192 913e 5dc5 d93c
00000110: ac8d 43be 9dbd 353d 256b a43e 3d89 e4bc
00000120: aa1c 0cbe 60c3 c03d a595 3fbe 0609 c73a
00000130: 2b03 a6be 4a41 453e 5d5e 97be 2af8 813e
00000140: 3a54 b63d a86d a3be 246a 5dbe 8e96 d7bc
00000150: 520b 80be deb7 7fbe e704 663e eded f5bd
00000160: ee0e 4bbe 3809 8ebe a1a8 aabe 54ec 09bd
00000170: 96f0 5ebe 8bd8 5e3d 4a8a d8bb f9a3 513e
00000180: 00fd 4b3e 98f0 713c 250c 3c3e 05d7 8abc
00000190: 17fb 183e 2807 603e aa52 f93c 779d 9abd
000001a0: 3885 6fbe 3c4f d5bd ca2e a93b 53fd 81bb
000001b0: 82fb 59be 8b1b 0b3e 3c78 ddbe 7294 e7bc
000001c0: 076c 50bc 1e37 edbd 413b 193e 83d7 473e
000001d0: 7ee9 5bbd 3062 8c3c c618 b23d 2c89 5e3e
000001e0: 6ae7 a93c 3722 9d3e c792 b3bd f2b3 9e3c
000001f0: 2402 d7bd eec5 9abe 4bb1 303d b315 693e
00000200: b005 eabc 917b 49bd 6d75 1a3d 6d14 2bbd
00000210: e737 16be 4057 48be e06e 94bd 11a2 65be
00000220: 87c8 e23d 2d8a b8bd 3f39 6dbd 5123 923c
00000230: 3f05 d4bc df06 523c 0c91 16be 9540 883e
00000240: 454c 643c 66d3 063e 82d9 823d 3625 e23d
00000250: e81e 4f3d 289b fe3d 8a4e b43e a5c0 dbbb
00000260: 2ab5 a0bc a380 07be 16e1 73bc 049a 5abe
00000270: 2460 d1bd d8d4 39bd 81c5 e2bd a016 d23b
00000280: 5d49 95be a532 8abe 0406 643d 7887 a9be
00000290: a1a0 c73d 860c a2bd 047a 1ebe f524 283e
000002a0: 4d13 09bd b545 5abe 4d67 27bc 15c6 b4bc
000002b0: 4a1a 12be 1495 173e 3f75 a8bd 7fe8 64bd
000002c0: d522 26be 6a26 7abd 5fa3 d0bd ae06 3d3e
000002d0: c523 87bd 682b eabc a452 c73d 8ac9 d53d
000002e0: 08b8 40bd e34f 7d3d aea0 803e 7a2c ec3b
000002f0: a5e6 1a3e 4a9e 9fbd 3bdd 433d efce b23d
00000300: 6dca fcbd 2c7c 83bc f893 f8bc dee2 aebd
00000310: 29ec abbe 3820 633c d753 28be 341e cabe
00000320: 6818 69be 9d41 aebc a57a 033e 4a19 0abe
00000330: f41c fc3d 601e 0bbe 7cf9 9d3d 64d8 97bd
00000340: 2df8 1bbe 64ac a2bd 8868 983e 17db cabd
00000350: 55a2 a13a 971d 563e 316f f0bd cf8c d33d
00000360: e493 ba3e 323e acbb 7e89 e5bc b9a3 d3bd
00000370: a11f 8cbe 81fd 2d3d 509d cdbd 6b69 96bd
00000380: 29fc c9be 99e9 d2bc fbb5 dcbd 11e4 9d3e
00000390: b239 8b3d 18d8 73be c6d2 3cbe 48c0 b6be
000003a0: 2c35 87bc 0699 f43d 5097 de3d 7ebe 663a
000003b0: 89cd cc3e b5dc 913e 2b99 55bd 7a64 403e
000003c0: 9818 13be ed2e ac3a fb58 05be e37f d13b
000003d0: 110a ebbd f012 da3e 985b debd 1aad 373e
000003e0: 37ea 49bd 5e96 d03c 25c9 803e 3d81 4abd
000003f0: 67a3 2fbd c91d b33d 60c5 51be 0a78 723e

fallback.mp_gats.0.gat2.attn_l f4 [1, 1, 64]
-0.12306114 0.19334781 0.03560096 0.032939058 0.22811304 -0.099378414 0.10701555 0.11346235
-0.22483398 0.068404615 0.28937188 -0.33988473 -0.029587377 -0.11809211 0.029117709 0.51330054
-0.09406422 0.07082157 -0.010975318 0.09821085 0.39003077 -0.26537248 -0.013730046 -0.024703426
-0.0940553 -0.005709929 -0.12162945 0.101482175 -0.042870656 -0.24164602 0.4547325 -0.15593563
-0.19386378 -0.1256019 -0.24554355 0.14242083 0.12519313 -0.048545033 0.21308705 0.09335661
-0.16293079 0.20325351 0.11730843 0.24417537 -0.075363114 0.11364736 -0.10488115 0.17133348
-0.25896356 -0.34230393 -0.10049688 -0.080396235 -0.31737018 0.071486406 0.05302827 -0.2292658
-0.30909052 -0.026057199 0.16325791 0.01738552 0.26690742 -0.14356668 0.12495152 -0.00991528
00000000: 7b07 fcbd f8fc 453e 50d2 113d 1beb 063d
00000010: 7796 693e e986 cbbd f82a db3d f35e e83d
00000020: e13a 66be b817 8c3d 8d28 943e 5f05 aebe
00000030: 3a61 f2bc 47da f1bd 4388 ee3c aa67 033f
00000040: bea4 c0bd e60a 913d d2d1 33bc c522 c93d
00000050: 1db2 c73e e7de 87be fdf3 60bc d75e cabc
00000060: 11a0 c0bd 5b1a bbbb dc18 f9bd e3d5 cf3d
00000070: 2499 2fbd 0e72 77be b3d2 e83e 97ad 1fbe
00000080: 3a84 46be c99d 00be c56f 7bbe c4d6 113e
00000090: a132 003e 28d7 46bd 7e33 5a3e c031 bf3d
000000a0: 54d7 26be b021 503e 673f f03d 1c09 7a3e
000000b0: fa57 9abd f2bf e83d eecb d6bd 0b72 2f3e
000000c0: df96 84be 7642 afbe 4fd1 cdbd c8a6 a4bd
000000d0: 587e a2be 7767 923d 2c34 593d a7c4 6abe
000000e0: 1d41 9ebe e875 d5bc 152d 273e 146c 8e3c
000000f0: 17a8 883e 2503 13be 95e6 ff3d b373 22bc

fallback.mp_gats.0.gat2.attn_r f4 [1, 1, 64]
-0.07943675 0.16430019 -0.097388275 0.06316506 0.37306148 0.0013868738 0.13051066 0.122352965
-0.009529328 0.12755348 -0.018362775 -0.24038127 0.06794622 0.06390322 0.06322513 -0.038308002
-0.103689566 0.09838054 -0.027547523 -0.17466263 0.07710382 -0.126922 0.27590927 0.07278091
-0.38021463 0.16602315 -0.21754469 0.058949642 -0.051740777 0.064216316 -0.017796077 -0.13566421
0.19424026 0.06416419 -0.0645467 -0.047525596 -0.41604733 0.08862942 -0.06292993 -0.3617042
0.06453883 -0.046184603 -0.055232085 -0.15905096 -0.1392365 0.19221173 0.041815434 0.027989652
0.06201898 0.06875611 -0.10106833 0.016307522 0.08253258 0.021284282 -0.20633262 -0.014653508
0.22184187 -0.1296985 0.07407773 -0.15102886 0.03385718 -0.042825 -0.06720213 0.187595
00000000: bcaf a2bd 4f3e 283e 8173 c7bd af5c 813d
00000010: ea01 bf3e c3c7 b53a 96a4 053e 3194 fa3d
00000020: e620 1cbc 619d 023e 886d 96bc 8226 76be
00000030: 6327 8b3d b1df 823d 2d7c 813d dae8 1cbd
00000040: 325b d4bd bd7b c93d 58ab e1bc c3da 32be
00000050: 9ce8 9d3d d7f7 01be fb43 8d3e 280e 953d
00000060: 7eab c2be f901 2a3e 09c4 5ebe 2e75 713d
00000070: 23ee 53bd d883 833d 14c9 91bc 8feb 0abe
00000080: ebe6 463e 8468 833d 0f31 84bd 33aa 42bd
00000090: 2804 d5be 5783 b53d 68e1 80bd 4b31 b9be
000000a0: ef2c 843d 112c 3dbd 0a3b 62bd 41de 22be
000000b0: 0394 0ebe 27d3 443e a946 2b3d 8e4a e53c
000000c0: 9d07 7e3d 01d0 8c3d eafc cebd 5a97 853c
000000d0: d706 a93d 605c ae3c dc48 53be 4415 70bc
000000e0: 842a 633e afcf 04be 11b6 973d 4fa7 1abe
000000f0: d4ad 0a3d 4469 2fbd 45a1 89bd e718 403e

fallback.mp_gats.0.gat2.bias f4 [64]
0.043001514 -0.048872482 -0.018268969 0.004968293 -0.0029902018 0.032210972 -0.02456512 0.029841306
-0.04490543 -0.015449887 0.02762783 -0.04372432 -0.014990329 0.010105627 0.028557759 0.0037193305
-0.03466008 -0.013606499 0.0069204993 0.024151348 0.03301442 -0.029826589 -0.05259037 -0.011218724
-0.052489918 0.042983014 0.0018919248 0.043675344 0.0078118914 0.036154054 -0.017932275 -0.036481194
0.047172908 0.056404892 -0.04988958 0.0038405582 -0.008192319 0.053668257 0.01833381 -0.040680163
0.0065696375 -0.02784724 -0.014525214 -0.024665197 0.010408023 0.031078603 -0.020950852 -0.035851702
-0.05395431 0.015703611 0.0017120321 0.0004444765 0.015504105 0.03972777 0.020353913 0.040148422
0.031785227 -0.01606619 0.028155155 0.011071171 0.055332642 -0.0017225355 -0.036679804 -0.022563912
00000000: 5b22 303d 832e 48bd cea8 95bc 10cd a23b
00000010: 43f7 43bb a7ef 033d ca3c c9bc c175 f43c
00000020: c2ee 37bd 8621 7dbc c253 e23c 4618 33bd
00000030: ff99 75bc 1292 253c f6f1 e93c 03c0 733b
00000040: baf7 0dbd cbed 5ebc 5bc5 e23b 0cd9 c53c
00000050: 213a 073d e456 f4bc 0069 57bd bdce 37bc
00000060: abff 56bd f50e 303d 76fa f73a ebe4 323d
00000070: e5fa ff3b 4616 143d b5e6 92bc 4e6d 15bd
00000080: 6138 413d d108 673d 0459 4cbd e0b1 7b3b
00000090: 1439 06bc 3fd3 5b3d c930 963c 3ea0 26bd
000000a0: 1d46 d73b e51f e4bc 2afb 6dbc ab0e cabc
000000b0: 6a86 2a3c 8e98 fe3c 1fa1 abbc 3cd9 12bd
000000c0: 32ff 5cbd dca4 803c 4466 e03a a008 e939
000000d0: ee04 7e3c 96b9 223d 40bd a63c ac72 243d
000000e0: 3a31 023d 3e9d 83bc a4a5 e63c db63 353c
000000f0: 7ba4 623d b3c6 e1ba 903d 16bd f4d7 b8bc

fallback.mp_gats.0.gat2.fc.weight f4 [64, 64]
0.13342191 0.13057251 -0.21544991 -0.023775319 0.020325357 -0.07485056 -0.048385836 -0.030699514
-0.06464937 -0.09047882 -0.2774266 -0.22033608 -0.04319039 0.13645224 -0.087172315 -0.18980913
-0.20586221 0.110587366 0.120011345 -0.120900646 0.07521742 0.037151225 0.11956679 0.011811418
-0.2799742 0.17000201 0.14891213 0.13120392 -0.042977344 0.086768284 0.0134105645 -0.011763211
-0.4793799 -0.12227604 -0.08275458 -0.0015827058 0.48439738 0.080810726 -0.002641676 0.059620276
0.000116918505 -0.074641734 0.1730134 -0.087734975 0.18306874 0.19642782 -0.004426272 -0.14120564
0.028946979 -0.31748375 0.041950244 0.059745204 0.1362668 -0.09414535 -0.32590243 0.10739513
0.1188569 0.17852865 0.14347696 -0.19093244 -0.13212602 -0.14348489 0.007952883 0.19474068
-0.08235472 -0.038509466 -0.08268699 0.2663483 0.041904062 -0.16598251 -0.20130774 -0.056625023
-0.21031548 0.03473028 -0.01750283 0.37624916 0.008272038 -0.20709403 0.07389017 0.11592329
0.12177538 -0.33771518 -0.021953538 -0.03864423 0.108300015 0.20214842 0.1028875 -0.3856265
-0.03172995 -0.055604514 -0.41525874 0.1556691 0.059912007 0.047038227 0.11964876 -0.147565
0.049350817 -0.06201428 0.09641807 0.07831613 0.30971983 0.04420661 0.22140498 0.17539537
-0.08481863 -0.12516563 0.083914496 -0.06710333 -0.18492232 0.062113676 0.023812195 0.071756676
-0.16990545 -0.2179851 -0.36251518 0.001213031 0.06585426 -0.24525562 0.064586364 -0.15744835
0.25365326 0.00072499824 0.112520866 0.121893235 -0.070361756 0.14550364 -0.040750343 -0.07080694
0.20239882 -0.22681269 -0.0506239 0.3585654 0.13675253 0.16946703 -0.3058788 0.38774824
-0.064918384 -0.023364566 -0.18018751 -0.12739985 -0.35231993 -0.39406523 0.01991995 -0.2816955
0.10051692 -0.07320437 -0.33998698 -0.23698899 -0.46646392 -0.28925133 0.0015716079 -0.0540434
0.11076512 -0.2826551 0.16399924 0.17303593 -0.15438111 -0.09045466 0.06355944 -0.2252686
-0.0121322265 -0.1360039 0.1148937 0.014659878 0.44696903 -0.18991648 -0.30571496 0.030050544
0.021566056 -0.055151578 0.119537845 0.23630637 -0.032376986 0.04879396 0.30104467 -0.11882042
-0.04499119 0.09078604 0.2062776 -0.03579437 0.037654836 0.20825636 -0.065885164 0.13930318
0.11635249 0.09591982 0.04137186 0.14988606 0.6050471 0.04815008 -0.22648363 -0.20143676
-0.076529734 -0.0122532835 -0.049041916 -0.4312706 -0.081141 0.28695065 0.19220959 -0.12331539
0.004594856 0.30191517 -0.016507935 -0.518179 -0.13777398 0.21728644 0.21727777 -0.17965348
0.0676846 0.15098336 -0.19648749 -0.07291162 -0.04266867 -0.25433812 0.008294581 -0.01310285
-0.07066332 0.16691855 -0.12140126 0.014988378 -0.018195234 -0.22929856 -0.09360606 -0.062468246
0.08966071 0.046284836 -0.11413047 -0.07609016 0.009868346 0.17538461 -0.4550952 -0.10463671
0.071653396 0.08117148 0.029447183 0.1660205 0.103902385 0.14296795 -0.026390348 0.19877343
-0.23092891 -0.080610484 0.045138694 0.008980575 -0.015114448 0.010407744 0.4206761 -0.18211167
0.32127073 -0.14852856 -0.06573645 0.33218193 -0.069078565 0.006393846 -0.27952465 0.269046
00000000: c19f 083e cdb4 053e e79e 5cbe 75c4 c2bc
00000010: 5d81 a63c 404b 99bd 3a30 46bd 8c7d fbbc
00000020: e466 84bd f64c b9bd dc0a 8ebe c89f 61be
00000030: 68e8 30bd 23ba 0b3e 6687 b2bd 535d 42be
00000040: 8bcd 52be a17b e23d 82c8 f53d c29a f7bd
00000050: 970b 9a3d e22b 183d 6fdf f43d ae84 413c
00000060: c758 8fbe 0215 2e3e 6c7c 183e 525a 063e
00000070: 0309 30bd 92b3 b13d fcb7 5b3c 7cba 40bc
00000080: 4871 f5be dc6b fabd 3c7b a9bd cb72 cfba
00000090: ef02 f83e 1880 a53d f81f 2dbb 6434 743d
000000a0: 2532 f538 c4dd 98bd 6d2a 313e 65ae b3bd
000000b0: 5f76 3b3e 6024 493e 430a 91bb 3698 10be
000000c0: 3722 ed3c 3b8d a2be 05d4 2b3d 63b7 743d
000000d0: 8689 0b3e 47cf c0bd afdc a6be faf1 db3d
000000e0: 3f6b f33d 37d0 363e a0eb 123e cb83 43be
000000f0: 0b4c 07be b4ed 12be cf4c 023c 1a6a 473e
00000100: 97a9 a8bd 1abc 1dbd cc57 a9bd ce5e 883e
00000110: 98a3 2b3d 52f7 29be 9e23 4ebe a4ef 67bd
00000120: f15c 57be 5741 0e3d 1862 8fbc bba3 c03e
00000130: 7187 073c 7510 54be bb53 973d 3169 ed3d
00000140: 5f65 f93d 01e9 acbe e8d7 b3bc 6a49 1ebd
00000150: 66cc dd3d ffff 4e3e aeb6 d23d d670 c5be
00000160: 44f7 01bd 8fc1 63bd cb9c d4be b867 1f3e
00000170: 4b66 753d 28ab 403d 690a f53d 481b 17be
00000180: 1524 4a3d b002 7ebd d676 c53d 3564 a03d
00000190: 9993 9e3e fe11 353d fdb7 623e d89a 333e
000001a0: 64b5 adbd 6b2b 00be 5ddb ab3d 786d 89bd
000001b0: 475c 3dbe e96a 7e3d cb11 c33c 2af5 923d
000001c0: b2fb 2dbe 7c37 5fbe 979b b9be 91fe 9e3a
000001d0: 99de 863d 4a24 7bbe db45 843d 243a 21be
000001e0: d7de 813e cf0d 3e3a 5771 e63d 29a3 f93d
000001f0: d319 90bd e8fe 143e d5e9 26bd 3b03 91bd
00000200: a341 4f3e 9641 68be 025b 4fbd e295 b73e
00000210: db08 0c3e c488 2d3e 259c 9cbe f086 c63e
00000220: eef3 84bd 0c67 bfbc 1383 38be 1b75 02be
00000230: 4763 b4be ebc2 c9be 2a2f a33c 643a 90be
00000240: d1db cd3d 2cec 95bd c612 aebe 3ead 72be
00000250: 5cd4 eebe c018 94be 69fe cd3a 9d5c 5dbd
00000260: d3d8 e23d 2bb8 90be 6bef 273e 5530 313e
00000270: 1516 1ebe 4b40 b9bd 742b 823d d0ac 66be
00000280: 3fc6 46bc 9b44 0bbe 634d eb3d fc2f 703c
00000290: 20d9 e43e 7779 42be ac86 9cbe 8f2c f63c
000002a0: 4cab b03c 9fe6 61bd 42d0 f43d 4cfa 713e
000002b0: bb9d 04bd 2ddc 473d 8722 9a3e 1f58 f3bd
000002c0: af48 38bd 08ee b93d 6f3a 533e 1e9d 12bd
000002d0: f53b 1a3d 2841 553e cdee 86bd 7ea5 0e3e
000002e0: 374a ee3d 9c71 c43d 8a75 293d bb7b 193e
000002f0: 5ee4 1a3f 0539 453d 53eb 67be 7045 4ebe
00000300: 9fbb 9cbd ffc1 48bc 2de0 48bd 80cf dcbe
00000310: 412d a6bd 32eb 923e 97d2 443e c78c fcbd
00000320: 7290 963b a094 9a3e a63b 87bc 61a7 04bf
00000330: 9f14 0dbe 5680 5e3e 107e 5e3e 15f7 37be
00000340: 399e 8a3d 629b 1a3e 0434 49be b052 95bd
00000350: 58c5 2ebd 9b38 82be ffe5 073c 56ad 56bc
00000360: eeb7 90bd b2ec 2a3e 39a1 f8bd d091 753c
00000370: 2c0e 95bc 3ecd 6abe 89b4 bfbd b4de 7fbd
00000380: 09a0 b73d 2b95 3d3d 3cbd e9bd 28d5 9bbd
00000390: d8ae 213c 0698 333e 3d02 e9be c54b d6bd
000003a0: 04bf 923d 3c3d a63d 383b f13c 4701 2a3e
000003b0: c6ca d43d 3166 123e 9230 d8bc 438b 4b3e
000003c0: a178 6cbe 1c17 a5bd 5ae3 383d 4323 133c
000003d0: 97a2 77bc 3e85 2a3c dc62 d73e 7b7b 3abe
000003e0: 997d a43e df17 18be d5a0 86bd c013 aa3e
000003f0: 1079 8dbd 7883 d13b db1d 8fbe 66c0 893e

fallback.mp_gats.1.gat1.attn_l f4 [1, 8, 8]
-0.26663882 0.28662372 0.07778853 0.03272747 -0.040654268 -0.256916 -0.081708156 0.005881848
-0.026614731 -0.1239949 -0.18902491 0.09522537 -0.32558486 0.099961974 0.020349437 -0.16297711
0.10640474 -0.283093 -0.3904749 0.012772865 0.30046272 0.166255 -0.1537502 -0.035895348
-0.0036218932 0.13792756 -0.07206771 0.003910392 -0.04424446 -0.21067563 0.00887078 0.04422562
-0.020328762 -0.1974637 -0.24747798 -0.2574059 -0.15122174 0.09886896 0.3831579 -0.0892828
0.2530232 -0.323584 -0.24997455 0.18165407 0.0992996 -0.22057556 -0.04199808 0.5317095
0.044156108 -0.14677486 0.12075688 -0.2259066 -0.0685558 -0.13051175 0.05590595 0.044182457
0.2575246 0.3758077 -0.20128067 0.24015537 0.06668281 0.2725627 0.07071451 0.0059086345
00000000: e284 88be 58c0 923e 984f 9f3d 3d0d 063d
00000010: 1785 26bd 7e8a 83be 9b56 a7bd 84bc c03b
00000020: 2307 dabc 0af1 fdbd bf8f 41be 8505 c33d
00000030: 0fb3 a6be ddb8 cc3d ddb3 a63c 79e3 26be
00000040: baea d93d 91f1 90be 53ec c7be 4745 513c
00000050: 40d6 993e c03e 2a3e b170 1dbe 0007 13bd
00000060: 495d 6dbb e23c 0d3e 3c98 93bd bf22 803b
00000070: ae39 35bd 5abb 57be bf56 113c ec25 353d
00000080: 8188 a6bc ed33 4abe de6a 7dbe b5ca 83be
00000090: dfd9 1abe cf7b ca3d 462d c43e e7d9 b6bd
000000a0: 428c 813e cdac a5be 54f9 7fbe 8603 3a3e
000000b0: 975d cb3d 8fde 61be 2e06 2cbd 1d1e 083f
000000c0: 09dd 343d 264c 16be 624f f73d 0f54 67be
000000d0: fc66 8cbd dfa4 05be a3fd 643d aaf8 343d
000000e0: 44da 833e de69 c03e 851c 4ebe 4aeb 753e
000000f0: ff90 883d 578d 8b3e c5d2 903d 389d c13b

fallback.mp_gats.1.gat1.attn_r f4 [1, 8, 8]
-0.027607689 -0.17415123 0.031704877 0.04638053 0.13610643 -0.13826649 0.15358911 -0.045436133
-0.09619882 0.15439233 -0.010135725 -0.016897196 -0.00779007 0.02387583 0.048810348 0.019774787
0.016078986 -5.0930557e-05 0.43221256 -0.029687708 0.01288981 -0.26523972 -0.013090579 0.00026971372
0.12873223 0.017527228 0.02330151 -0.01106401 -0.17379098 -0.2890536 0.011226577 0.023432823
0.1064161 0.10635065 0.04090018 0.113370255 -0.094601005 0.13595952 0.2726024 0.086428344
0.10235164 -0.07984682 -0.10755391 -0.00039852547 0.20319754 -0.30932742 0.1813101 0.097699426
0.15984508 0.0114675565 -0.0024101941 -0.22195396 0.022912193 0.009032712 -0.026642961 -0.0016760309
0.018468255 0.024018243 0.016899033 0.04553947 -0.029047115 0.0001636623 0.16538975 0.2461467
00000000: 8529 e2bc b354 32be f9dc 013d 83f9 3d3d
00000010: 7c5f 0b3e bb95 0dbe 7746 1d3e 3d1b 3abd
00000020: e303 c5bd 0619 1e3e 5010 26bc fd6b 8abc
00000030: d843 ffbb 3f97 c33c 5ced 473d bcfe a13c
00000040: 14b8 833c 459e 55b8 f74a dd3e a333 f3bc
00000050: c82f 533c 80cd 87be de79 56bc 5d68 8d39
00000060: 62d2 033e 4395 8f3c cfe2 be3c d245 35bc
00000070: 43f6 31be d5fe 93be adef 373c 31f6 bf3c
00000080: aff0 d93d 5fce d93d f286 273d aa2e e83d
00000090: 2cbe c1bd f938 0b3e 8b92 8b3e 5801 b13d
000000a0: bd9d d13d bb86 a3bd 3945 dcbd 2ff1 d0b9
000000b0: 0413 503e 2a60 9ebe 5ba9 393e a316 c83d
000000c0: 6eae 233e 6be2 3b3c 59f4 1dbb e647 63be
000000d0: 5ab2 bb3c f1fd 133c 5742 dabc 44ae dbba
000000e0: bd4a 973c e8c1 c43c d76f 8a3c 9887 3a3d
000000f0: 37f4 edbc c49c 2b39 ee5b 293e e10d 7c3e

fallback.mp_gats.1.gat1.bias f4 [64]
0.009188324 0.02971586 0.009855915 0.019372754 -0.038080513 -0.004143783 0.0049923323 -0.020566914
-0.019519985 0.039906546 2.7487831e-05 -0.040914323 -0.04054863 0.02561102 -0.023211781 0.02947858
0.053809207 -0.007072697 -0.0068885344 -0.018380655 0.052268703 -0.0149666285 0.016805364 -0.0081116585
0.025021689 -0.004177568 -0.028379805 0.04570418 -0.0029686217 0.018566795 0.020099014 0.03936014
-0.017024275 -0.0016826723 0.043046318 -0.023580305 0.022344049 0.010022727 0.043681957 0.028546378
0.02647459 0.04778296 -0.014355938 -0.025891969 -0.009899663 0.028100932 -0.024987618 -0.0018575704
0.060202483 0.044713367 -0.023182161 -0.018633513 -0.0019763522 0.009186771 0.047250304 0.027345175
0.030288368 -0.004907709 -0.051214907 -0.016258452 -0.020172328 -0.019389192 0.004635466 -0.0018971073
00000000: a08a 163c ad6e f33c b47a 213c 9cb3 9e3c
00000010: 50fa 1bbd 92c8 87bb b896 a33b f27b a8bc
00000020: 60e8 9fbc 0c75 233d ab95 e637 c795 27bd
00000030: 5216 26bd 34ce d13c a226 bebc 107d f13c
00000040: 0b67 5c3d 15c2 e7bb 37b9 e1bb 0793 96bc
00000050: b517 563d 9736 75bc 67ab 893c c3e6 04bc
00000060: 49fa cc3c fbe3 88bb c47c e8bc 4e34 3b3d
00000070: 358d 42bb 6419 983c b0a6 a43c 1938 213d
00000080: 7e76 8bbc 1d8d dcba 5651 303d 7c2b c1bc
00000090: de0a b73c 5d36 243c daeb 323d 18da e93c
000000a0: 3de1 d83c 11b8 433d 2b35 6bbc 651b d4bc
000000b0: 3232 22bc ed33 e63c d5b2 ccbc b879 f3ba
000000c0: e196 763d 5d25 373d 84e8 bdbc 4fa5 98bc
000000d0: b085 01bb 1c84 163c 8989 413d fd02 e03c
000000e0: 501f f83c d9d0 a0bb b9c6 51bd 7230 85bc
000000f0: 7040 a5bc 15d6 9ebc 1be5 973b 5ca8 f8ba

fallback.mp_gats.1.gat1.fc.weight f4 [64, 64]
-0.020486696 -0.027794624 -0.34563908 0.014826137 0.014591831 0.13059594 -0.3366958 -0.21564482
-0.039962687 -0.04385178 0.29034677 -0.12523226 0.095782176 -0.03309548 -0.22110452 -0.3972576
0.29006544 0.11903549 0.051699746 0.03642668 0.27497178 -0.0453304 -0.07260004 0.0749229
0.020770764 0.16348763 0.07386777 -0.19797145 -0.11534364 -0.04494942 -0.12009437 -0.025893658
-0.05263766 -0.0061923387 -0.49571747 0.044063807 -0.15276554 -0.012920648 0.15007652 -0.018149992
-0.1862218 0.18764256 -0.062405385 -0.4341409 -0.023298802 -0.1087627 0.27386177 -0.19153869
-0.05346573 0.19620226 0.07016153 -0.05024128 -0.07324371 0.021003032 -0.37508965 0.12832846
0.035688404 0.07480983 0.036806718 0.20902048 0.07044797 0.129064 0.22449127 -0.14266881
0.03608284 0.034381483 -0.08448613 -0.41297886 0.17268158 -0.22508115 -0.050277494 -0.15999295
0.21281956 -0.18711787 -0.08749694 0.07240263 -0.09443326 0.2651712 0.13868475 0.042230442
0.1613248 -0.116587676 -0.13604781 0.2754242 -0.11934762 -0.03201793 0.13236417 -0.18691842
0.16151598 0.052890345 0.015734676 -0.016278017 -0.016736193 0.10505706 0.052135326 -0.20769554
0.18175605 0.16107987 -0.009355439 -0.16752332 -0.18679537 0.11794427 0.019418927 0.3989616
0.095098905 -0.13511802 0.24220793 0.10595098 0.06250772 0.45836782 -0.068704866 -0.2192958
0.36484587 0.29366332 -0.067319624 -0.0033753314 -0.18570524 0.09947991 -0.17377442 0.100904316
-0.10832877 -0.11392535 0.063723154 -0.0034246424 -0.15672515 0.21257262 0.14158896 0.21790768
0.12192472 0.021322314 -0.19388308 0.06328232 -0.0627649 0.10594348 0.10116373 -0.13967213
0.020604357 -0.11823837 -0.059160426 0.057722554 -0.12233581 -0.11639638 -0.0043880874 -0.13699783
-0.08082178 -0.18337165 0.09671931 -0.1626573 -0.00046754486 0.04159547 -0.022051353 -0.04567799
0.0824263 0.24638517 -0.056890003 -0.11422584 -0.06197551 0.021449357 0.09384034 0.07447887
-0.08832259 0.031098126 0.09559318 0.047451314 0.055540837 0.24433322 -0.41526008 0.084630005
0.29119438 0.057329398 -0.016304307 -0.17945611 0.14818382 -0.10074198 0.0637007 -0.058009982
-0.006019195 -0.11497473 0.07305571 -0.076761335 -0.10250891 -0.12480492 0.055783883 0.017421177
0.0025043294 -0.02514536 -0.019894976 0.118983604 0.037367295 0.1142636 -0.24002478 -0.21373074
0.10230188 -0.029225579 0.19131653 -0.12983346 -0.02080755 -0.042595096 -0.014579093 -0.03853845
-0.15815234 0.020963475 -0.020068506 0.05761261 -0.069107205 -0.11557637 -0.14059786 0.08154365
-0.14295119 -0.042020738 0.033022188 0.057343893 -0.068223044 0.30190104 0.09803643 0.124747664
0.091846794 -0.03627639 -0.24922343 -0.039390225 -0.20375434 0.30847234 0.08526523 0.0029360258
0.076903656 -0.17419356 0.014224306 0.21305315 0.0013019356 -0.3547345 -0.017685443 0.19120023
-0.038982388 -0.1485905 0.016575482 0.159124 -0.03679993 -0.15914077 -0.3025972 0.0131802475
-0.0062482753 0.020736998 -0.062440917 0.16244134 -0.041527513 0.026415892 0.089073725 0.038530856
0.08990166 0.16968155 0.21599422 0.13637467 -0.0024732705 -0.04211093 -0.0032396403 -0.18934858
00000000: b7d3 a7bc 8db1 e3bc 9bf7 b0be 53e9 723c
00000010: 9312 6f3c f1ba 053e 6463 acbe ffd1 5cbe
00000020: eaaf 23bd ed9d 33bd 55a8 943e e33c 00be
00000030: 7229 c43d 208f 07bd 3969 62be 5965 cbbe
00000040: 7583 943e e1c8 f33d 1dc3 533d 2434 153d
00000050: 1ac9 8c3e 5fac 39bd 54af 94bd 2d71 993d
00000060: 7327 aa3c 4d69 273e fc47 973d 07b9 4abe
00000070: 4939 ecbd e21c 38bd 09f4 f5bd f01e d4bc
00000080: 969a 57bd 1ae9 cabb aece fdbe 407c 343d
00000090: 926e 1cbe 20b1 53bc a9ad 193e 4baf 94bc
000000a0: edb0 3ebe 5f25 403e ca9c 7fbd b747 debe
000000b0: 21dd bebc fabe debd 9c37 8c3e b822 44be
000000c0: e2fe 5abd 3fe9 483e d9b0 8f3d cdc9 4dbd
000000d0: cc00 96bd 8d0e ac3c c00b c0be 8968 033e
000000e0: 012e 123d e535 993d a4c2 163d 7709 563e
000000f0: 0647 903d 5a29 043e 0ae1 653e c617 12be
00000100: 9acb 133d 99d3 0c3d 1007 adbd f771 d3be
00000110: 71d3 303e ac7b 66be c6ef 4dbd 31d5 23be
00000120: 5fed 593e d49b 3fbe 9831 b3bd d447 943d
00000130: 3a66 c1bd 85c4 873e 6003 0e3e d4f9 2c3d
00000140: 5432 253e 85c5 eebd 1e50 0bbe 6704 8d3e
00000150: 866c f4bd 3c25 03bd 798a 073e 8b67 3fbe
00000160: 7264 253e 8ca3 583d 02e6 803c 7a59 85bc
00000170: 571a 89bc 2828 d73d da8b 553d 24ae 54be
00000180: 421e 3a3e 1ff2 243e 8e47 19bc 3c8b 2bbe
00000190: 4947 3fbe c48c f13d 7114 9f3c b244 cc3e
000001a0: 37c3 c23d 615c 0abe 5b05 783e d4fc d83d
000001b0: 0c04 803d 30af ea3e 23b5 8cbd 148f 60be
000001c0: 14cd ba3e 0a5b 963e dfde 89bd aa34 5dbb
000001d0: 8429 3ebe 20bc cb3d ecf1 31be eca6 ce3d
000001e0: 79db ddbd b251 e9bd 4981 823d f76f 60bb
000001f0: 8f7c 20be a3ac 593e b2fc 103e 3123 5f3e
00000200: abb3 f93d 22ac ae3c 4989 46be 299a 813d
00000210: e28a 80bd e5f8 d83d ee2e cf3d 3606 0fbe
00000220: 78ca a83c f526 f2bd 3452 72bd 7c6e 6c3d
00000230: 328b fabd 3a61 eebd f2c9 8fbb 2949 0cbe
00000240: e485 a5bd c7c5 3bbe c614 c63d a38f 26be
00000250: cf20 f5b9 0360 2a3d 0aa5 b4bc d818 3bbd
00000260: 1fcf a83d 654c 7c3e 7e05 69bd 3def e9bd
00000270: 08da 7dbd 90b6 af3c 5d2f c03d 6188 983d
00000280: 79e2 b4bd 7fc1 fe3c 5bc6 c33d 4f5c 423d
00000290: ca7e 633d 7d32 7a3e f89c d4be 7f52 ad3d
000002a0: 6e17 953e 3bd2 6a3d 9c90 85bc 58c3 37be
000002b0: 80bd 173e d051 cebd 8375 823d e09b 6dbd
000002c0: ab3c c5bb df77 ebbd 3b9e 953d 0c35 9dbd
000002d0: 31f0 d1bd b999 ffbd a47d 643d dbb6 8e3c
000002e0: ad1f 243b a4fd cdbc cafa a2bc adad f33d
000002f0: 730e 193d 0903 ea3d 0ec9 75be 3bdc 5abe
00000300: a683 d13d 7b6a efbc 7be8 433e 10f3 04be
00000310: 9874 aabc 3278 2ebd 26dd 6ebc 7eda 1dbd
00000320: b0f2 21be 98bb ab3c b566 a4bc 33fb 6b3d
00000330: 1488 8dbd 4eb3 ecbd e3f8 0fbe 5b00 a73d
00000340: cc61 12be f01d 2cbd 4642 073d 6ee1 6a3d
00000350: 86b8 8bbd c692 9a3e 53c7 c83d b47b ff3d
00000360: 2c1a bc3d 8d96 14bd 6d34 7fbe a557 21bd
00000370: faa4 50be 16f0 9d3e 899f ae3d 576a 403b
00000380: aa7f 9d3d cc5f 32be 100d 693c 9b2a 5a3e
00000390: b6a5 aa3a c39f b5be 10e1 90bc fec9 433e
000003a0: ffab 1fbd 1c28 18be 4ec9 873c 67f1 223e
000003b0: 86bb 16bd ccf5 22be 05ee 9abe f7f1 573c
000003c0: 55be ccbb a3e0 a93c 0cc2 7fbd 0657 263e
000003d0: c118 2abd 2466 d83c 496c b63d 88d2 1d3d
000003e0: 5d1e b83d 00c1 2d3e 972d 5d3e cda5 0b3e
000003f0: 9816 22bb 837c 2cbd 2550 54bb 98e4 41be

fallback.mp_gats.1.gat2.attn_l f4 [1, 1, 64]
0.027997091 -0.011696568 0.01028611 0.17345104 0.009044738 0.010330899 0.010580757 0.00083357596
0.18898657 -0.10662228 0.049779013 0.010005536 0.019703625 0.009584791 -0.22655736 -0.044928078
0.07284142 0.0039547137 -0.07304389 -0.014446233 0.19645748 0.08865407 -0.11304635 -0.010276861
0.014611205 -0.0009364337 -0.057567365 0.070130885 0.003124569 -0.006876094 0.10789036 -0.22490156
-0.0018077054 -0.099360295 0.024513647 -0.057370096 -0.014027392 0.0118398415 -0.013436788 -0.018499516
-0.012566332 -0.053938005 -0.17665868 0.0769276 0.042170975 -0.017174711 0.0034164074 -0.09562907
-0.004221497 0.002338895 0.07588746 -0.0080984505 0.12134885 -0.13994776 0.016244316 0.1090965
0.012340073 0.009713658 0.006421985 -0.012131996 0.01314258 -0.010407511 0.0054856236 -0.123219766
00000000: 285a e53c f6a2 3fbc 1387 283c 269d 313e
00000010: 6130 143c ee42 293c e95a 2d3c 5684 5a3a
00000020: b285 413e c85c dabd 14e5 4b3d 42ee 233c
00000030: 7f69 a13c 8709 1d3c a7fe 67be 8106 38bd
00000040: e22d 953d 8b96 813b 0998 95bd e5af 6cbc
00000050: 262c 493e 4490 b53d d884 e7bd 4760 28bc
00000060: d663 6f3c 007b 75ba c2cb 6bbd c8a0 8f3d
00000070: 92c5 4c3b db50 e1bb 9ff5 dc3d 984c 66be
00000080: 87f0 ecba 697d cbbd d8d0 c83c e8fc 6abd
00000090: 25d3 65bc e5fb 413c f925 5cbc 4c8c 97bc
000000a0: 04e3 4dbc 19ee 5cbd 03e6 34be 388c 9d3d
000000b0: 79bb 2c3d fbb1 8cbc cee5 5f3b 2dd9 c3bd
000000c0: 7c54 8abb 2648 193b e26a 9b3d 5daf 04bc
000000d0: bf85 f83d 774e 0fbe cd12 853c fc6d df3d
000000e0: 042e 4a3c 0926 1f3c 846f d23b 48c5 46bc
000000f0: fa53 573c 4484 2abc bfc0 b33b a55a fcbd

fallback.mp_gats.1.gat2.attn_r f4 [1, 1, 64]
-0.012815694 0.1149457 0.062297747 -0.014064911 -0.16164193 0.0029870926 -0.002479204 0.000833162
-0.006934097 0.052422933 0.00017889113 0.19891544 -0.18547824 -0.07599382 0.00040362153 -0.013118112
-0.08776132 0.0009965638 -0.011138823 0.048706286 0.119756944 0.011734813 -0.191083 0.009208444
-0.005960624 -0.012185096 -0.00073029153 0.0027219749 -0.012097906 -0.0049257306 -0.16670865 0.0044425675
-0.0021819556 -0.01124293 0.013172067 -0.0009652334 -0.001725245 -0.09632569 -0.005251655 -0.0018854938
-0.08005588 -0.013751329 -0.15354137 0.011486075 0.27275246 -0.045387287 -0.0025438892 -0.11400043
0.005293212 -0.0060246675 -0.0075758877 0.023989266 -0.046479363 -0.00521934 0.019871144 0.0077390657
-0.15220174 -0.04420264 -0.0021887748 0.0011328849 -0.09362981 -0.047022033 0.0138556035 0.0027505101
00000000: ebf8 51bc a768 eb3d ec2b 7f3d 8370 66bc
00000010: 7685 25be 19c3 433b 247a 22bb 8e68 5a3a
00000020: 6c37 e3bb 6eb9 563d b994 3b39 7db0 4b3e
00000030: 02ee 3dbe a6a2 9bbd 2a9d d339 5aed 56bc
00000040: 35bc b3bd 229f 823a 9c7f 36bc 3e80 473d
00000050: 2143 f53d 6043 403c 43ab 43be 03df 163c
00000060: 5751 c3bb ffa3 47bc 0971 3fba 2963 323b
00000070: 4c36 46bc 0668 a1bb acb5 2abe f592 913b
00000080: 24ff 0ebb 4434 38bc a7cf 573c b807 7dba
00000090: 9e21 e2ba 6746 c5bd 1316 acbb ac22 f7ba
000000a0: 56f4 a3bd 414d 61bc f339 1dbe 1730 3c3c
000000b0: 36a6 8b3e 05e8 39bd 61b7 26bb 0f79 e9bd
000000c0: ae72 ad3b 936a c5bb 273f f8bb 2385 c43c
000000d0: 2561 3ebd ff06 abbb cfc8 a23c fd97 fd3b
000000e0: c6da 1bbe d40d 35bd 8c71 0fbb 4f7d 943a
000000f0: fcc0 bfbd 2d9a 40bd 9d02 633c e741 343b

fallback.mp_gats.1.gat2.bias f4 [64]
-0.049121644 0.02723888 0.018500742 -0.038394704 0.029774653 0.0076081245 0.064222686 -0.028615616
0.050531067 0.0068126703 -0.037388574 0.02449735 -0.008968203 -0.0052297977 -0.024559487 0.03662085
0.025887804 0.0065325326 -0.00886299 0.054828506 -0.04450235 0.02945352 0.027266124 0.010836663
0.039867576 -0.027236192 0.021429557 -0.017569887 -0.0064357766 -0.042136267 -0.027962597 0.048740603
-0.04026315 -0.042066313 0.05112364 -0.013849757 0.017871315 -0.029403614 -0.041269574 0.016932137
0.005513914 0.028285827 0.03292604 0.029605126 0.03786812 -0.044194303 0.04332257 0.029725086
0.03589614 0.022731654 -0.027253853 0.008736915 0.012104821 -0.030821545 -0.019365825 -0.04779116
-0.029268967 0.014874726 -0.048315786 0.022917097 -0.03963615 0.017532015 0.0222331 -0.016519539
00000000: c733 49bd 1224 df3c de8e 973c c443 1dbd
00000010: f9e9 f33c 934d f93b 2f87 833d 4c6b eabc
00000020: aaf9 4e3d d23c df3b c324 19bd abae c83c
00000030: 5fef 12bc b95e abbb fa30 c9bc bfff 153d
00000040: a912 d43c db0e d63b 1336 11bc db93 603d
00000050: 1948 36bd 8248 f13c 355d df3c 428c 313c
00000060: 2f4c 233d 6f1e dfbc 0a8d af3c b9ee 8fbc
00000070: 35e3 d2bb 1497 2cbd d111 e5bc 3aa4 473d
00000080: f9ea 24bd ba4d 2cbd 0667 513d 17ea 62bc
00000090: dd66 923c d9df f0bc 490a 29bd 44b5 8a3c
000000a0: 10ae b43b aeb7 e73c 75dd 063d 7386 f23c
000000b0: 9a1b 1b3d 1605 35bd 0273 313d 0682 f33c
000000c0: d507 133d bc37 ba3c 7943 dfbc 4725 0f3c
000000d0: 4d53 463c 777d fcbc 14a5 9ebc aac0 43bd
000000e0: 79c5 efbc 1fb5 733c c6e6 45bd a3bc bb3c
000000f0: 8459 22bd 4d9f 8f3c 3122 b63c fc53 87bc
